Parte II/TEC_AD_TP2/models/fcn_best_run_06_seed_66.pt (torch, 229038 bytes, 20 tensors)

fc1.weight f4 [256, 41]
00000000: bbf6 e33e 9ddc 8bbe a141 f4bd a637 dc3c
00000010: d900 013f fc17 05bd d865 90bc a18e f0bc
00000020: 60ec 85be 320c 273b 5c3d 713e d3a3 01be
00000030: 60f4 94be ee97 b9be 9e73 5e3c a1b0 f4bd
00000040: 9ef1 c0bd d0c2 b93d fe9a 9dbe 4e76 5c3e
00000050: ceaf c23e cf9e adbc 2715 90bd 68b1 90be
00000060: 0af2 b9be 4eb6 523e bd55 0cbe 18bf 11be
00000070: 379e 683e 960f b63d 9e98 ffbe 0969 073f
00000080: fbb7 bdbe 2bc4 9dbe 5391 aebd 34b8 da3e
00000090: f759 49bd cadf 283e 2005 17be 27c4 b13e
000000a0: cf65 04be 15dc 4e3e 16d7 3d3e 0a90 c6be
000000b0: 6fe6 793e 8b56 23be f7a2 b7bc afa9 f83d
000000c0: bc9c f8bd e1b5 6e3d cfe6 2bbe 154d ca3d
000000d0: 3337 47be 5d0e 0fbf 6ad3 90be 3cf4 71bd
000000e0: 647f c1bd 59e1 30be 080f 853e e32f 823e
000000f0: 0487 123f 9aaa 82bd 01c0 963b 9551 c13e
00000100: e1ee c3be 92cf d43d 91d5 09bf cd18 fc3d
00000110: df50 4fbd 3d08 c13e 88a3 ccbd d7d2 cbbe
00000120: 5dc9 8b3c 3fce 86be 19d8 92bd 376b 713e
00000130: 5e73 babd 9002 f7bd 36da 813d 1946 48bf
00000140: 91f6 75be 6530 4abd 6d88 7cbd 1641 0dbe
00000150: 7811 9f3d ebef 3cbe 93a4 a0be 7d7b 7abd
00000160: e845 b23d 7340 f3b9 3b02 463f 6f8c bbbe
00000170: db36 8d3d 5e34 8cbe 867c 02bf fe3f c7bd
00000180: c547 8f3e 4d10 87be 2de2 2c3e 563d 13bd
00000190: 18a3 ac3e 374f 3c3e e865 82bd a43b 713e
000001a0: 2762 cf3d 1a73 84be 65f7 903c feb9 1a3d
000001b0: 9613 373e 39d9 c43d 3602 773e 42e2 b03c
000001c0: 5c2d 2bbe bca0 433e 17b7 a83e bd90 473d
000001d0: d995 f5be 8474 9ebe 9641 40bd 829e 81bd
000001e0: 10b3 0c3f 11a2 233d f115 41bd 592a 3bbe
000001f0: 8c10 c13e f5d3 c0be bcf0 debd 53bc 1cbf
00000200: c247 303e 562a 653e 2200 f7bd 0b21 f13e
00000210: 1310 2cbe 72de 8abe 279a 0e3d 1a90 8cbe
00000220: be39 3e3e d5e3 c33d 8d4d 333e 7976 48be
00000230: 4418 013e e49f c03e 136d 3bbe 4892 a7bd
00000240: f6cd 34be 84ac 8bbe de80 943e 0d7b 1b3e
00000250: 1447 643e 52c5 3abe ec3c 373e 9ca2 c8be
00000260: 56f2 983d 05d9 9e3e 801e 213f 3a4b ddbe
00000270: 59ba c63d 6050 f5bd c27c 693d 0261 d7be
00000280: 3630 2b3e c11f 7fbe 6f12 f13d b9ff 87bd
00000290: 9866 6bbc 0d3c 3bbe ca48 24be 0f23 dd3d
000002a0: c503 c3be 0cca ac3d 39a3 93bd 9f60 0ebe
000002b0: d17d 913c b79d 1bbd 41dd 2c3d 0a8f 6dbc
000002c0: 6aa3 8bbe 412a db3d e055 12be de4d 3dbb
000002d0: 5bce cf3d 8249 4c3e 85d8 993e 8676 ddbd
000002e0: 27e8 b9be 563c ef3d 8350 413e cd5d 5fbe
000002f0: 57f6 33be 4cf8 873d dafb e3be 64ce 3ebe
00000300: 413c 943e 3e6a e8be 8ac9 b73d 6f41 07bf
00000310: a44f e33e e8fd 5d3d cc1c e6bd 3cb9 4fbe
00000320: 42c2 9c3d b033 d4bd 276c 513f fee9 493d
00000330: 82bf 5a3e afa5 debd c1f7 923d a875 1cbe
00000340: fe52 9d3e 52c8 1f3f 2296 923d e047 923e
00000350: 8fe5 82bc 2756 c9be cf1a 3cbd 9a63 f33d
00000360: 97c0 253e 9833 813d d2b6 0fbe a5f8 babe
00000370: 0512 19be eb27 9a3e f391 7a3e acf9 e2be
00000380: 46fd a33e c2b2 68be f155 aabd 2fef 74bd
00000390: badf c23e 8bbd 8a3e a26c 90be 5ff9 abbe
000003a0: c122 bf3e 0823 f63c 4521 5f3e 84b7 4a3e
000003b0: 258b abbe 5381 a1be 0a0d 783e 9d51 c4bd
000003c0: ed60 b0be 13e8 a6bd 4446 cf3d c41b 39bf
000003d0: 8be5 f7bd 8f59 d1bd 45b0 443d fbf4 703e
000003e0: 610a 593c 35f1 053e 1c66 e3bd dfa3 f03d
000003f0: c1a0 1a3f 6832 20be fb62 023f 95f0 39be
0.44524178 -0.27316752 -0.1192658 0.026882004 0.5039192 -0.032493576 -0.017626688 -0.029364886
-0.26156902 0.0025489447 0.23558563 -0.1266015 -0.29092693 -0.36248726 0.01357737 -0.11947752
-0.09421085 0.09070361 -0.30782312 0.21529505 0.38024753 -0.02119389 -0.070352845 -0.2826035
-0.36317474 0.20577356 -0.13704582 -0.14233053 0.22716604 0.088896915 -0.49921125 0.52894646
-0.37054428 -0.30813727 -0.08523812 0.4271866 -0.049158063 0.16491619 -0.14748049 0.34719965
-0.12929462 0.20201142 0.1853908 -0.38781768 0.2440431 -0.15950982 -0.022416575 0.121417396
-0.1213927 0.058278922 -0.16787265 0.098779835 -0.1945465 -0.5588129 -0.28286296 -0.05907081
-0.09448126 -0.17273463 0.2598803 0.2542716 0.5723727 -0.06380196 0.0046005254 0.37757555
-0.38268188 0.103911534 -0.538415 0.12309418 -0.050614234 0.37701598 -0.099921286 -0.39809296
0.017063791 -0.26329228 -0.071701236 0.23576055 -0.09104036 -0.12061036 0.063404486 -0.7823196
-0.24019839 -0.04936256 -0.061653543 -0.1379436 0.07767004 -0.18450896 -0.3137556 -0.061152924
0.0870474 -0.0004639659 0.77347153 -0.3663058 0.068952285 -0.27383703 -0.5097126 -0.097290024
0.27984443 -0.26379624 0.16883154 -0.035947166 0.3371818 0.18389593 -0.06367093 0.23557907
0.10126143 -0.25869066 0.017696092 0.037775032 0.17878565 0.096117444 0.24121937 0.021592263
-0.16716522 0.19104284 0.32952186 0.048722018 -0.47965887 -0.3094827 -0.046937548 -0.06329061
0.5496073 0.03994948 -0.047140066 -0.18277873 0.37707937 -0.3766171 -0.1088576 -0.6122486
0.17214873 0.22379431 -0.12060572 0.47095522 -0.16803007 -0.27122837 0.03481498 -0.2745369
0.18576714 0.0956494 0.17510052 -0.19576444 0.12606913 0.37621987 -0.18303327 -0.08182198
-0.17656693 -0.27280056 0.29004568 0.15183659 0.22292739 -0.18239334 0.17894334 -0.3918656
0.07468097 0.31024948 0.62937164 -0.43221456 0.09703512 -0.11978221 0.057003744 -0.420662
0.1671761 -0.24914457 0.11771094 -0.06640572 -0.014367722 -0.18284626 -0.16043392 0.107977025
-0.38088813 0.08436975 -0.072088666 -0.13904046 0.01776019 -0.037992205 0.04220319 -0.014499435
-0.27273113 0.10701419 -0.14290571 -0.0028885524 0.10146781 0.19949916 0.30048004 -0.10813622
-0.3630993 0.1168143 0.18878369 -0.21813126 -0.1757444 0.06639156 -0.44528085 -0.1863342
0.2895222 -0.45393556 0.089739874 -0.5283422 0.44396698 0.054197222 -0.11235961 -0.20285505
0.07654239 -0.10361421 0.8180565 0.049295418 0.21362117 -0.108714454 0.071761616 -0.15279257
0.3072738 0.6241504 0.07157542 0.2857046 -0.015978603 -0.39323542 -0.045924004 0.11884232
0.16186748 0.06308669 -0.14034584 -0.36517826 -0.1494828 0.3010858 0.24469738 -0.4433111
0.3202917 -0.2272444 -0.08317173 -0.059798416 0.38061315 0.27097735 -0.2820788 -0.33588693
0.37331203 0.030046001 0.21790035 0.19796568 -0.33504596 -0.3154398 0.24223724 -0.09585879
-0.34448949 -0.081497334 0.10120824 -0.7230799 -0.12104329 -0.1022216 0.048019666 0.23530953
0.013247103 0.13080294 -0.1110346 0.11750006 0.6040154 -0.15644228 0.5093228 -0.18158181

fc1.bias f4 [256]
00000000: db7d 3dbb e552 ddba 96b5 273d 9d78 afba
00000010: 882d 6abd f3c4 11bc 29d7 3cbb 8ff2 4fbc
00000020: af31 28bc e665 84bc 1a14 d93a 90a9 d23b
00000030: f17a 943c 8e87 f43c d7fb 71bc 80f5 26bc
00000040: 1dc7 3f3c b241 093c 1118 31bc f55b 87bc
00000050: a66f 16bc 8561 6ebb 04bf 78bb 2a87 4ebc
00000060: 82d9 383c 5c6d 4cbb 2420 a3bc 29f3 5f3c
00000070: 9269 6abc 7c28 fbb8 084d 09b9 716f 6c3a
00000080: eb26 91bd e991 ca3c f39b 373b 18c8 943b
00000090: 2e8b e63c 7c35 91bb 769e 2c3c 63e5 febb
000000a0: 181b 0cbc e71c ec3c 9630 e93a ba0d f9ba
000000b0: 11c2 37bc 82d1 7d3c b450 8cbc aafd 273b
000000c0: d5c1 343c f516 ebba e1b8 19bb 9447 2dbb
000000d0: 01f3 4abb 0f39 f8bb 805c 83bc 6882 d83a
000000e0: 20cb 6539 135c 84bc a84b 303b 6e79 043d
000000f0: f3cb 49bb fad1 0fbc 9fbb 66bb 509a 99bc
00000100: 5ccf 46bc 735b acbb b28c c43a cc23 1a3b
00000110: 7add acbb fd73 d53b e000 60bc 7cb6 b73c
00000120: 661b 6d3c ff55 d23b 0edf 9fbb 6466 3d3c
00000130: 7a78 5e39 ef14 debc 0bb5 d53b 7bff 043c
00000140: 4028 633c 4401 fcbb 7c24 163d 0d1d 16bb
00000150: 8b5e 9f3b 5504 e0bb 6d29 d33c 5886 df3b
00000160: 3d7b ceba 93b8 aebb 0a9a 99bb bc4b 15bd
00000170: f371 3c3b 931d b4bc 5c9b 833c c65a a4bb
00000180: 8f66 7b3b 29af 643b 403d 023c d6c9 733b
00000190: 7e92 bc3c f87e 99b8 2985 3d3b a39a 7f38
000001a0: 2e89 b3bb 3e9e 5ab9 1187 9d3b 10f0 64bb
000001b0: 8d44 0abc cff3 c33c adbf b63b e212 4c3c
000001c0: 8789 033b d4d8 74bc a0ae 873a 4322 6c3b
000001d0: a0f3 29bc 9b34 aebc a65d e6bb 1c12 05bc
000001e0: 78c6 75bb 73b3 87bc 610b 17bd 1987 803c
000001f0: baed 4e3b 5480 603c ee20 77bb 5f23 8cba
00000200: fc23 8bbc bac1 b7b9 9398 dc3c 7374 6abb
00000210: 6870 3bbc 94b8 81bc 4e83 ca3b 17cd 22ba
00000220: 4c17 6abc 4c54 e83b 9747 403c ca69 7abb
00000230: d902 633a 0976 db3c ca22 3dbb b9c3 993c
00000240: e132 23bb 1176 cd3a d176 31bb 86fc 383d
00000250: a24a 06bc 8b8b fcbb 5742 f3bb feeb 44bb
00000260: a989 193c d33b 63bb 837f d33a 1c9f 40ba
00000270: e5f7 09bc 4fc1 9fbb 4f9e 20bc 940b dbba
00000280: c992 05bb 5120 b4bc 7612 0dbc 9801 63bc
00000290: aef6 063c 570a 9e3b 3201 373c f86a e239
000002a0: 47e8 473b 107d f8bc 32db 1a3d 6ccd 0bbc
000002b0: 1233 f3bb 59ac 293c 0d80 ddbc 513d a83a
000002c0: d6c5 223b 9682 613b ba7b c63c e227 713c
000002d0: f1a6 ffbb e05f 9f3b 103a 9eba 4862 753c
000002e0: 5842 163c b0c0 cd3c 9a3c 803b 6cfa 15bc
000002f0: 0a3a 72bc 8763 12bc 57d8 bfbb 08dc 603c
00000300: 76a1 453a 2458 e6bb 06e8 dabc 73d9 623b
00000310: bb25 dd3a de06 033b d55c 8abb 2b7c 7738
00000320: feec ba3a bb3f d5bc 52d7 3cbc bd71 32bc
00000330: 098e 263c c03a c5bb f7bc b3bc 539a bcbb
00000340: d6b9 0e3b 942e 0bbc 830a c9bc 97b8 463b
00000350: f0f4 42bc 6868 adba 6409 e6bb a0e8 f1bb
00000360: 45c3 e4ba 877e 09bd 2c09 d53b 259a 6dbc
00000370: d4f6 27bc 8420 713a 5d6f 893b c54d 10bd
00000380: 8aab 53bc 192f 7ebc 11c9 60bd 1659 a0bb
00000390: 5963 823b 2f8b 9fbb be7f e2bc f728 78ba
000003a0: c09f 093c 06b8 11bb 9604 8d3b a6d1 10bc
000003b0: 07be 563c d7aa 633a 830e b7bb e29b 773b
000003c0: d11f 7dbc 9666 dc3b ce90 ca3b bcf1 ec3a
000003d0: 882c 953b 2844 1a3c 5647 b7bb 73a4 643b
000003e0: e08e 67bc 01fa 0f3d ba69 9bbb 4fa6 6dbd
000003f0: c5f6 4e3b 14c9 f3bb 15a1 0bbd 4f7d a63a
-0.0028914127 -0.0016885666 0.04094466 -0.0013387386 -0.05717233 -0.008897054 -0.002881477 -0.012692108
-0.010265752 -0.01616187 0.0016561777 0.006428905 0.01812503 0.029849794 -0.014769516 -0.010190368
0.011705187 0.008377479 -0.010808961 -0.01652334 -0.0091818925 -0.0036374044 -0.003795565 -0.012605468
0.011282327 -0.0031193113 -0.019912787 0.013668814 -0.0143073965 -0.000119761535 -0.00013094035 0.00090192916
-0.07087501 0.024727779 0.0028016537 0.0045404546 0.028142538 -0.0044314247 0.010535827 -0.00777881
-0.0085513815 0.028822375 0.0017790969 -0.0019001283 -0.011215703 0.015491845 -0.017128326 0.0025633373
0.011032541 -0.0017935919 -0.0023456144 -0.002644037 -0.0030967596 -0.0075751613 -0.016035318 0.0016518356
0.00021914812 -0.016157186 0.0026900563 0.032342367 -0.003079173 -0.00877809 -0.0035207046 -0.01875034
-0.012134399 -0.005259925 0.0014995544 0.0023519872 -0.0052754255 0.006514071 -0.013672084 0.022425883
0.014471864 0.006418943 -0.004878885 0.011560056 0.00021216451 -0.027109591 0.006521826 0.008117552
0.013864577 -0.0076905806 0.036655888 -0.00229055 0.0048635653 -0.006836454 0.02577659 0.006821435
-0.0015753281 -0.0053320616 -0.0046875523 -0.03644918 0.0028754442 -0.021986758 0.016065292 -0.005015704
0.003836069 0.0034894443 0.007949173 0.003719916 0.023019072 -7.319258e-05 0.002891848 6.0940754e-05
-0.0054789996 -0.0002084905 0.004807361 -0.0034933127 -0.008439195 0.023919968 0.0055770488 0.012455674
0.0020070986 -0.014944274 0.0010351725 0.0036031164 -0.010373026 -0.021265319 -0.0070302067 -0.008121993
-0.003750233 -0.01656506 -0.036876086 0.01568942 0.0031574802 0.013702471 -0.0037708837 -0.0010691694
-0.016984932 -0.00035048818 0.026928222 -0.0035774976 -0.011440374 -0.015835084 0.0061802035 -0.00062103703
-0.014287781 0.007090127 0.011735818 -0.0038210028 0.0008659787 0.026789682 -0.0028859847 0.018770086
-0.0024902152 0.0015675445 -0.0027078877 0.0451627 -0.008196505 -0.0077070645 -0.00742368 -0.003004789
0.0093712 -0.003467311 0.0016136024 -0.0007347928 -0.008420919 -0.004875339 -0.009803369 -0.0016711825
-0.002038168 -0.021988066 -0.008610358 -0.01385536 0.008237524 0.00482301 0.011169719 0.00043185777
0.0030503438 -0.030333072 0.037806697 -0.008532863 -0.0074218595 0.010356032 -0.027038598 0.0012835657
0.0024837158 0.003441011 0.02422892 0.014718981 -0.0078018834 0.004863724 -0.0012071747 0.014977045
0.009171091 0.025116295 0.0039134743 -0.0091539435 -0.014784345 -0.008934862 -0.005854647 0.013724335
0.0007539013 -0.00702955 -0.026721966 0.0034614473 0.0016872206 0.0019993107 -0.004222492 5.900503e-05
0.0014261303 -0.026031366 -0.011525946 -0.010891375 0.0101657 -0.0060189664 -0.021940691 -0.0057557016
0.0021778247 -0.008494992 -0.024541145 0.0030322426 -0.011899218 -0.0013229968 -0.0070201624 -0.0073824674
-0.0017453214 -0.03356793 0.0065013375 -0.014502083 -0.0102517195 0.00091982656 0.0041941837 -0.035230417
-0.012919316 -0.015514159 -0.054879252 -0.0048934324 0.0039791283 -0.004868887 -0.027648803 -0.00094665535
0.008399904 -0.002223493 0.004303525 -0.008839047 0.0131068295 0.000868482 -0.0055864467 0.0037782122
-0.01544948 0.0067260964 0.006181813 0.0018077414 0.0045524277 0.009415664 -0.0055932207 0.0034888058
-0.014133185 0.03515053 -0.004742828 -0.058019932 0.0031580192 -0.007439742 -0.034089167 0.001270214

fc2.weight f4 [128, 256]
00000000: ff4b 82bd 56b3 fe3d c431 973c 1339 a93a
00000010: f880 cbbd 2068 c9bd f877 ee3d 64b3 91be
00000020: a26c 37bd 645c cabc 1f4d f1bd e271 f13c
00000030: 8954 51be bc6d e8bb 1ae2 49be b753 20be
00000040: f08e 01be f7f5 9d3d 686b 1dbd 1f4b 90ba
00000050: c404 e23d 2063 a33c 7c6c 033e aceb 77bd
00000060: 575f 413c 3e72 10be 64a3 0fbe d76b debc
00000070: 1385 2c3d a2d5 5bbd 275f 9abd f68a 823d
00000080: c89b 2b3e 0c5c f7bd f6f0 c4bd fa42 b6bd
00000090: 1dd7 1bbe 8efa 6ebb ec4b 193e eff4 653d
000000a0: 47bf 843d 5809 343d 0496 b73d db83 42bc
000000b0: 0ff4 c7bd a320 3bbd a901 143b 362f 91bd
000000c0: 451e f7bd acef bd3d 4dac 19be ea87 89bd
000000d0: 2c78 43bd 8a57 863d bc24 e2bd b992 40bd
000000e0: 53be 80be 4ba4 523d a0ce ebbc 2d3b 803d
000000f0: 52d7 383d b6b2 4bba 3c4d 073e a31d b23d
00000100: 294c 0cbc 5ff9 cbbd c6f5 a83d 984a 0abe
00000110: 93c6 37be fd1a 98bc 5ff8 01be e91e 903d
00000120: 4c36 87bb efb0 db3d b330 6dbc 9e67 123d
00000130: bf7e 2d3e 2d81 9fbe bf85 20be a233 6d3d
00000140: 1e35 12be 11c5 12bd 6c9b 613b d041 5cbd
00000150: 40c0 c03d 4a00 c9bc 761f b63d 38c7 aebc
00000160: 0f1a 2e3d 62a8 423d 7e9f 30bd 160c 353d
00000170: 84ab 8c3d 494c 93bc 2feb 063e a50c 1e3c
00000180: 0ca7 f53c 21bd 193d 5940 13be f694 edbd
00000190: c16f 98bd 1632 9abd 899b 6bbd abd4 92bd
000001a0: f1b3 813d a831 903c 34cc 85be 187b babd
000001b0: 88c7 203e 9105 1abe a751 60bd a0a3 afbd
000001c0: 5cb0 1e3c 940f 35be f9ba bb3d bfe6 0b3e
000001d0: 1faa 1bbd 9492 37be aeb0 5bbe 84ce 43be
000001e0: 9e7e 13be 473f 37bc 310b 63bd 85b9 cabd
000001f0: 1dbb abbd ea77 15be 28eb e639 e9b1 b9bd
00000200: 47a8 76bd 4078 b3bd 88cd 4e3d e709 07bc
00000210: 2bf0 0e3d 980a 00be ad21 b33d b4a4 35bc
00000220: 6be6 bbbd 7885 fe3c dc34 653d ba24 823c
00000230: 7a2c a8bd 2eec 16be 0809 80bd 7b04 90be
00000240: f064 11be 7916 87bd 4546 f6bc 354f a73d
00000250: ee7c b83d 6637 0c3e 067a 2abd 891c 11bd
00000260: 0bc2 5abd 0b5b 8fbd 6289 fd3d e5cb 2dbd
00000270: bdd1 b73d b8d5 edbd fdf0 33be 65d6 013e
00000280: 0f5c 413c 5d07 3abd b8e3 51be 0417 ff3c
00000290: 1ede a03d f3ac 0c3c 49d2 e0bd 4c6a 133c
000002a0: f5ea 89bd a949 a2bd 514e 523e e784 d2bd
000002b0: 55a6 3b3e 3703 47bd 71f9 773d 790b 803a
000002c0: 57e2 03be 4e6a a0bd 4aae 563a df7c 273d
000002d0: 53e0 09be 9fb8 b33c 1c3d d93d 02f7 27bd
000002e0: 68a1 5e3e 36c7 9e3d 6ec5 c1bd 02c9 62bd
000002f0: 925f 6dbd ae1b 64be 9fcf 5e3d ae26 803d
00000300: 52fd 273e 1d0a 963d 8ce9 94bd 4937 583d
00000310: ab91 083d 3e0c 753d 54c4 453d 9c12 e2bd
00000320: 8a84 c5bb 3111 f4bd 9571 72bd c8f5 96bd
00000330: 5def e13d 8c60 babd 20f2 a63c f1ca c1bd
00000340: c28c eebc b2b9 8bbd abb6 c3bd 4d25 a2bc
00000350: 3949 153e b235 2bbd 3419 873c 8843 f03d
00000360: f40d e83d 22fd 65be dcee 81bd 774d 173d
00000370: 5b70 bcbd c57c 3bbd 9167 0f3e b486 8abb
00000380: 3bb0 02bb 69eb 153d 03e4 c23e f157 853c
00000390: eaf2 51bd fdb4 bbbd 1ffd 023e 072e 64bd
000003a0: 793c ae3c 295a 3ebd af1f b13e 05a7 b23c
000003b0: 1ff3 5e3e 090a a7bd ddde 0abe 0ee1 9e3d
000003c0: f393 f3bd 0045 3abe 19cc 17be db6e 3abe
000003d0: d5f5 7d3d 64cd 5d3e 72fc a03d 18e8 c1bd
000003e0: 0d9c 8c3d 36c8 65bc 97de b53a ab7f fc3d
000003f0: 3b29 80bd d8b2 05be 605c 20be f429 1ebe
-0.06362151 0.12436549 0.018456347 0.0012910686 -0.09936708 -0.098343134 0.11643976 -0.28457177
-0.044781335 -0.024702258 -0.11782288 0.029473249 -0.20442404 -0.0070931595 -0.19715157 -0.15656935
-0.12652183 0.0771293 -0.03843251 -0.0011008716 0.11036065 0.019944727 0.12834352 -0.06052749
0.011802516 -0.1410608 -0.14027172 -0.027151031 0.042119097 -0.053670533 -0.0753768 0.06374161
0.16758645 -0.120781034 -0.09616272 -0.088994935 -0.15218778 -0.003646526 0.14970368 0.05614179
0.06481796 0.043954223 0.0896416 -0.011872257 -0.09763347 -0.04568542 0.0022583997 -0.07089083
-0.1206632 0.092742294 -0.15007134 -0.06715377 -0.047722027 0.065596655 -0.11042163 -0.047014926
-0.25145206 0.051426213 -0.02878505 0.06261287 0.04512722 -0.00077704655 0.13213056 0.08697059
-0.00856308 -0.09959673 0.082500026 -0.13505018 -0.17946844 -0.018567557 -0.12692402 0.07037146
-0.0041263457 0.10727107 -0.014476943 0.03574335 0.16942881 -0.3115324 -0.1567602 0.05791057
-0.14278075 -0.03583247 0.0034424914 -0.0537737 0.09411669 -0.02453627 0.088927194 -0.02133523
0.04250532 0.047523864 -0.043120854 0.04420098 0.068686515 -0.017980712 0.13175653 0.009646569
0.02998688 0.037533883 -0.14380015 -0.11600678 -0.0744319 -0.075290844 -0.057521377 -0.071694694
0.06333149 0.017601803 -0.26132357 -0.091055095 0.15701115 -0.15041186 -0.05476537 -0.08576131
0.009685602 -0.17681724 0.091665216 0.13662241 -0.038004037 -0.17927009 -0.21454117 -0.19121748
-0.1440377 -0.01118452 -0.055430595 -0.09898666 -0.083852984 -0.14596525 0.00044044224 -0.09067137
-0.060219076 -0.0876317 0.05048898 -0.008242107 0.03489701 -0.12504041 0.087466575 -0.011086632
-0.09174808 0.031069502 0.055958614 0.015886653 -0.08211608 -0.14738533 -0.062517226 -0.28128418
-0.14198661 -0.06596083 -0.030062804 0.081694044 0.090082034 0.13693008 -0.041620277 -0.035427604
-0.05340771 -0.06999787 0.12379719 -0.042430777 0.08975551 -0.11613029 -0.17572398 0.12679441
0.011801734 -0.04541718 -0.20497024 0.031138904 0.078548655 0.008586156 -0.10977609 0.008997511
-0.067342676 -0.07924206 0.20537688 -0.10279255 0.1832517 -0.04858705 0.06054062 0.0009769044
-0.1287931 -0.07832776 0.0008189423 0.04089057 -0.13464479 0.02193862 0.10607359 -0.04100705
0.21741259 0.0775284 -0.09461485 -0.055367477 -0.05795247 -0.22276184 0.05439722 0.062573776
0.16405228 0.07326148 -0.07271108 0.0527871 0.033342045 0.05982613 0.048282936 -0.11038706
-0.006027763 -0.119173415 -0.05919035 -0.07371098 0.11031983 -0.09100446 0.020379126 -0.09462536
-0.029119853 -0.06822528 -0.095563255 -0.019793177 0.14578713 -0.041799255 0.01649151 0.117316306
0.11330786 -0.22459844 -0.06344387 0.03693911 -0.092011176 -0.045773286 0.14004351 -0.0042274836
-0.0019941467 0.036601458 0.38064584 0.016277285 -0.05125705 -0.0916538 0.1279187 -0.055707958
0.02126907 -0.046472702 0.34594485 0.021808157 0.21772431 -0.08156211 -0.13561578 0.077577695
-0.118934534 -0.18190384 -0.14823951 -0.1820635 0.06200202 0.21660382 0.0786065 -0.094680965
0.06865702 -0.014024785 0.0013875541 0.12329038 -0.06257864 -0.13056505 -0.15660238 -0.15445691

fc2.bias f4 [128]
00000000: 0922 6d3b 8459 1b3c 4cb6 af3c ded8 a1ba
00000010: 90ed d8bb b3a8 4f3c 990f 3fbb fa2e c2b8
00000020: 1b29 23bb 29de 1b3c 4af3 433b bf08 813c
00000030: 1712 d03b 0db4 d23c 0f8a abbb d127 a4bc
00000040: 4ce3 d0bc e316 9abb d215 61bc e1ae a83c
00000050: 65b6 2bbc 84f3 e5bc cd90 3eb9 7803 cf3b
00000060: 4e8a b83c 320c babc 44f5 a23a 5ded dcbb
00000070: 3718 883c 9fd5 3fbc 4e2e 723c b0f3 8abc
00000080: 53e8 67bb 0e97 4c3c 92aa 6abc 3bda 2bbc
00000090: 6787 fabc 1007 acbb 65ce b13c f2fe b9bc
000000a0: 3cf8 92ba 046d 6a3c ba68 edbc b433 1f3c
000000b0: fa36 823c de8d 8cbc 7f28 003d 2ff0 88bc
000000c0: 1ed4 d2bc f3a0 a83d dbbd c83b 58c2 2b3c
000000d0: c9eb 143d 6623 a4bc ca65 40bb 2bdc 87bb
000000e0: 73fa babb b322 e93b 1261 82bb 2bb0 b13c
000000f0: 9b38 503b b701 ebbb 32c3 403d 3fbe 8d3c
00000100: 95ba cc3b 75fb ec38 0dbf acbc 5feb 893a
00000110: e8b4 083c 6b7c 42bd 3e4b 923c 378c 2a3d
00000120: 75e5 1c3c 681c 133c f401 0fbb 742c 893b
00000130: 0360 6a3c f276 23bb 0f43 9f3b 15ad a0bb
00000140: d3cb 94bb d0cb c23b d516 243d 394a d23b
00000150: 4345 7fbb e51a 18bb 0f52 abbc c6cf 323d
00000160: 0f14 3fbb 4170 c73b 9e90 6d3c 36d7 0d3c
00000170: 2b82 163c f61b d83c a8c9 efbb de32 fa3b
00000180: 015a 83bc e0dc 0e3c 34c0 203c 3209 5ebc
00000190: ec7a 42bc b4d3 95bd 3886 81bc 87d1 0abc
000001a0: d723 093c 96d4 b13b 76ac 8a3c b4b7 4b3b
000001b0: e202 b3bc 2327 6e3c 4c87 a5bc 0de1 333b
000001c0: d4a6 98bd eb48 63bc 5bd7 72bc 942a bf3b
000001d0: a4b0 423c 9aac 02ba 2012 51bc e34e e83b
000001e0: 2c21 15bb c525 52bb 3125 f9bb 5a17 033c
000001f0: c28c 64bc 8eca 843c 29c3 40bd 33b4 aabc
0.0036183617 0.009481791 0.02144923 -0.0012347957 -0.0066201165 0.012674498 -0.0029153584 -9.259391e-05
-0.0024896327 0.009513416 0.002989965 0.01575124 0.0063498127 0.02572062 -0.0052349637 -0.020038517
-0.025499009 -0.0047024353 -0.0137381125 0.020591201 -0.010480498 -0.028070219 -0.00018173755 0.006317552
0.022526886 -0.022710893 0.0012432714 -0.006742163 0.016613109 -0.011708646 0.014781548 -0.016961902
-0.0035386279 0.012487186 -0.014322894 -0.010489042 -0.030582143 -0.0052498654 0.021704862 -0.022704575
-0.0011212896 0.014308218 -0.028980602 0.009716917 0.015895355 -0.017157491 0.03128862 -0.016716091
-0.025735911 0.082338236 0.006126148 0.010483347 0.036357675 -0.02003641 -0.0029357546 -0.004146119
-0.0057061254 0.007114732 -0.003978857 0.021690449 0.003177202 -0.0071718353 0.047061153 0.01730263
0.0062478282 0.000113001945 -0.021087194 0.0010522417 0.008343913 -0.047481935 0.017858144 0.041637626
0.009576191 0.008978941 -0.0021821233 0.0041862074 0.014305118 -0.0024942723 0.004860289 -0.0049034455
-0.0045408993 0.0059447065 0.040060837 0.0064175394 -0.0038951195 -0.002320939 -0.020913152 0.04365518
-0.0029156243 0.0060863798 0.014499811 0.008657267 0.009186308 0.02638052 -0.0073177405 0.0076354584
-0.016034128 0.008719653 0.00981145 -0.013551997 -0.011870127 -0.0731577 -0.01581107 -0.008472807
0.008370361 0.0054269535 0.016927939 0.0031084837 -0.02185196 0.014535698 -0.020206116 0.0027447373
-0.07453695 -0.0138723655 -0.014821853 0.005833933 0.011882935 -0.0004984826 -0.012760669 0.007089482
-0.0022755368 -0.003206597 -0.0076033105 0.008001173 -0.013949575 0.016209867 -0.04706112 -0.020837879

fc3.weight f4 [64, 128]
00000000: 16b7 40be 4af2 0abe 79dd 61be 664f 5f3d
00000010: 2777 833e 4d16 893d 2af7 9ebb 8873 d1bc
00000020: 3105 79be ca86 58be 6c76 183d 9de3 4e3e
00000030: 0c98 b7be 446d d63c 079d cf3d ddd7 b8bd
00000040: 5119 bb3e 0b98 3bbd f5c0 213d 196b 0abd
00000050: 3a14 34be 2bc8 7bbc f175 c13d 0700 01bd
00000060: 2c80 78be 5f6e 41be c761 11be 5af8 023e
00000070: e043 09be 8aff 8bbd 6e73 73bd 526d 49be
00000080: bcf0 d3bd 8368 59bc 2f98 74bd 8e58 d6bd
00000090: fd2c 8ebe bdd5 973c 68a5 10be 4d90 503e
000000a0: 4de4 20bd e21a d8bc 571b 9c3e 2503 673e
000000b0: cf4f 73be 2d50 93be 059f a03c 223a 33be
000000c0: 6d17 31bc b483 adbd 9431 673d 0718 86be
000000d0: 7dd2 c7bd 1525 45be dcdc 24be eb8f 083d
000000e0: e71b bcbe 5536 ec3d a746 11bd 89c3 f0bc
000000f0: 708e 39be 99bb 94be 9bbe 52be 6f08 0cbe
00000100: bc88 663d 5a60 c3be f458 12be 9ab9 a8be
00000110: 723e 3fbd 07b3 433e d774 59be 892d 653e
00000120: 8b40 85be af33 f03c 0626 0a3e fd41 483d
00000130: 5ab7 473d f396 42bd 6383 9abc aa42 7abe
00000140: 2bdd 973d 940e 003e 093a 96be 1b83 6abd
00000150: fcd0 63bd 8091 02be adfb 43bb 64fe 783c
00000160: 64d2 65be 7fbc 453b 8de7 923d 5f2f 5d3e
00000170: 01c1 4e3c e77c 68be 6b9e 5ebd b864 dc3a
00000180: a564 be3d b577 b7bc 6607 27be c627 2b3e
00000190: df3e f6bd 5b1d 6cbd 1473 3ebd 28c4 32be
000001a0: f2de e43d 957a 76bd 9c1e a03d 0c32 04bd
000001b0: c7d6 5f3e 810c 9abe d20c 5bbe 27cc cebd
000001c0: 6e15 41be 4eb4 4dbe 0a7c 88be 12a9 c4bc
000001d0: 1eca d4bd bd03 22be 592d 55be e132 a33e
000001e0: 6b27 e237 76cf 37be 3160 ccbd 1af2 2ebe
000001f0: 7bbb 0bbd ed87 71ba 284c a7bb b38b 50be
00000200: 4321 c83e 9d9c 20be 4a52 dfbd 029b ebbc
00000210: 343d 0a3e 4527 c2bc 08cd 85bd b276 4fbe
00000220: e500 fa3d b076 0a3e 66b1 923c ca61 79be
00000230: 864c e63d c60f 4fbd 9292 b1bd e709 133e
00000240: c11e 8f3d ca2c e63d 24bd 38bc 72b3 d73d
00000250: 95df f0bd a021 e43d 7284 23be 4a0f 67be
00000260: 2f6e f33d 69d4 5e3d afb5 35bd ba2d 053e
00000270: 4d59 663d 7c6f ccbd 0f4a a73a 3203 5e3e
00000280: 369b f9bd 3068 29be 2169 61bc 149f 1dbc
00000290: fb43 b6be 65b7 6fbe e091 973d 6dbb 003e
000002a0: 094c 653b c428 7fbe 3e3d 6cbe 7077 003e
000002b0: b0b1 203e d7c4 013d dec7 3d3e 6520 f63c
000002c0: 7293 083e 5fa3 0bbe 5a96 913d d613 883d
000002d0: 843c 663e 984a 8539 4684 473d 4680 72be
000002e0: 2bf3 edbd 7861 a93d 7912 d63d c0e6 7d3d
000002f0: 4a97 aabd 5178 d23d 5f62 863d 695f 7b3e
00000300: bbca d43e c909 92be 7445 d03d 17fd 00be
00000310: 5206 c73d e3bc a33e bb5d 0bbc 0421 72bd
00000320: f2c6 5a3d 4fa9 d8bd cefa 86be 2813 63be
00000330: f565 6d3c 2291 19be 748c 99bd 3cc4 7ebd
00000340: a5c9 01be 66c0 fbbd 784b 873e c4a8 58be
00000350: 2e28 973d 746c 41be b7f2 253e 8696 8bbe
00000360: 6c90 31be 3455 a9be f385 9a3c 07f6 aaba
00000370: f2fa 01be d0bd a53d 6723 913e d1cf 853e
00000380: 8c06 05be 817c 883d bba0 573e 3467 5c3e
00000390: 114a 103c 1b4b aa3c deb1 7cbe 3613 0cbe
000003a0: 0a56 fdbd 362f b03e 8afb 10bc 3f14 dc3d
000003b0: 6f59 b3be 6f22 593c 3d27 9d3d af92 85be
000003c0: 8def 82be 45e5 c1bd 0611 94bd 8436 20be
000003d0: aa38 de3d 298d a93a 78b3 8b3d 0b97 283d
000003e0: fa0a 91bd c93f e3bd b223 853d b267 94be
000003f0: 88df c33d 082f 2c3c 7caa 98be 3951 f03d
-0.18819842 -0.13568988 -0.22057141 0.05451908 0.25676844 0.06693707 -0.0048512416 -0.025567785
-0.24318387 -0.21145168 0.03722231 0.20204015 -0.3585819 0.026175149 0.101373725 -0.09025548
0.36542752 -0.045799296 0.03949066 -0.033793543 -0.17585841 -0.015367548 0.09446324 -0.031494167
-0.24267644 -0.1888976 -0.14197455 0.12790051 -0.13404799 -0.068358496 -0.059436254 -0.19670609
-0.10348651 -0.013269546 -0.059715446 -0.10466109 -0.27768698 0.018534536 -0.14125597 0.20367546
-0.039280225 -0.026380006 0.3048961 0.22559793 -0.23760913 -0.28772107 0.019607076 -0.17502645
-0.010808808 -0.08472386 0.056443766 -0.26190206 -0.09756944 -0.19252427 -0.16099876 0.033340376
-0.36740038 0.115338005 -0.03546777 -0.029390113 -0.18120742 -0.29049376 -0.20580523 -0.13675092
0.056282744 -0.38159448 -0.14291745 -0.32954103 -0.046690412 0.19111262 -0.21235977 0.22380652
-0.26025805 0.02932152 0.13491067 0.048891056 0.048758842 -0.047507238 -0.018861478 -0.24439493
0.07415231 0.12505561 -0.29341152 -0.05725394 -0.055619225 -0.12750816 -0.002990465 0.01519737
-0.22443539 0.0030172167 0.07173071 0.21600102 0.012619258 -0.22703896 -0.054350298 0.0016814684
0.0929654 -0.022395948 -0.16311416 0.16714391 -0.120237105 -0.057645183 -0.046496466 -0.1745764
0.11175336 -0.060175497 0.07818338 -0.03227429 0.21859275 -0.30087665 -0.2139161 -0.10097533
-0.18855831 -0.20088312 -0.26657134 -0.0240064 -0.10390113 -0.15821739 -0.2081808 0.31874755
2.6959655e-05 -0.17950234 -0.099792846 -0.17084542 -0.034114342 -0.0009213675 -0.005105514 -0.20365791
0.39087877 -0.15684743 -0.10904367 -0.028760437 0.1349991 -0.023700366 -0.06533247 -0.20260122
0.12207202 0.13521838 0.017906856 -0.2435371 0.112450644 -0.050552152 -0.08670534 0.14359246
0.06988288 0.112390116 -0.011275563 0.10532273 -0.11761395 0.11139226 -0.15968493 -0.22564426
0.1188625 0.05440179 -0.04436272 0.13005725 0.056237508 -0.099822015 0.001276316 0.21680906
-0.12187807 -0.1654365 -0.013757975 -0.009620447 -0.3559874 -0.23409803 0.0740087 0.12571497
0.0034987947 -0.24917895 -0.23070237 0.12545562 0.15692782 0.03168186 0.18533275 0.030044744
0.13337496 -0.1363654 0.071087554 0.066444084 0.22484022 0.00025423313 0.04871013 -0.23681745
-0.11618646 0.08270544 0.10452742 0.06198764 -0.08329637 0.10276855 0.065617315 0.24548115
0.4156092 -0.2852309 0.10169497 -0.12596546 0.097180024 0.31980047 -0.008506234 -0.059113517
0.053412385 -0.10579168 -0.26363224 -0.22175276 0.0144896405 -0.1499677 -0.074974924 -0.062198862
-0.12674578 -0.122925565 0.26424766 -0.21158129 0.073807105 -0.18889028 0.1620587 -0.27263278
-0.17340249 -0.33072817 0.0188627 -0.0013043293 -0.12693384 0.080928445 0.28347322 0.26135114
-0.12990779 0.06664372 0.21057408 0.21523744 0.008806721 0.020787766 -0.24677226 -0.13679203
-0.12369926 0.3441102 -0.008849034 0.10746049 -0.3502917 0.0132528385 0.076735 -0.26088473
-0.25573388 -0.09467558 -0.072298095 -0.15645796 0.108506516 0.0012935746 0.0682134 0.04115967
-0.07082172 -0.110961504 0.06500949 -0.28985363 0.095641196 0.01050926 -0.2981757 0.11734242

fc3.bias f4 [64]
00000000: d97a afbb e8bd 29bc 848d bf3c 9ad6 193c
00000010: f87e 1cbd a1cb 3e3d 8748 3abc 1f78 b03c
00000020: 221c 023d 2bbf eb3a 3edb 953c 1602 97bc
00000030: e2fa e2bb 0892 febc a976 9bbc 9efc 173c
00000040: 9948 e6bb c820 54bc 9c42 80bb b13b 18bd
00000050: 79ed f23a 50cc b4bb 8c70 5abb 0a3e debc
00000060: 6ff4 a4bc 7b7d d93c ca44 83bc 7919 83bc
00000070: 6323 81bb bc12 82bc 8750 d53c 0c43 16bd
00000080: 1bb3 073c 5f5d 9b3c 0516 19bc c7ef 8bbb
00000090: c435 2fbd b2d2 9f3c 452f c13b b8cb 243d
000000a0: 8040 fb3c 0276 043d 5ea2 fb3c 3696 503d
000000b0: 0ab0 3e3b 3d1b 9f3c efbe 60bb e61d 5d3c
000000c0: c92f 6c3c c03a 163d 69e2 21bc 15c4 543c
000000d0: fb32 1a3d b6e8 333c cee8 003c 653c 49bb
000000e0: de8f eabb 96e0 59bc f518 bbbc fc42 9d3c
000000f0: 5464 51bd ca4f d6bc afde de3c 7c2f c0bb
-0.0053552208 -0.010360219 0.02338291 0.009389544 -0.038207024 0.046580914 -0.011369831 0.021541653
0.03176511 0.001798605 0.01829302 -0.018433612 -0.00692688 -0.031075493 -0.01897748 0.009276537
-0.0070276973 -0.012947269 -0.0039141905 -0.0371663 0.0018533907 -0.00551752 -0.0033331243 -0.027129192
-0.020136086 0.026549092 -0.016024012 -0.016003357 -0.003940986 -0.015878074 0.026039375 -0.036685035
0.008282448 0.018965421 -0.009343629 -0.004270527 -0.042775884 0.019509647 0.0058955275 0.040233344
0.030670404 0.032339104 0.030717071 0.050924502 0.0029096627 0.019422168 -0.0034293493 0.013495898
0.01441569 0.036677122 -0.009880641 0.012986203 0.037646275 0.010980776 0.007868005 -0.0030706164
-0.0071582636 -0.013298174 -0.022839049 0.01919698 -0.05112107 -0.026161093 0.027205793 -0.0058650356

fc4.weight f4 [23, 64]
00000000: cdf3 b6bd fad0 873d 8c23 033f 8fe8 22be
00000010: 4e65 43bf 54a6 84bf 1c22 c03d 5ea4 ab3e
00000020: 3269 dc3d a5da ac3c 3bd9 873d 7445 6abd
00000030: 8ffc e03d 1805 7fbe f45f 02be 3389 53bf
00000040: 5a80 243e a2bc c63e 8f93 983e c7c4 e63e
00000050: 6b2d 74be bdb7 eabd 011b 44bf d1ce 8ebd
00000060: aa9e 4fbe 19aa 1bbf 07cc d6be 83d7 96be
00000070: 03d3 2a3e f4b1 fdbe 8700 a9be f9a8 19be
00000080: 87e6 47be 2a32 71be 4d5a 82be d5f5 583f
00000090: 3c06 0f3e c9cd abbe 1cd5 0cbc 30db 12bf
000000a0: db80 b5be d50a b73e 05fb 173d 1e17 6f3e
000000b0: b6c0 f6be fab6 3ebf 0a2c 383f 519d d2be
000000c0: 0a22 4abf a08f e4bd 944a 2b3f 1ab4 573e
000000d0: 4406 333e 9539 50bf c48a 76be bb3a 65be
000000e0: ee14 b9be f67a 22bf 4801 b43e da60 06bf
000000f0: 3dfc 42bb 60e0 51bf 6f1d 8bbe e09b 763e
00000100: 8a5d 1ebe 08e9 413c bf7d 01be a817 b2be
00000110: 71d8 ecbe ab7d 9bbe 31e6 843e eab2 d33d
00000120: 0d00 ffbd c0fe 8dbe f753 893c b975 41be
00000130: 736d c2bb 0fc7 3a3e b11f d8bd f104 14bd
00000140: d88b 0abf 0b03 81bf 47be ae3e 57bd 943d
00000150: 9d43 dbbd 4c7d 96be 980d 233d 30b1 24bd
00000160: 4f14 aebe f754 5bbe 8eb5 b93d 239c 213e
00000170: 8f69 2ebe 0146 15be 09bb cabe 1c05 0cbf
00000180: 7284 ebbd bc3a 673e 4794 0c3d 4055 d2bc
00000190: d02c 543e 6240 44be 1a1a b4bd 70d2 1c3e
000001a0: bf22 92be a656 f2be a7a0 7cbe 3189 a0be
000001b0: af32 5d3e 198d 95be d110 89bd 2838 98be
000001c0: 1d8a 0fbf 486c 3dbf 9c2c 883d 4bc7 d4ba
000001d0: 523f 0dbf 26c4 493c 41d8 39be 9ea4 d23d
000001e0: c1ee 553d baed aa3d bf8d 81be 62dc af3d
000001f0: 1dee 51be 4e69 8a3e 3b83 393d 5815 30be
00000200: f70a f43d 89b0 bebd ab02 07be de22 9b3e
00000210: a3bc 8e3e 5262 563e 472d dfbe e15a 9abd
00000220: 49e2 133e be4a 803e 48d9 aabe ddb2 d73d
00000230: 783e 0c3e c212 743e 3587 6c3e 078b 8bbe
00000240: 7ff0 73bc 6220 27bd 1abe b23d 7d59 14bf
00000250: 799c c13d a4cd 14be 8cff 23bf 4968 b1be
00000260: a210 853c 12e4 02bf 858c 02bf 1f7f 2d3e
00000270: bfeb 14be a13e 953e 6f58 a03e 6aa9 99bd
00000280: 7a0f bf3d 65f6 4d3e e29f 033e d840 d83d
00000290: 04b8 e2be aadd 15bf 1b4f 91be 1fad 67be
000002a0: cd0c 8c3e 0fa2 62be 49bd 8bbe 49fd 34bf
000002b0: 3866 62bd 4dd2 9f3d a326 a63e 1ab7 8b3e
000002c0: b2d0 92be 8dd5 8c3e 6fa1 82be c1b5 c2be
000002d0: 2f34 cebe c6a1 593e 1b7a 8abc 0b0d 07bf
000002e0: b910 0b3a 6b8f ef3c e3ca 15bf 1d11 10be
000002f0: 08de 0fbf c2df 0fbf 594f e3be 926e b5be
00000300: b4a4 7f3d 0cbb 073f 5ed2 233d 32ea 333e
00000310: a0fe 743d 83eb ad39 af32 1fbf a832 7b3e
00000320: 299a 95be a879 37bd 6986 08bd 1d4f 0fbe
00000330: cecb d73e d7b0 17bd ab41 07bf 9da5 47be
00000340: a3da c3be 59b1 27bf bf29 fc3d 96d5 a33e
00000350: 12a4 fdbb a8d4 09be f747 2fbe 4daa 083e
00000360: a98d 463e 36e1 02be d6e1 433f d8fc 15bd
00000370: 9117 32be c099 90bd aeee af3e ec06 9e3e
00000380: 618c 13bd 4162 34be d1f7 b8bb 2001 373f
00000390: 698e e83d 82ce 7f3c b916 bbbe fe38 f6be
000003a0: 1825 823d 7a0a 313f 8539 143f 7256 9fbe
000003b0: ca51 efbd 3c16 2fbe c7f1 e13e 0257 acbb
000003c0: dcad 62be 992e 913e 2e4c 03bc 0a6e eb3d
000003d0: 287a 09bf ff54 5fbd 3e13 8b3d 4d9b 5a3e
000003e0: 43d0 25be cb0c f1bd 0e47 8a3e d45e 23be
000003f0: 8635 30be 83e5 0c3e f779 653d 8fbe c4bd
-0.0893322 0.06631656 0.51226115 -0.15909027 -0.76326454 -1.0363259 0.09381506 0.3352384
0.10762252 0.021100352 0.0663323 -0.057195142 0.10985672 -0.24904287 -0.12731916 -0.82631224
0.16064587 0.3881579 0.29800078 0.45072004 -0.2384545 -0.114608265 -0.76603705 -0.06973041
-0.2027537 -0.60806423 -0.41952536 -0.29461297 0.16682057 -0.4954983 -0.33008215 -0.15005864
-0.19521533 -0.23554292 -0.2545952 0.8475011 0.13967222 -0.3355544 -0.008595731 -0.57365704
-0.3544987 0.35750452 0.037104625 0.23348662 -0.48193902 -0.7449795 0.719422 -0.41135648
-0.7895819 -0.11160207 0.6691067 0.21064797 0.17482859 -0.81337863 -0.24076372 -0.22385685
-0.3614878 -0.63468874 0.35157228 -0.52491534 -0.0029752397 -0.81982994 -0.27170894 0.24082899
-0.1546537 0.011835344 -0.12645625 -0.34783673 -0.46258882 -0.30369315 0.25956872 0.103368595
-0.124511816 -0.2773342 0.01676367 -0.18892564 -0.0059334575 0.18239997 -0.1055292 -0.036137525
-0.54119635 -1.0079054 0.34129545 0.07262676 -0.107062556 -0.2939247 0.039807886 -0.04020804
-0.3399987 -0.2141913 0.09067832 0.15782218 -0.17032455 -0.14577486 -0.39595821 -0.54695296
-0.11499871 0.22580999 0.034321096 -0.025675416 0.2072022 -0.19165185 -0.08794041 0.1531465
-0.28542134 -0.47331733 -0.24670659 -0.3135467 0.21601366 -0.2920921 -0.066926606 -0.29730344
-0.5607012 -0.7399335 0.066491336 -0.001623371 -0.55174744 0.012314832 -0.181489 0.102853045
0.052229647 0.08346124 -0.25303456 0.085869566 -0.2050099 0.27033466 0.045291167 -0.17195642
0.11916154 -0.09311015 -0.13184611 0.3030004 0.27878293 0.20935944 -0.4358923 -0.07536865
0.1444179 0.25057024 -0.33368897 0.10532162 0.13695705 0.2383528 0.23098452 -0.27254507
-0.014888882 -0.040802367 0.08727665 -0.5794905 0.09453673 -0.1453157 -0.6406181 -0.34649876
0.016243283 -0.5112926 -0.50995666 0.16943024 -0.14543055 0.29149345 0.3131747 -0.07503016
0.09329124 0.20113523 0.12853959 0.10559243 -0.44281018 -0.5854136 -0.28380665 -0.22624634
0.27353516 -0.22132133 -0.2729285 -0.7069898 -0.055273265 0.078037836 0.32451352 0.27288133
-0.28674847 0.27506676 -0.2551379 -0.38029292 -0.40274188 0.21253118 -0.016903928 -0.52754277
0.0005304921 0.029243192 -0.58512706 -0.14069028 -0.5619817 -0.562008 -0.44396475 -0.3543592
0.062412933 0.53019786 0.039995544 0.17569807 0.05981314 0.000331726 -0.6218671 0.24531043
-0.29219177 -0.044793755 -0.03333131 -0.13995023 0.42147678 -0.037033882 -0.52834576 -0.1949677
-0.38252744 -0.65504986 0.1231265 0.3199889 -0.007740506 -0.13460028 -0.17117296 0.13346215
0.19389977 -0.12781224 0.76516473 -0.036618084 -0.17391802 -0.070605755 0.34361786 0.30864656
-0.036022548 -0.17615606 -0.0056447764 0.7148609 0.113552876 0.0156132 -0.36540774 -0.48090357
0.06354731 0.6915661 0.5790027 -0.3112064 -0.11685522 -0.17098325 0.44129774 -0.0052593956
-0.22136635 0.28355864 -0.008013768 0.11495598 -0.5370202 -0.054524418 0.067907795 0.21348305
-0.16192727 -0.11770018 0.27007335 -0.15954143 -0.17207918 0.13759427 0.056024518 -0.09606659

fc4.bias f4 [23]
00000000: f0ec c8be ea7f b73d 3baa 10be 39d0 d63a
00000010: 7df5 873d 1574 173d dde4 9ebe 3f75 77be
00000020: 36d2 3aba 6cb5 92bd 70ed dbbe 2019 253d
00000030: c7fc 003d ef47 02bf 9827 ddbd 7780 52be
00000040: 8513 9bbe aa43 5c3c a192 ffbd 3ed9 09be
00000050: 2a33 b23e fbd2 463e 1fad fabd
-0.3924327 0.089599445 -0.14127438 0.001638896 0.0663862 0.03697594 -0.31033984 -0.2416582
-0.0007126661 -0.0716351 -0.42954588 0.040307164 0.031491067 -0.5089101 -0.107985675 -0.20556818
-0.3028833 0.013443867 -0.12479139 -0.13461778 0.3480466 0.1941642 -0.122400515

bn1.weight f4 [256]
00000000: 5f67 553f 804d 873f 73bc 8e3f 6b24 613f
00000010: e3f1 793f 7073 603f f161 803f ba31 6c3f
00000020: 2287 853f 7be7 513f 3a16 693f 8f63 453f
00000030: bb92 5e3f cdee 863f 07b6 533f bfe7 483f
00000040: 5056 793f d25d 4f3f 5324 6f3f f110 883f
00000050: 5cfa 5d3f 2e3c 4a3f 0250 703f 728f 6b3f
00000060: 315b 7e3f be02 593f f4b8 503f a2d0 823f
00000070: db09 453f d9c1 523f 652c 503f efc7 423f
00000080: f04c 9b3f 23e1 893f 2939 573f fcf2 473f
00000090: b446 943f 2f7c 783f 91c2 833f 3a92 6f3f
000000a0: 4f50 543f e192 6e3f 585e 593f 043e 593f
000000b0: b342 5b3f e28f 853f b408 833f 3819 4c3f
000000c0: e94c 943f 2fec 863f da41 6c3f 8f47 683f
000000d0: 2e57 4d3f c854 7d3f 20c6 8c3f 1b1b 553f
000000e0: 8b9d 883f cc27 513f c94b 463f e6e7 863f
000000f0: 1caa 2c3f d8be 8d3f 014c 523f f4ef 953f
00000100: da08 403f 6323 753f 4d98 7a3f d1a2 7a3f
00000110: dfae 383f 38a9 423f 5751 583f ca8d 5f3f
00000120: 9bb9 7d3f 5fa8 583f 7051 6c3f 9c25 4a3f
00000130: 2914 6e3f 458d 7b3f 6054 823f 9851 623f
00000140: d3ea 713f 0ad2 8c3f d8e4 773f 17c1 7a3f
00000150: 6b9a 413f 508b 963f f675 7d3f 4264 513f
00000160: 2659 4c3f 3d66 793f 192d 5a3f d21a 663f
00000170: 3cf6 6b3f bc49 7f3f af77 863f 31bc 6e3f
00000180: 11e3 783f e452 5f3f 082c 5e3f ac05 683f
00000190: 0d74 8d3f 8a5e 6e3f 9b9d 473f b606 613f
000001a0: eae2 533f f346 633f abe8 813f f37a 6b3f
000001b0: cad2 5e3f bfcd 763f 468e 703f 6003 7d3f
000001c0: 5de5 703f 12aa 463f 2606 6f3f 00dc 593f
000001d0: b70c 4b3f e08c 883f cd01 493f 8623 763f
000001e0: ceaf 6d3f c228 7a3f 44f7 783f 5547 643f
000001f0: 158d 703f 2cd2 5b3f 7f34 823f 509b 373f
00000200: 56ec 643f 3ab5 443f feee 673f 5123 8b3f
00000210: d701 573f c3bd 713f c2f7 663f dd6d 3f3f
00000220: a940 723f ba86 523f 1c3f 4e3f 2a9f 6c3f
00000230: 8728 653f 7df9 6f3f 824a 423f 448e 753f
00000240: e008 693f 7f2c 703f 5ca5 403f 9205 8b3f
00000250: bf91 873f 5b3b 503f 2e52 5d3f f05f 463f
00000260: c7aa 4c3f c51b 643f 1173 593f 484e 513f
00000270: a952 5e3f 434c 813f 427e 4b3f 2675 583f
00000280: 1aac 763f 2224 673f 1017 673f 7110 583f
00000290: 75d4 5c3f eca8 513f 745d 503f 68af 793f
000002a0: 1e47 523f 6561 673f ac32 803f 1be5 753f
000002b0: 780a 533f 80b9 663f bf9a 893f ef6a 5b3f
000002c0: 73f4 5e3f f739 463f 2fbf 963f 6902 523f
000002d0: 0d7e 653f c5e8 513f 70bd 2b3f 31b8 7f3f
000002e0: 71e5 8c3f a464 4a3f c180 543f 298f 693f
000002f0: 26e8 773f 52f5 823f 44c7 863f 9064 5f3f
00000300: 34b6 573f 57db 883f 6402 793f 2891 733f
00000310: 4079 603f 0a56 523f 0a6a 283f 43c8 613f
00000320: c0ec 573f 64e9 793f fad9 733f 347c 813f
00000330: 4ef0 853f 765c 693f 1f7b 8d3f 0fa1 663f
00000340: f345 3d3f 6cc7 543f cd8a 653f b27d 603f
00000350: e5f5 6c3f e541 563f 0abe 863f b1eb 533f
00000360: 1e7f 4c3f 53d9 693f b67c 563f f053 603f
00000370: 1b72 833f 3320 363f 68f0 5d3f b108 843f
00000380: 2e19 643f 974f 7b3f 173b 8f3f 14e9 563f
00000390: 3317 563f b3ab 543f 11ab 783f cf50 433f
000003a0: c674 703f c3b7 623f f8af 5d3f 1c4f 743f
000003b0: 1cbb 923f 6328 413f 2cf7 553f 605f 6f3f
000003c0: 512d 8c3f 2bb6 6d3f c8c9 5b3f 8049 683f
000003d0: dabe 4a3f c405 783f 1966 803f b433 553f
000003e0: b5d4 863f 868c 783f c317 413f 3764 7a3f
000003f0: a94e 763f 013b 313f 5eb8 763f 03b4 683f
0.83360857 1.0570526 1.115126 0.87946194 0.97634715 0.87676144 1.0029889 0.92263377
1.0431864 0.81993836 0.9104954 0.7710504 0.8694264 1.0541626 0.82699627 0.78478616
0.9739733 0.81002533 0.934148 1.063017 0.86710143 0.78998077 0.9387208 0.92015755
0.993579 0.8476981 0.81532216 1.021992 0.76968163 0.8232704 0.8131774 0.76086324
1.2132854 1.0771831 0.84071594 0.7810514 1.1584077 0.9706449 1.0293752 0.935825
0.8293504 0.9319287 0.8490958 0.84860253 0.8564865 1.0434535 1.0237031 0.7972598
1.1585971 1.0540828 0.9228798 0.9073419 0.8021115 0.9895749 1.0997963 0.83244485
1.0673078 0.8170135 0.7745939 1.053952 0.67447066 1.1073866 0.8214722 1.1713853
0.75013506 0.9575712 0.9788864 0.9790469 0.7214183 0.7603946 0.84499115 0.8732573
0.99111336 0.84631914 0.92311764 0.7896364 0.9299951 0.98262435 1.0181999 0.8840575
0.9449894 1.1001599 0.9683356 0.9795088 0.7562625 1.1761265 0.9900812 0.81793606
0.7982353 0.9742163 0.85225064 0.89884675 0.921726 0.99721885 1.0505275 0.9325591
0.97221476 0.87235856 0.86785936 0.90633655 1.1051041 0.93113005 0.7797486 0.87900865
0.8276812 0.88780135 1.014913 0.9198448 0.8704039 0.96407694 0.9396709 0.98833275
0.9409998 0.77603257 0.93368757 0.8510132 0.79316276 1.0667992 0.7851837 0.96147954
0.9284638 0.9771844 0.972523 0.89171344 0.93965274 0.8586757 1.017227 0.71721363
0.8942312 0.7683903 0.9059905 1.0870153 0.8398718 0.9443018 0.902218 0.74777013
0.94629914 0.82236826 0.8056505 0.92430365 0.89514965 0.93740064 0.7589494 0.95920205
0.9102917 0.93817896 0.7525232 1.0861075 1.0591353 0.8134057 0.8645352 0.7749014
0.79948086 0.8910487 0.849412 0.8176007 0.8684488 1.0101398 0.7948953 0.84553754
0.96356356 0.9028951 0.90269566 0.8440009 0.86261684 0.8189838 0.813926 0.97533274
0.82139766 0.9038299 1.0015464 0.9605271 0.8243785 0.901268 1.075035 0.8571004
0.8709175 0.774322 1.1777095 0.8203493 0.89645463 0.81995803 0.67085934 0.9989043
1.100752 0.79059815 0.8300896 0.9123407 0.96838605 1.0231116 1.0529561 0.8726282
0.84262395 1.0691937 0.9726927 0.95143366 0.8768501 0.82162535 0.657868 0.881962
0.84345627 0.9762175 0.9525448 1.0116029 1.046396 0.9115671 1.1053199 0.90089506
0.7393486 0.83116794 0.8966492 0.87691796 0.92562705 0.836943 1.0526745 0.8278151
0.79881465 0.91347235 0.83784044 0.8762808 1.0269197 0.7114288 0.86694956 1.0315152
0.8910092 0.9816832 1.1189908 0.839494 0.8362915 0.8307449 0.97136027 0.7629518
0.9392818 0.8856165 0.8659663 0.9543321 1.1463351 0.7545225 0.8358028 0.93504906
1.095133 0.9285609 0.8585477 0.9073715 0.79197466 0.968838 1.0031158 0.8328202
1.0533663 0.9708942 0.7542688 0.97809166 0.96213776 0.6923066 0.9637507 0.90899676

bn1.bias f4 [256]
00000000: e0bc 25bc b905 a5bc 7ef4 443e d087 4fbe
00000010: 5854 1dbe b06a a5bd 634e 4c3e 4961 47be
00000020: 518d d8bc 2877 ff3b aecb f0bd 2ed5 f9bd
00000030: 1979 81bc 98cf 383e df1a 32be 237a 74be
00000040: 7343 0b3d 6317 e2bd 1be9 2cbe d1a4 f33c
00000050: 1f1b 05be 80e4 2fbe bd2e d53c e07c 18be
00000060: 2d41 9f3d bc77 04bd 96c0 7bbe ba89 32bd
00000070: bc61 5fbd 86e3 06be 0c2f cdbd 70b0 16be
00000080: adde ef3d 0283 d5bd 4ade 2cbe 8529 25be
00000090: 88ff 1d3e 9e8e 4bbd a42f 82bd 48e9 c3bd
000000a0: 3687 72be 4d52 29be 4c94 eebd 1c74 78be
000000b0: f438 8c3d be04 3fbc 40a9 a23d 3111 4fbe
000000c0: d802 263e 3577 f2bd 24ad 60be 5ff1 37be
000000d0: 428e 2cbe d631 b5bc d612 4b3e 6693 29be
000000e0: 3bdb 753d d6e5 96bd eb04 3fbe 7a00 37bc
000000f0: 0741 54be 8a18 9dbc 85db 473d d4ac 8dbd
00000100: 7548 28be 0962 14be e114 12be c18a e33d
00000110: 2836 72be eb84 8bbe 4d3d 86be 668f 99bd
00000120: cf07 23bd ee09 fcbd 5134 aabd 34ce 1abe
00000130: 9129 36bb e8ad ed3c b182 2dbd 6a2d d8bc
00000140: 847e 95bc 2790 2e3b 2c23 93bd e5ea c9bd
00000150: 6a3e 64be 605e 0bbd 4dce 12bd 158b 31be
00000160: a160 49be 1823 1cbd bb7a 56be 9d2f 52be
00000170: bed8 06bd 4133 b6bd 37cf dc3d 92c0 13be
00000180: 7894 3abe 305e c6bd 48de cfbd 931a 2dbe
00000190: 5c89 d4bd d30b 0abd 2309 a3be 8076 0cbe
000001a0: 487e aabd b34e 3fbe 8f0e a339 d61c 70bd
000001b0: a4a7 25be 2ba8 8abe 3359 563c f150 043a
000001c0: c98d 0ebe bfcd acbc 6be2 c4bd d9e6 4ebe
000001d0: c98f b4bd c392 5a3e fb64 85be 252f 91bb
000001e0: 1f05 f6bd 1e37 e0bd dd63 063d 50f7 04bd
000001f0: b3a5 153e 3154 a5be 21fc 18be 5552 a4be
00000200: 7529 a0bd 9c8b 2bbe 47fb 98be 0fc0 443d
00000210: c134 293e 5a02 0fbe 14f9 37be 0f8d debd
00000220: e4cf 983b 3932 56be 9f8b 19be ad45 cdbd
00000230: fc55 dabd c492 e73c a002 8ebe 287a 1abd
00000240: 71fa 77be da06 b1bd 4b09 4dbe cac3 1dbd
00000250: 14ce d53c 79f1 ecbd 8c71 81bd 294e 0cbe
00000260: c9af 24be 4ae7 e0bd adc6 a2be b631 8abe
00000270: 2788 21be 1123 913c f55a 4bbe 4c60 28be
00000280: d7c5 71bc c8eb 34be 8a6b 0cbe 3d9a 9cbc
00000290: 8642 8cbe 3979 21be c196 9fbd 17d3 1fbe
000002a0: a6a0 c7bd c76d 59be 11f8 c83c bf5f 30be
000002b0: 6cfb 36be edbe 0ebe d5b4 56be 193c 96be
000002c0: dabb 80bd 3114 40be e1f5 b33b 5a5d 61be
000002d0: a8f1 63be 7df3 0bbe 011f 76be 4c3e 65be
000002e0: d47d e5bd 4419 8abe 49d8 79be f731 c0bd
000002f0: f349 113e 0541 21bd 9527 f03c 6f50 23be
00000300: e1d1 22bd 2d95 083e b44c 18be e936 213c
00000310: 0a59 47be 8cc7 64be 8c50 8abe 98f3 033d
00000320: 5c3e 7fbe 3ddd 683d 970c b0bd 09a3 b9bc
00000330: dda1 49bd 670f 5ebe 39ba 0dbd d66a 07be
00000340: ca4b 90be 47d4 a9bd ae98 a4be 0950 7ebe
00000350: 2512 44bd 6433 6cbe 8bc5 abbd 82a8 91bd
00000360: 2243 a1be 594d 51be b009 4abe dbe3 1bbe
00000370: 4a9e 343e 4752 67be f09b 62bd 3454 733d
00000380: 60e6 22bd d9f2 e7bd f461 3b3d 74f4 37be
00000390: 6811 48bd 4450 39be d90d 12be e043 99be
000003a0: 2049 babd 51fd cabd a908 38be 0a8f b0bc
000003b0: 0780 c1bc 6ed9 88be 5140 68be 7449 46be
000003c0: f581 af3b c43d 7b3d f1a2 d8bd 936d 96bd
000003d0: 693f 35be 70a3 a93d 2162 bbbd e697 2fbe
000003e0: ba35 59bd 4cae fabd 30ac 35be 21db 183e
000003f0: 3357 5cbe 0f61 8abe 13ce f0bd 7140 12be
-0.010115832 -0.02014433 0.19233891 -0.20266652 -0.15364206 -0.0807699 0.19951777 -0.19470705
-0.026434572 0.007796187 -0.11757599 -0.12198864 -0.015804814 0.1804794 -0.17393063 -0.23874716
0.03399987 -0.11039617 -0.16885798 0.029741677 -0.12998627 -0.1717701 0.026023263 -0.14891386
0.07776103 -0.03234075 -0.24585184 -0.043588378 -0.054536566 -0.13172731 -0.10018739 -0.14715743
0.11712394 -0.104253784 -0.16881672 -0.1612912 0.15429509 -0.049696557 -0.06356743 -0.09565979
-0.23684391 -0.16535302 -0.11649379 -0.24263042 0.068468004 -0.0116588455 0.07942438 -0.20221402
0.16212022 -0.11839143 -0.21941048 -0.1796317 -0.16851142 -0.02211849 0.19831404 -0.16560134
0.060023528 -0.073680565 -0.1865422 -0.011169547 -0.20727931 -0.01917674 0.048793335 -0.0691773
-0.1643389 -0.14490522 -0.14265777 0.111104496 -0.23653471 -0.27249846 -0.26218644 -0.07498054
-0.03980237 -0.123065814 -0.0831076 -0.15117723 -0.0027795772 0.029013589 -0.042360965 -0.026388843
-0.018248804 0.0026636214 -0.07184443 -0.09859256 -0.22289434 -0.03402555 -0.035841275 -0.17338212
-0.19665767 -0.038119406 -0.20945255 -0.20525976 -0.032921545 -0.08896495 0.107817106 -0.14428928
-0.18220699 -0.096859336 -0.10149819 -0.16904669 -0.10377762 -0.033702683 -0.31842908 -0.13717079
-0.083248675 -0.18682365 0.0003110063 -0.05862125 -0.16177231 -0.27081427 0.01308279 0.00050474616
-0.13921274 -0.021094201 -0.09613498 -0.20205249 -0.08816487 0.21345048 -0.26053604 -0.004430669
-0.120126955 -0.10948013 0.03281008 -0.032462418 0.1461399 -0.32290795 -0.1493993 -0.32094064
-0.07820407 -0.16752476 -0.2987921 0.048034724 0.1652403 -0.13965741 -0.1796611 -0.108667485
0.0046634544 -0.20917596 -0.14994667 -0.10023055 -0.106609315 0.028268225 -0.27736378 -0.037714154
-0.2421663 -0.08643885 -0.20023076 -0.038516797 0.026099242 -0.11569495 -0.063204855 -0.1370169
-0.16082682 -0.10981615 -0.31792203 -0.2699105 -0.15774594 0.017716916 -0.19858916 -0.16442984
-0.014756641 -0.17668068 -0.13712898 -0.019116515 -0.27394503 -0.15768899 -0.07792426 -0.15607868
-0.09747438 -0.21233283 0.02453235 -0.17224024 -0.17869347 -0.1394002 -0.2096742 -0.29342726
-0.0628583 -0.18757702 0.0054919575 -0.22008267 -0.22260153 -0.13667102 -0.24035265 -0.22387046
-0.112056404 -0.269724 -0.24398912 -0.0938453 0.14188366 -0.039368648 0.02931575 -0.15948652
-0.039750937 0.13338156 -0.1487301 0.009839752 -0.1946756 -0.22341746 -0.27014577 0.03221473
-0.24926132 0.056851614 -0.08596151 -0.022660749 -0.04922663 -0.21685563 -0.034601424 -0.13224348
-0.28182822 -0.08292442 -0.32147735 -0.24835218 -0.047868866 -0.23066479 -0.08387288 -0.071122184
-0.3149653 -0.20439662 -0.19730258 -0.15223639 0.17638507 -0.2258998 -0.055324495 0.059406474
-0.039770484 -0.113256164 0.045747712 -0.17964345 -0.048844725 -0.18097025 -0.14263095 -0.29934597
-0.09095979 -0.099115975 -0.17972054 -0.021552581 -0.023620619 -0.26728386 -0.22680785 -0.19363958
0.0053560683 0.0613382 -0.105779536 -0.073451184 -0.1769997 0.08283126 -0.09149576 -0.17147788
-0.053029753 -0.12240276 -0.17741466 0.14927341 -0.21517639 -0.27027175 -0.117580555 -0.14282395
