Parte II/TEC_AD_TP2/models/fcn_best_run_05_seed_55.pt (torch, 229038 bytes, 20 tensors)

fc1.weight f4 [256, 41]
-0.11416897 -0.23360863 0.13336045 -0.36355227 0.24644034 0.21461402 0.20999092 -0.020554828
0.29018015 -0.12725751 0.1803002 -0.17704013 -0.2707953 -0.21001625 -0.1614599 -0.2618832
0.2019175 -0.06682615 0.2725153 -0.074621744 -0.285145 -0.20366666 0.08760354 0.015618471
0.3304396 0.20146157 -0.036246076 0.2595631 -0.06732988 -0.13146606 0.38441938 0.19050312
-0.37309018 -0.4048112 0.119958974 0.17299505 0.47274938 0.23932084 0.0783185 0.33606917
-0.3201828 0.41008058 0.20289586 0.26232427 0.2428206 -0.14364623 -0.11849283 0.29210523
-0.045874443 -0.04004365 -0.10700409 -0.20334473 0.27250138 0.17104393 0.34818938 -0.20391536
-0.0643084 -0.03401868 -0.3328324 0.040086545 -0.35957354 -0.47889242 0.35043627 -0.07498139
-0.19786093 -0.067095816 0.2153493 -0.22475503 0.029342236 -0.36543858 0.22650325 0.3691901
0.070485465 -0.08125301 -0.23514022 -0.05648966 0.020207176 -0.35276234 -0.3480965 -0.12888195
0.16235933 -0.23647353 -0.063993916 -0.17642106 -0.30457902 -0.3459174 -0.2074762 0.25050014
-0.16396457 0.09072657 -0.29498398 0.11242902 -0.08717035 0.22553362 -0.2149539 0.30161315
0.2050683 0.25852424 0.07582785 -0.18600313 -0.35672253 -0.49401027 0.29795203 -0.12519738
0.29642114 -0.30161268 0.11675956 -0.009556583 0.16312607 0.37423864 -0.016801465 0.34742832
0.31990755 -0.35352185 -0.13550504 -0.34375682 -0.22592242 0.084726535 -0.15404736 -0.37774327
-0.40325943 0.01703359 0.4619672 -0.1575004 -0.20718005 0.010124341 0.25129467 0.15875255
-0.064544655 -0.17941035 -0.063580476 -0.22888935 0.12237313 0.15965348 0.29732922 0.05934534
0.19919403 -0.028421339 0.050761145 -0.25613287 0.13469216 -0.01419487 0.47319183 0.102305196
0.26287436 0.1922105 -0.46441597 -0.29967296 -0.36011449 -0.025921782 -0.35501066 0.18833785
0.033657193 -0.0068176864 0.32362452 -0.5849725 -0.27810302 -0.2266462 -0.2892484 0.11250337
-0.29901394 0.56067365 0.28353554 0.059257198 -0.11161561 0.21345244 0.29404303 0.24926713
-0.23501675 -0.11595143 0.110784255 -0.24432322 0.16059579 0.32801977 0.25244454 0.08539094
-0.2581641 -0.003286043 -0.34895298 0.12411963 -0.16315994 0.27892447 -0.121418424 -0.06590523
0.33585888 -0.10458909 0.38127035 0.2397237 -0.23095375 -0.014491002 -0.48494023 -0.17580263
-0.0060451236 -0.11218581 0.23300286 -0.051517308 -0.37403354 -0.13704053 0.23234999 -0.15443245
-0.094162166 -0.27106857 -0.40231666 0.22343941 -0.02629173 -0.39024788 -0.35427365 -0.044893008
0.21801075 0.36722615 -0.16982496 -0.3654233 0.008081496 0.42855465 0.11127237 0.26535016
0.23958312 -0.2735797 0.35016784 0.20829223 -0.015593938 0.2740662 -0.08502592 0.20655012
-0.14247434 -0.17585357 -0.13825952 0.2998539 -0.17289017 0.1989137 0.17630441 0.47920483
-0.44670627 0.04466491 0.36739847 -0.4094724 0.18738474 -0.12570637 0.033725746 0.18912919
-0.23041002 0.2364266 -0.0039374363 0.2813073 -0.16657433 -0.1270395 -0.13119939 -0.43818352
0.1518835 0.24575548 -0.5877567 0.17100741 -0.78414094 0.17447525 -0.63387936 0.08775557
00000000: 6cd1 e9bd 1a37 6fbe a48f 083e 8623 babe
00000010: db5a 7c3e c7c3 5b3e dc07 573e 9962 a8bc
00000020: 7e92 943e cb4f 02be 9ea0 383e 024a 35be
00000030: aea5 8abe 800e 57be be55 25be 8e15 86be
00000040: 76c3 4e3e 26dc 88bd 2087 8b3e 49d3 98bd
00000050: 87fe 91be fe8d 50be 7c69 b33d 9ee4 7f3c
00000060: 612f a93e f14b 4e3e c476 14bd 74e5 843e
00000070: 40e4 89bd 0a9f 06be 9ed2 c43e 4013 433e
00000080: ad05 bfbe 6a43 cfbe 0dad f53d 9d25 313e
00000090: 350c f23e 8610 753e 7365 a03d 4211 ac3e
000000a0: 00ef a3be 15f6 d13e efc3 4f3e 5e4f 863e
000000b0: f7a5 783e ff17 13be 5eac f2bd d18e 953e
000000c0: d7e6 3bbd cf04 24bd f624 dbbd 9a39 50be
000000d0: 4d85 8b3e 2426 2f3e e145 b23e 30cf 50be
000000e0: 1fb4 83bd 2c57 0bbd 0269 aabe ca31 243d
000000f0: 061a b8be 6331 f5be 626c b33e d88f 99bd
00000100: 0e9c 4abe 8869 89bd 8784 5c3e 2f26 66be
00000110: 215f f03c c41a bbbe 78f0 673e 7c06 bd3e
00000120: af5a 903d fa67 a6bd 99c8 70be b461 67bd
00000130: 8589 a53c 449d b4be b439 b2be a1f9 03be
00000140: 8641 263e 1e26 72be 3e0f 83bd b9a7 34be
00000150: c8f1 9bbe 161c b1be a474 54be 8e41 803e
00000160: 54e6 27be dace b93d 2408 97be 3041 e63d
00000170: 5e86 b2bd 49f2 663e e01c 5cbe 0a6d 9a3e
00000180: 6dfd 513e 4a5d 843e a24b 9b3d 9b77 3ebe
00000190: 56a4 b6be eaee fcbe 2b8d 983e be33 00be
000001a0: 83c4 973e fa6c 9abe a31f ef3d 3793 1cbc
000001b0: 850a 273e 359c bf3e 3aa3 89bc 20e2 b13e
000001c0: ecca a33e d100 b5be d5c1 0abe e500 b0be
000001d0: 3558 67be 1b85 ad3d 97be 1dbe 9167 c1be
000001e0: 0578 cebe 078a 8b3c f786 ec3e c947 21be
000001f0: 0227 54be 90e0 253c b2a9 803e 0790 223e
00000200: fd2f 84bd 59b7 37be 7b36 82bd f861 6abe
00000210: c39e fa3d 347c 233e 893b 983e 1914 733d
00000220: 85f9 4b3e ded3 e8bc ebea 4f3d d923 83be
00000230: beec 093e 9a91 68bc 3346 f23e 6385 d13d
00000240: 7897 863e d4d2 443e eec7 edbe bc6e 99be
00000250: ed60 b8be eb59 d4bc f5c3 b5be a3db 403e
00000260: 20dc 093d e666 dfbb 1db2 a53e c2c0 15bf
00000270: 8563 8ebe f115 68be 5e18 94be 2b68 e63d
00000280: 5b18 99be 4f88 0f3f 922b 913e adb7 723d
00000290: ba96 e4bd 4793 5a3e cf8c 963e e23f 7f3e
000002a0: 3ba8 70be f177 edbd dbe2 e23d de2f 7abe
000002b0: 3973 243e 35f2 a73e 6940 813e 72e1 ae3d
000002c0: 162e 84be a75a 57bb f7a9 b2be 6f32 fe3d
000002d0: 6613 27be 30cf 8e3e 39aa f8bd 52f9 86bd
000002e0: b2f5 ab3e ce32 d6bd de35 c33e 217a 753e
000002f0: 247f 6cbe ab6b 6dbc 164a f8be 9b05 34be
00000300: 2c16 c6bb adc1 e5bd 4d98 6e3e d003 53bd
00000310: 5381 bfbe 5a54 0cbe 28ed 6d3e 8a23 1ebe
00000320: 18d8 c0bd 80c9 8abe 73fc cdbe 4dcd 643e
00000330: c161 d7bc 92ce c7be 5b63 b5be bbe1 37bd
00000340: 363e 5f3e 1105 bc3e 98e6 2dbe c318 bbbe
00000350: 4068 043c 846b db3e c5e2 e33d fadb 873e
00000360: 4755 753e a312 8cbe 3349 b33e 8f4a 553e
00000370: b77d 7fbc 6852 8c3e 1222 aebd e081 533e
00000380: cbe4 11be f512 34be e793 0dbe 7386 993e
00000390: 1f0a 31be 08b0 4b3e 2589 343e 565a f53e
000003a0: afb6 e4be 8df2 363d a71b bc3e 5ea6 d1be
000003b0: c9e1 3f3e 2cb9 00be 0224 0a3d 15ab 413e
000003c0: 9bf0 6bbe d119 723e 9c05 81bb 8307 903e
000003d0: 7692 2abe a516 02be 2259 06be 9759 e0be
000003e0: 5987 1b3e 53a7 7b3e 3977 16bf 911c 2f3e
000003f0: 76bd 48bf a4a9 323e eb45 22bf 31b9 b33d

fc1.bias f4 [256]
-0.008047963 -0.005417974 0.0060001547 -0.0025312554 -0.00087357487 0.0013201492 0.013777479 -0.002976115
0.00041603847 -0.02305682 -0.006873471 0.015798023 0.010809806 0.0040385425 0.020701297 -0.011619687
-0.004243737 -0.014191115 0.0055173533 -0.0046797735 0.009491879 0.0012211424 -0.008446894 0.0005662007
0.0021765125 -0.0016913313 -0.0010228202 -0.009310253 0.013040821 -0.005793489 -0.0021402463 0.014478036
-0.0043488597 -0.016561469 -0.008314217 0.0022810805 0.010272323 0.014187305 -0.004268957 0.0021416645
-0.011277721 -7.1588074e-05 -0.0031607263 -0.0028919103 -0.0049143312 0.0112846615 -0.008996057 0.035012927
-0.0010732528 -0.016597638 -0.0043279156 0.013581103 -0.011985932 0.0005822205 -0.001998671 0.006993639
-0.0051652715 -0.00033166003 0.0027395417 0.01875226 0.009817237 -0.004405534 -0.0037071223 0.001442947
-0.013645674 0.0004270163 -0.0017490643 -0.007787578 0.008141727 0.0017369586 0.009246713 0.02966784
0.013302234 -0.0024421255 0.007413 0.00081659085 0.003158749 -0.0115178935 0.0030951004 -0.013839393
0.008085538 -0.0049260077 0.016995007 0.010659086 -0.003330411 0.014418653 -0.03483881 -0.00079196296
-0.0060195453 0.0018976858 0.0024411886 0.004929409 0.0077921664 0.0036655562 0.012054101 0.0016759321
-0.0003044592 -0.013624737 -0.025477195 0.0014630604 0.02131368 0.0036901606 0.0054600174 -0.023802599
-0.027769765 0.0010355379 0.0038807092 0.0064934986 -0.0016605209 -0.0006520434 0.005391056 -0.010939909
-0.016760789 -0.0025067355 -0.0044696243 -0.0016137018 0.0012673895 -0.021025881 0.0014933115 0.012169028
0.011606185 -6.866549e-05 0.0031506685 0.004556023 -0.001433159 0.013980555 -0.0022172225 -0.0042164256
0.03218748 0.017661344 0.0055634305 0.0049412646 0.005775106 0.0011941872 -0.004601909 0.007024262
0.006599423 0.004085607 -0.005037231 -0.00045728966 0.010631287 -0.0009138494 0.0031990784 0.0059629846
0.0022348757 0.013819073 -0.00052405 0.00691832 -0.02337622 -0.015485018 0.0027067342 -0.0050426633
-0.0017417241 0.0060587144 -0.005163176 0.0045163 0.00025985256 0.006005103 -0.011199768 -0.002418344
-0.031791583 0.032255866 -0.003527576 -0.03728517 0.016917853 -0.004310627 0.03849771 -0.0008999746
0.004060182 0.004044379 -0.01594769 -0.003267477 0.0074086436 -0.005144455 0.0020715105 -0.026689475
0.014657516 0.0057695955 -0.0003787252 -0.062266216 -0.010080653 -0.022415634 0.0004145469 0.0032272688
-0.022421116 -0.0038727792 0.021326436 0.016147789 0.029968698 0.0070052394 0.012717625 -0.0046503805
0.0167853 -0.0012327567 0.023772776 -0.006480937 0.00785686 -0.0047752103 -0.027147813 -0.0022580924
-0.015971368 0.0049837194 0.0297828 -0.019051954 0.005895756 0.013621407 -0.056130424 -0.01726989
0.0078074657 -0.012448208 0.0033644962 1.4595664e-05 0.0065443395 0.023983672 0.019843515 0.0092884945
0.023335746 -0.0043015843 -0.014569344 0.019367898 -0.0038855087 0.024297688 0.0022429775 0.0021813046
-0.0029568835 -0.0034857458 -0.011035692 0.010683894 -0.01004685 -0.005615735 0.012911254 0.03816269
-0.02389036 -0.036148738 0.009397281 0.00504424 0.0061598774 -0.01609242 -0.0013743879 -0.0018703374
-0.0027418802 -0.0004269974 0.0025405386 7.434983e-05 -0.014077102 0.0039573484 -0.010071468 -0.0068246615
0.029042857 -0.021836799 0.0078915 -0.0084140245 -0.0011144467 0.009178825 0.007556107 0.0007061169
00000000: 9adb 03bc 4389 b1bb f29c c43b 6be3 25bb
00000010: 9e00 65ba db08 ad3a efba 613c ed0a 43bb
00000020: bd1f da39 a8e1 bcbc db3a e1bb db6a 813c
00000030: 9d1b 313c c055 843b c495 a93c 8060 3ebc
00000040: 0c0f 8bbb da81 68bc eaca b43b c958 99bb
00000050: d383 1b3c bd0e a03a d764 0abc 166d 143a
00000060: d2a3 0e3b a9af ddba 2710 86ba 088a 18bc
00000070: 2ba9 553c 4fd7 bdbb 6043 0cbb 4935 6d3c
00000080: e180 8ebb ebab 87bc 5b38 08bc 2e7e 153b
00000090: 3f4d 283c df71 683c 9be2 8bbb 2b5b 0c3b
000000a0: 31c6 38bc 8e21 96b8 3024 4fbb 3486 3dbb
000000b0: 6608 a1bb 4de3 383c 3364 13bc b769 0f3d
000000c0: 63ac 8cba c5f7 87bc 30d1 8dbb 4683 5e3c
000000d0: a460 44bc 28a0 183a 23fc 02bb e52a e53b
000000e0: 7041 a9bb a8e2 adb9 e289 333b 579e 993c
000000f0: 7ad8 203c 4c5c 90bb 31f3 72bb 4421 bd3a
00000100: 1b92 5fbc 28e1 df39 dc40 e5ba f02e ffbb
00000110: e164 053c a9aa e33a 867f 173c f809 f33c
00000120: 9df1 593c 110c 20bb c0e8 f23b 7c10 563a
00000130: 0403 4f3b 8cb5 3cbc 2bd7 4a3b 9fbe 62bc
00000140: 3479 043c 596a a1bb 1d39 8b3c 72a3 2e3c
00000150: 0643 5abb 373c 6c3c 24b3 0ebd bc9b 4fba
00000160: 9b3f c5bb c5bb f83a 59fc 1f3b e186 a13b
00000170: 6e55 ff3b d439 703b 907e 453c f3aa db3a
00000180: d29f 9fb9 4a3a 5fbc 8db5 d0bc 29c4 bf3a
00000190: 079a ae3c 9fd6 713b f2e9 b23b abfd c2bc
000001a0: 6b7d e3bc e3ba 873a 7f53 7e3b 6ac7 d43b
000001b0: d6a5 d9ba e4ed 2aba 75a7 b03b 4e3d 33bc
000001c0: ec4d 89bc 0b48 24bb ed75 92bb d982 d3ba
000001d0: 891e a63a 783e acbc 38bb c33a 9a60 473c
000001e0: de27 3e3c 8100 90b8 727b 4e3b b14a 953b
000001f0: d6d8 bbba b30e 653c d24e 11bb f129 8abb
00000200: 05d7 033d 86ae 903c 704d b63b 55ea a13b
00000210: 1a3d bd3b 4686 9c3a 9ccb 96bb c82b e63b
00000220: f93f d83b 8ee0 853b 5b0f a5bb 61c0 efb9
00000230: d92e 2e3c 658f 6fba a1a7 513b 2465 c33b
00000240: fe76 123b 6569 623c 6660 09ba 13b3 e23b
00000250: 7d7f bfbc dfb4 7dbc 7763 313b ed3c a5bb
00000260: 904a e4ba 2e88 c63b dc2f a9bb 78fd 933b
00000270: d23c 8839 74c6 c43b 3b7f 37bc 147d 1ebb
00000280: e437 02bd ba1e 043d e82e 67bb 56b8 18bd
00000290: 4f97 8a3c 2940 8dbb c6af 1d3d 46ec 6bba
000002a0: 460b 853b b686 843b bba4 82bc 2b23 56bb
000002b0: 35c4 f23b d192 a8bb 2ec2 073b e3a3 dabc
000002c0: 1426 703c e00e bd3b a38f c6b9 dc0a 7fbd
000002d0: 5329 25bc fea0 b7bc 8b57 d939 9680 533b
000002e0: 7dac b7bc 74ce 7dbb c7b4 ae3c 5e48 843c
000002f0: ea80 f53c 358c e53b 965d 503c 3862 98bb
00000300: 5381 893c 7394 a1ba 20bf c23c 0a5e d4bb
00000310: 0fba 003c 5e79 9cbb 1765 debc 81fc 13bb
00000320: 63d6 82bc 784e a33b 0ffb f33c d812 9cbc
00000330: 3031 c13b 522c 5f3c 04e9 65bd 9679 8dbc
00000340: c5d5 ff3b 92f3 4bbc e17e 5c3b e6df 7437
00000350: e671 d63b 6879 c43c de8e a23c c52e 183c
00000360: 9b2a bf3c 4ef4 8cbb 42b4 6ebc 6da9 9e3c
00000370: 05a4 7ebb f20b c73c ebfe 123b 38f4 0e3b
00000380: 46c8 41bb 1c71 64bb 0ccf 34bc 800b 2f3c
00000390: 8b9b 24bc 3304 b8bb b989 533c 7b50 1c3d
000003a0: b7b5 c3bc b310 14bd 0ef7 193c 274a a53b
000003b0: ccd8 c93b 40d4 83bc ce24 b4ba 1c26 f5ba
000003c0: 1eb1 33bb 9fde dfb9 2a7f 263b 43ec 9b38
000003d0: a5a3 66bc a5ac 813b cc02 25bc 69a1 dfbb
000003e0: 49eb ed3c 16e3 b2bc 5a4b 013c fada 09bc
000003f0: a012 92ba c862 163c 3899 f73b b41a 393a

fc2.weight f4 [128, 256]
-0.030143555 0.013729842 0.047463376 -0.10178881 -0.029034808 0.008239214 -0.022235112 0.07370751
-0.06640389 0.22281565 -0.05923789 -0.06014563 0.15480576 -0.09016163 -0.11362945 0.13316248
-0.05496735 0.04849112 0.018301167 -0.104983464 -0.13302337 -0.034308877 0.1704176 0.09664283
0.16695714 0.040683202 -0.073476054 0.2274198 0.11472105 0.13822256 0.11149711 -0.09072631
-0.012990719 0.07482861 -0.05371178 -0.03693583 0.09431275 -0.019679694 -0.05043532 0.03284218
0.03698492 0.05940794 0.043355234 0.12611108 -0.015979154 -0.08822777 -0.009697003 0.008444274
0.1753752 0.00745053 0.20503056 -0.09685885 0.09131138 -0.008862927 -0.036035564 0.04251729
-0.06624894 -0.042979628 0.08095465 0.016255116 -0.034868587 -0.11596579 0.044832245 0.025514916
-0.050753843 0.2542261 -0.08835104 0.14031613 0.21340819 0.078427255 0.16628028 -0.03775984
-0.06003274 0.15088046 0.012413695 -0.0012650002 0.28541452 0.123510726 0.31885695 -0.013659167
-0.015147142 0.09411385 0.013889449 0.043303512 -0.029405234 -0.01556608 0.08123947 0.2819529
-0.018781371 0.1500878 0.07366838 -0.08770606 -0.12111436 0.16929762 0.1212471 0.120123915
-0.029661814 0.015145089 0.23408622 -0.14696772 -0.1691635 0.24221088 0.17530462 -0.15177655
-0.13750328 0.16583486 -0.08875937 0.17589398 -0.018804684 0.20295192 0.04591309 0.017174685
-0.0029325625 0.10898144 0.21118191 0.15737262 0.041106895 0.25418836 0.16663103 0.2350898
0.03484234 0.08430029 0.0032298719 -0.028686585 0.16548775 0.09752477 0.05482772 0.042519968
-0.13216172 0.07264629 -0.004608532 -0.06160493 0.00035655173 0.08152931 0.10434501 -0.07008293
-0.09837653 0.20222421 -0.058071166 -0.057448655 0.018789874 -0.046270218 0.1654233 0.012467978
-0.09553345 -0.074337736 0.029595822 0.025968391 -0.12205215 -0.13083868 0.07484994 0.13917162
-0.0007561339 0.18184997 0.18112546 -0.1839592 -0.062142696 0.14730224 -0.1586053 -0.11414391
0.1080481 0.007388678 0.002045451 0.2614213 0.116418034 0.086298384 0.030510593 0.11779926
0.067365155 0.10939483 -0.07138492 -0.048192903 -0.10910387 0.08655999 0.21898521 -0.0005849434
0.021013334 -0.061869103 0.008975951 -0.081059046 -0.07821088 -0.035100836 -0.014355171 0.20316538
-0.016807668 0.10421873 0.2037541 0.029646115 -0.0918916 0.10728397 -0.13726023 0.015269499
-0.067937 0.19960833 0.0722544 0.0913572 0.07667373 -0.049358197 -0.092454866 0.16114435
-0.06114293 0.07035221 0.17529023 0.13129836 0.033171292 0.21839876 0.04644427 0.05672984
0.17802668 0.16892321 0.14380425 0.051713392 0.14967199 -0.06480187 0.066807844 -0.036817607
0.07044654 0.1693396 -0.02880768 -0.007991222 0.114543125 -0.06287025 0.028949708 0.01612903
0.025059164 0.08806058 0.06997165 0.12806459 -0.026220854 -0.031123219 -0.06712121 -0.16364633
0.08822214 0.18825798 -0.038771298 -0.08348025 0.17257479 0.26909626 -0.051962286 0.2198635
-0.0026542742 0.11936315 -0.010387841 0.12575388 -0.07816528 0.087205626 0.18657501 0.15233338
-0.025949666 0.16850336 0.045038376 0.07811128 0.08315364 -0.17440972 0.08448394 -0.13147517
00000000: 9eef f6bc 22f3 603c f568 423d a776 d0bd
00000010: 68da edbc c5fd 063c 6926 b6bc f7f3 963d
00000020: c3fe 87bd c929 643e 6ea3 72bd 445b 76bd
00000030: 6785 1e3e a9a6 b8bd 8fb6 e8bd bf5b 083e
00000040: 7225 61bd a09e 463d 54ec 953c 9201 d7bd
00000050: 4737 08be 7787 0cbd f481 2e3e adec c53d
00000060: d0f6 2a3e 6ea3 263d 9d7a 96bd bce0 683e
00000070: dff2 ea3d 378a 0d3e 9958 e43d b7ce b9bd
00000080: 06d7 54bc be3f 993d e200 5cbd 064a 17bd
00000090: 0b27 c13d 4f37 a1bc 4495 4ebd 8685 063d
000000a0: 807d 173d bd55 733d 4295 313d 4323 013e
000000b0: b7e6 82bc c3b0 b4bd 2ee0 1ebc da59 0a3c
000000c0: 8e95 333e 9323 f43b 88f3 513e ef5d c6bd
000000d0: 7601 bb3d cf35 11bc 079a 13bd 9c26 2e3d
000000e0: 86ad 87bd 680b 30bd 8dcb a53d 7329 853c
000000f0: 5dd2 0ebd 797f edbd 04a2 373d a804 d13c
00000100: 43e3 4fbd ec29 823e 64f1 b4bd 08af 0f3e
00000110: ad87 5a3e 789e a03d 6145 2a3e 10aa 1abd
00000120: e4e4 75bd 6880 1a3e d062 4b3c 5dce a5ba
00000130: da21 923e 31f3 fc3d 3841 a33e b3ca 5fbc
00000140: b82b 78bc c3be c03d 9290 633c 065f 313d
00000150: 3fe3 f0bc df08 7fbc e160 a63d 215c 903e
00000160: 64db 99bc 9eb0 193e 73df 963d 3c9f b3bd
00000170: ce0a f8bd 5b5c 2d3e 6650 f83d 8703 f63d
00000180: 55fd f2bc 1b23 783c 4cb4 6f3e b57e 16be
00000190: 3239 2dbe 2106 783e 0e83 333e 506b 1bbe
000001a0: a9cd 0cbe 9dd0 293e 79c7 b5bd 8d1d 343e
000001b0: 480c 9abc a1d2 4f3e 5d0f 3c3d edb1 8c3c
000001c0: 3c30 40bb a931 df3d 1240 583e 4a26 213e
000001d0: b45f 283d fa24 823e 53a1 2a3e 61bb 703e
000001e0: d7b6 0e3d a1a5 ac3d 42ac 533b 2100 ebbc
000001f0: 9f75 293e 11bb c73d 0893 603d 6b29 2e3d
00000200: 6755 07be 94c7 943d 2b03 97bb 7355 7cbd
00000210: 90ef ba39 d7f8 a63d d6b2 d53d a487 8fbd
00000220: a279 c9bd dd13 4f3e 08dc 6dbd 484f 6bbd
00000230: 39ed 993c d785 3dbd ba64 293e 7d46 4c3c
00000240: 0ba7 c3bd 623e 98bd f072 f23c aabb d43c
00000250: 7af6 f9bd 93fa 05be ed4a 993d 0183 0e3e
00000260: 4937 46ba e136 3a3e f478 393e cd5f 3cbe
00000270: 5789 7ebd 66d6 163e 6e69 22be 48c4 e9bd
00000280: 5248 dd3d b91c f23b f90c 063b 03d9 853e
00000290: 946c ee3d 35bd b03d 5af1 f93c bd40 f13d
000002a0: bef6 893d 660a e03d 4232 92bd ec65 45bd
000002b0: da71 dfbd 5d46 b13d a93d 603e e356 19ba
000002c0: 2824 ac3c 756a 7dbd de0f 133c 4902 a6bd
000002d0: 072d a0bd e5c5 0fbd f331 6bbc 960a 503e
000002e0: 3cb0 89bc a170 d53d eaa4 503e 69dc f23c
000002f0: aa31 bcbd b3b7 db3d f28d 0cbe ec2c 7a3c
00000300: 8e22 8bbd 2066 4c3e 1dfa 933d 7c19 bb3d
00000310: 1e07 9d3d d22b 4abd fa58 bdbd 0603 253e
00000320: 0271 7abd d214 903d 487f 333e 1473 063e
00000330: 9fde 073d eda3 5f3e 593c 3e3d 8c5d 683d
00000340: a04c 363e 35fa 2c3e 6c41 133e 6cd1 533d
00000350: 9d43 193e d8b6 84bd 8dd2 883d 0fce 16bd
00000360: 4746 903d 5c67 2d3e 15fe ebbc 9ded 02bc
00000370: 9695 ea3d 1ec2 80bd f027 ed3c 0721 843c
00000380: e048 cd3c 1b59 b43d 4c4d 8f3d 5d23 033e
00000390: 1ecd d6bc 1ff6 febc d876 89bd e792 27be
000003a0: cfad b43d b3c6 403e a7ce 1ebd b1f7 aabd
000003b0: 72b7 303e fcc6 893e 68d6 54bd e623 613e
000003c0: 55f3 2dbb ab74 f43d c331 2abc a0c5 003e
000003d0: 1e15 a0bd dd98 b23d 850d 3f3e 48fd 1b3e
000003e0: 6594 d4bc 258c 2c3e 297a 383d cff8 9f3d
000003f0: 754c aa3d 7698 32be ea05 ad3d 6da1 06be

fc2.bias f4 [128]
-0.0054270052 0.01727309 0.0077188793 -0.003061637 0.053005494 -0.009066728 -0.003663293 0.0039365357
0.01704057 0.004271585 -0.013256841 0.012331319 0.014625159 -0.011324439 0.02454071 -0.008159258
-0.014190069 0.00077065174 -0.010404855 0.002321642 0.048704788 -0.015736897 -0.01864881 0.020850636
0.008434913 -0.0044415398 -0.0075420286 -0.006824354 0.006005575 0.014819738 -0.0015633913 -0.046807125
-0.00252397 0.032368224 0.000841226 0.0016442166 0.020713244 -0.0059835343 0.005188049 -0.020099612
-0.0028671464 -0.008146301 -0.006433512 0.01285862 -0.0070561133 0.032277253 0.027766619 -0.001388134
-0.01894808 -0.0010906365 -0.014410342 -0.012681365 -0.02549564 -0.004587211 0.00046678045 -0.009769565
0.018177558 0.0035777725 -0.009991598 0.01711767 -0.0022646433 -0.0041547543 0.012734036 0.00062826945
0.007975165 0.006832044 -0.019445604 -0.010770274 0.015181587 0.024677858 0.0006693859 -0.021987839
0.013640798 -0.019521413 0.005994159 -0.0018037385 -0.036745764 -0.0132559985 0.0012791933 -0.012340018
-0.029918604 -0.022759778 0.040354297 0.014440382 -0.040498342 -0.008132889 -0.0018003584 -0.002973025
-0.0024418393 -0.0073349066 -0.00026799145 0.041310273 -0.036177423 -0.0013168377 -0.0015115346 -0.011245067
-0.013055155 0.01202173 0.008422092 -0.0033812677 -0.035375036 -0.016147679 0.0054139397 -0.001851635
0.018685628 -0.044980206 -0.03227072 -0.006262703 0.009239488 -0.0058073937 0.014553973 0.016279742
-0.0069881105 -0.025094025 -0.0125160115 0.0109688565 -0.006254012 0.0013500339 -0.04475498 -0.030440086
-0.0010108816 0.0024396135 -0.014567537 -0.0019259986 0.009264104 -0.0074111926 0.030318229 0.018143235
00000000: 05d5 b1bb 4c80 8d3c a7ee fc3b bfa5 48bb
00000010: 4a1c 593d 9d8c 14bc dc13 70bb 0efe 803b
00000020: aa98 8b3c a7f8 8b3b 3933 59bc 4d09 4a3c
00000030: 5d9e 6f3c 248a 39bc 9909 c93c 69ae 05bc
00000040: 777d 68bc 9005 4a3a 2079 2abc b026 183b
00000050: ac7e 473d aaea 80bc 64c5 98bc f4ce aa3c
00000060: 9732 0a3c 568a 91bb 1f23 f7bb d59e dfbb
00000070: 6aca c43b 7dce 723c b5ea ccba d4b8 3fbd
00000080: 3169 25bb 8b94 043d b985 5c3a c182 d73a
00000090: d2ae a93c 8611 c4bb 8200 aa3b f1a7 a4bc
000000a0: bce6 3bbb 1078 05bc 36d0 d2bb f6ac 523c
000000b0: f836 e7bb 2735 043d d276 e33c 0cf2 b5ba
000000c0: 0139 9bbc b0f3 8eba 5b19 6cbc 80c5 4fbc
000000d0: 3bdc d0bc 5150 96bb 36ba f439 8710 20bc
000000e0: 1ae9 943c 1079 6a3b cdb3 23bc 5b3a 8c3c
000000f0: 696a 14bb 9b24 88bb 6ba2 503c 73b2 243a
00000100: 44aa 023c 57df df3b 634c 9fbc ce75 30bc
00000110: 31bc 783c 3829 ca3c ba79 2f3a d71f b4bc
00000120: a77d 5f3c 5feb 9fbc a66a c43b 6c6b ecba
00000130: ba82 16bd b02f 59bc 9baa a73a c92d 4abc
00000140: dc17 f5bc b772 babc 8c4a 253d 5a97 6c3c
00000150: 97e1 25bd cf3f 05bc 01fa ebba 15d7 42bb
00000160: 4407 20bb a859 f0bb 3481 8cb9 f634 293d
00000170: c72e 14bd be99 acba af1e c6ba 3b3d 38bc
00000180: 4ae5 55bc caf6 443c d0fc 093c 4298 5dbb
00000190: 6ae5 10bd 2348 84bc 6b67 b13b 90b2 f2ba
000001a0: 9a12 993c 2a3d 38bd 4d2e 04bd 5c37 cdbb
000001b0: 3961 173c f34b bebb ca73 6e3c 185d 853c
000001c0: 85fc e4bb fc91 cdbc f50f 4dbc b8b6 333c
000001d0: 75ee ccbb 9ff3 b03a ff50 37bd 7d5d f9bc
000001e0: 8f7f 84ba ece1 1f3b aeac 6ebc ca71 fcba
000001f0: 78c8 173c 97d9 f2bb ef5d f83c 1fa1 943c

fc3.weight f4 [64, 128]
0.15335481 -0.17318901 -0.015064256 -0.053638723 -0.10868111 0.1363468 -0.042249937 0.18245684
-0.19668189 -0.15044524 0.1872646 -0.12344401 -0.32666808 0.065483846 -0.2570401 0.07416289
0.043771673 0.032587808 0.017472962 -0.18939383 0.109633274 0.030467024 -0.01337065 -0.18307233
-0.018939864 0.05917135 -0.13695627 0.27281025 0.10510763 0.077251695 -0.08000363 -0.24053954
-0.011710232 -0.0040911306 0.3542214 0.10638896 0.060557652 -0.039638758 0.1553513 -0.009430832
-0.26048142 0.083497204 0.18321145 -0.12353929 0.09401029 0.20161733 0.24819134 0.16135064
0.14217195 -0.14390181 0.14772473 -0.015389022 0.11748889 -0.19942403 -0.25171202 0.2229336
0.041499805 -0.10087364 -0.019273806 -0.058616325 -0.051703297 -0.11617333 0.16779165 0.0072924485
-0.030362638 -0.098408945 0.10802954 -0.06163259 -0.16182208 0.17107609 -0.050893176 -0.11919037
-0.034667276 -0.18261525 -0.060119573 0.044870228 -0.03131297 0.06671957 0.12740362 -0.1619596
0.19866067 0.028391354 0.044796214 -0.12670518 0.04030421 0.0032188578 -0.2914206 -0.00042590805
-0.16472648 -0.073062375 -0.080060385 0.09548309 -0.20861413 0.046649568 0.013081905 0.20865646
0.25197604 0.014686769 0.07404494 -0.0007899713 0.17871499 -0.18558176 0.019412166 -0.22193472
0.22259803 0.1212379 -0.20813736 0.1283206 -0.2424645 0.011389106 0.086535506 -0.039412633
0.16066931 -0.023853404 0.11804925 0.18081611 -0.106609285 -0.18742439 0.10937321 -0.07638661
0.0006878367 -0.122418806 0.08598837 0.098022245 0.03331767 -0.050762158 -0.08997459 0.23540585
0.035424132 -0.02095522 0.030704012 -0.048311684 0.06381933 0.2936829 -0.08113524 -0.14397073
-0.09824482 -0.22339484 -0.22071294 0.031010503 0.084413566 0.21900888 -0.10208823 -0.20612815
0.022015966 -0.21719241 0.0009713166 -0.28817213 -0.29846567 -0.1652588 -0.118836276 -0.15269604
0.15412204 0.0806204 -0.06656958 0.12887321 -0.102348424 -0.092933014 -0.037804168 -0.15444224
0.10909999 -0.027221821 -0.06344769 0.18698023 -0.2449303 -0.23394063 0.037955936 -0.16557083
-0.047763143 -0.038796574 -0.20761134 0.11746897 -0.19823156 -0.09006241 -0.13085641 -0.15364924
0.034819905 0.091236375 0.073252015 0.09476056 -0.17519523 0.1759913 -0.102319874 0.035937376
0.14602934 0.009827942 -0.15703958 -0.12972865 0.12227663 0.024012454 0.05413437 0.14043877
0.035379697 0.11725093 -0.26852155 0.1243153 -0.25057504 0.00011728068 -0.209778 0.07510221
0.2364999 -0.12535582 0.07916957 0.0922927 0.13463484 -0.04156301 -0.18458885 0.26447427
-0.16313343 0.11775079 -0.049738135 0.039176796 -0.14669129 0.2532727 0.05391247 0.12728499
0.09085841 -0.036199115 -0.06785309 -0.089140005 -0.055131204 -0.05592308 0.03130445 0.15264282
0.010501759 -0.03499425 -0.06470047 -0.10006184 -0.19108483 -0.1567251 -0.0064422144 0.15492725
-0.048137385 0.2019407 0.048175704 -0.01107509 0.15845703 -0.056881957 -0.06217412 0.08027212
-0.1817143 -0.21483283 -0.23159288 -0.17466646 -0.29763877 0.15631089 0.07009009 -0.09920914
0.1831821 0.20711263 0.023540614 -0.12042356 -0.27989006 0.058015067 0.037770376 0.25617838
00000000: 0b09 1d3e 7658 31be 12d0 76bc 47b4 5bbd
00000010: 3494 debd 7f9e 0b3e 450e 2dbd f7d5 3a3e
00000020: fa66 49be 510e 1abe 4bc2 3f3e 37d0 fcbd
00000030: 0a41 a7be 651c 863d c39a 83be b7e2 973d
00000040: ed49 333d cb7a 053d 7523 8f3c 75f0 41be
00000050: 6987 e03d fb95 f93c 9210 5bbc 5077 3bbe
00000060: c627 9bbc a85d 723d 443e 0cbe c9ad 8b3e
00000070: ab42 d73d 2336 9e3d f1d8 a3bd ff4f 76be
00000080: 46dc 3fbc e40e 86bb 825c b53e 74e2 d93d
00000090: 4d0b 783d 405c 22bd 6914 1f3e c783 1abc
000000a0: d25d 85be 9500 ab3d c89b 3b3e 2b02 fdbd
000000b0: 7888 c03d c674 4e3e df25 7e3e 1a39 253e
000000c0: 8695 113e ff5a 13be 2745 173e 3d22 7cbc
000000d0: 049e f03d d035 4cbe 66e0 80be b548 643e
000000e0: b3fb 293d d796 cebd 1ae4 9dbc ac17 70bd
000000f0: d6c6 53bd 48ec edbd 93d1 2b3e 7ef5 ee3b
00000100: 11bb f8bc a18a c9bd 973e dd3d 7472 7cbd
00000110: b0b4 25be 922e 2f3e 5d75 50bd 151a f4bd
00000120: 46ff 0dbd 7eff 3abe f13f 76bd d8c9 373d
00000130: 0742 00bd 45a4 883d 1876 023e bdd8 25be
00000140: b46d 4b3e fc94 e83c 3c7c 373d 01bf 01be
00000150: 0716 253d 79f3 523b 1535 95be 694c dfb9
00000160: 0fae 28be baa1 95bd b3f6 a3bd a38c c33d
00000170: f19e 55be 9e13 3f3d 7d55 563c 0aaa 553e
00000180: 0103 813e c6a0 703c e0a4 973d 1416 4fba
00000190: 1001 373e 2509 3ebe 4306 9f3c db42 63be
000001a0: bdf0 633e 934b f83d f621 55be 7a66 033e
000001b0: 9d48 78be 5f99 3a3c 8739 b13d 246f 21bd
000001c0: 7f86 243e 3768 c3bc cec3 f13d dc27 393e
000001d0: f855 dabd 2eec 3fbe 10ff df3d 9570 9cbd
000001e0: f14f 343a b6b6 fabd ac1a b03d e3bf c83d
000001f0: 1c78 083d fbeb 4fbd 9944 b8bd 3b0e 713e
00000200: e518 113d 48aa abbc fb86 fb3c 79e2 45bd
00000210: b5b3 823d 9b5d 963e 3c2a a6bd 106d 13be
00000220: 9534 c9bd 9ec1 64be 9302 62be bd09 fe3c
00000230: 05e1 ac3d dd43 603e a213 d1bd 4213 53be
00000240: d45a b43c b067 5ebe f49f 7e3a 4c8b 93be
00000250: 7ed0 98be 9a39 29be 6f60 f3bd 5a5c 1cbe
00000260: 2bd2 1d3e 4f1c a53d a255 88bd 57f7 033e
00000270: 0d9c d1bd aa53 bebd 8bd8 1abd 1b26 1ebe
00000280: d16f df3d 4c00 dfbc ddf0 81bd bf77 3f3e
00000290: 02cf 7abe 228e 6fbe af77 1b3d 668b 29be
000002a0: 49a3 43bd 28e9 1ebd 1198 54be 9293 f03d
000002b0: 37fd 4abe a472 b8bd 39ff 05be 3a56 1dbe
000002c0: 519f 0e3d 23da ba3d 2705 963d d311 c23d
000002d0: 6166 33be 1037 343e 158d d1bd 1233 133d
000002e0: b788 153e 6005 213c fcce 20be 96d7 04be
000002f0: 2b6c fa3d c4b5 c43c 00bc 5d3d 2ecf 0f3e
00000300: 4dea 103d 4121 f03d a87b 89be 0599 fe3d
00000310: 5f4b 80be 96f4 f538 0bd0 56be 30cf 993d
00000320: 082d 723e 475d 00be a823 a23d f503 bd3d
00000330: b7dd 093e fa3d 2abd dc04 3dbe 2c69 873e
00000340: 730c 27be 5427 f13d 37ba 4bbd d977 203d
00000350: 3e36 16be f6ac 813e 52d3 5c3d ff56 023e
00000360: f913 ba3d 8645 14bd 90f6 8abd 098f b6bd
00000370: 42d1 61bd 990f 65bd 1839 003d 664e 1c3e
00000380: 920f 2c3c 2156 0fbd ae81 84bd 39ed ccbd
00000390: beab 43be 8b7c 20be 3619 d3bb 40a5 1e3e
000003a0: b52b 45bd 8bc9 4e3e e353 453d 4b74 35bc
000003b0: 8f42 223e 0efd 68bd 4aaa 7ebd b665 a43d
000003c0: 5013 3abe 23fd 5bbe af26 6dbe c4db 32be
000003d0: 1c64 98be f60f 203e 658b 8f3d 292e cbbd
000003e0: 1794 3b3e 5515 543e 3fd8 c03c a1a0 f6bd
000003f0: c04d 8fbe 35a1 6d3d 1cb5 1a3d d029 833e

fc3.bias f4 [64]
-0.0065479106 0.048715726 0.01593994 0.0024499546 -0.025072213 -0.011311445 0.015382191 -0.025420893
-0.008618765 -0.02223751 -0.034518745 -0.05031591 -0.03915017 -0.016184391 -0.006687081 -0.01169045
-0.0019185077 -0.03180978 0.016347809 -0.023182789 0.005394228 -0.00095035677 0.003192245 0.018392388
-0.0067108935 -0.028389389 -0.0136493 -0.009808051 -0.0026134462 -0.01721648 0.04401944 -0.023284143
-0.013152142 0.018674346 -0.009923068 -0.01558473 -0.0034437005 -0.02148086 -0.005033224 0.04581311
-0.016201364 -0.0055663544 -0.052458428 -0.001841081 -0.015328311 0.040387984 0.010043913 0.009564649
0.04439224 -0.008203996 -0.0009009335 -0.02527819 -0.005074566 0.022372983 -0.01170478 -0.012300366
-0.0010924859 0.012496692 0.006901372 -0.0048100334 -0.0011325036 0.014888582 0.0015020266 -0.0267058
00000000: db8f d6bb 248a 473d 7a94 823c 6b8f 203b
00000010: 3e64 cdbc a453 39bc 9605 7c3c 7a3f d0bc
00000020: b835 0dbc 702b b6bc 8763 0dbd 0e18 4ebd
00000030: ee5b 20bd 2195 84bc 4d1f dbbb 4d89 3fbc
00000040: 7076 fbba f94a 02bd d7eb 853c d5e9 bdbc
00000050: 10c2 b03b 5d21 79ba fc34 513b a2ab 963c
00000060: 0ee7 dbbb dd90 e8bc 50a1 5fbc f3b1 20bc
00000070: 5a46 2bbb 9309 8dbc ba4d 343d 63be bebc
00000080: 157c 57bc f1fa 983c 5d94 22bc 1857 7fbc
00000090: b5af 61bb a1f8 afbc beed a4bb 87a6 3b3d
000000a0: b9b8 84bc f765 b6bb a6de 56bd 6d50 f1ba
000000b0: 9923 7bbc df6d 253d 398f 243c 0cb5 1c3c
000000c0: a3d4 353d 0e6a 06bc a02c 6cba 3514 cfbc
000000d0: 8c48 a6bb 8c47 b73c 68c5 3fbc 7987 49bc
000000e0: be31 8fba edbe 4c3c e824 e23b 7c9d 9dbb
000000f0: 8470 94ba 3def 733c a6df c43a 1fc6 dabc

fc4.weight f4 [23, 64]
-0.50501066 0.16975097 -0.73487896 0.8598319 -0.13546376 -0.25232795 -0.33902922 -0.24910939
-0.02692608 -0.012700678 -0.2924239 -0.53074956 0.44329962 0.36476657 -0.33141902 0.45769697
-0.87735695 -0.62091684 -0.68117285 0.086193316 -0.4773053 -0.2718327 -0.24111436 0.11126336
-0.87018836 -0.512662 0.40769187 -0.7701876 -0.08392486 -0.68137205 0.23595977 -0.69036824
0.3816247 -0.0102159055 -0.26074493 -0.25202668 -0.30211198 0.15036935 -0.27180767 -0.04104548
0.23880711 0.16743183 -0.40729702 0.36301795 0.4199711 -0.022328831 0.086455934 -0.24176866
0.29978293 0.1890868 -0.25923905 -0.6784964 -0.6332645 0.1289874 -0.107767865 -0.45860794
0.27022505 -0.18627502 -0.4919224 0.5742358 0.41283894 -0.4317103 -0.4588648 -0.19546792
0.07136432 -0.22250482 0.27438837 -0.119585186 -0.08073125 -0.119654045 0.1836406 -0.08796707
0.24624573 0.15087478 0.10517496 0.12410605 0.19741395 -0.49028775 -0.48053837 0.22760393
-0.33269182 -0.2618641 0.14342485 -0.054418594 -0.1972851 0.24624428 -0.12888922 0.041019626
0.13400194 -0.5075635 0.012595635 0.021711323 0.038989373 -0.0066670747 0.11166437 0.04700022
0.16769926 0.040086836 -0.2738207 -0.0026460092 -0.27230263 0.12887645 -0.12642 -0.34792197
-0.0010697329 -0.35069132 0.07805447 -0.08138388 0.29127663 -0.25007042 -0.4646407 0.09741736
-0.23319846 0.0024115269 -0.28710943 -0.45717207 0.03538741 -0.11708503 0.183747 0.053276956
-0.1736715 0.09583468 0.16232646 -0.3375266 -0.26291475 0.08224193 -0.047348708 -0.15542844
0.18494768 -0.012625933 -0.12875608 -0.28841826 0.045938097 -0.47301912 -0.40142265 -0.49999338
0.23284128 0.11647847 0.2043463 -0.06587486 0.046322547 0.18019657 0.2099484 -0.23026514
0.18856215 0.20916834 -0.38549128 0.21032216 0.2396374 0.22116937 -0.014140047 0.15351261
0.36647964 -0.34254262 -0.41746077 0.004740927 -0.36168465 0.107251115 -0.22181301 -0.1215505
0.20886227 -0.37045425 0.17269553 -0.5152525 0.25129256 -0.4386208 -0.19889887 -0.15104277
-0.16405231 0.09753839 -0.10483806 0.0038657996 -0.2625157 0.1558316 0.28969553 -0.041423924
-0.47548896 -0.64634156 0.13932921 0.048009504 0.08649785 -0.34668967 -0.5831608 -0.5019853
-0.033398982 -0.26596388 0.10302999 0.3063297 -0.25088876 0.10879076 -0.21636498 -0.24652973
-0.2033822 0.1311793 0.15204838 -0.16127859 0.21782418 -0.0063568745 0.5229434 -0.11914486
-0.25291377 -0.14033423 0.12851734 -0.18309364 0.048179727 -0.052137252 0.13230205 -0.52996224
0.22723915 -0.04914378 0.085877284 0.113574706 -0.0025725865 0.09189804 0.13451946 0.23119472
-0.3101071 0.4630283 -0.12263996 -0.4393679 -0.10978935 -0.3228916 -0.15417187 -0.024378382
-0.22157946 0.17793365 0.20262209 0.080523625 0.18812087 0.029882887 -0.5024178 -0.1595936
0.20928827 0.006677862 -0.09334736 0.2574928 0.50552785 -0.2526514 -0.54459876 0.2075553
-0.1091748 0.16660784 -0.4073428 0.26777714 -0.080770984 0.5310794 -0.18490745 0.14413168
0.07230708 0.07429886 0.015790107 0.46268946 0.5048732 0.22663766 0.14319701 -0.16406044
00000000: 6148 01bf 33d3 2d3e 0721 3cbf f21d 5c3f
00000010: 03b7 0abe 2131 81be 3d95 adbe 8816 7fbe
00000020: 1594 dcbc 8116 50bc 96b8 95be 34df 07bf
00000030: 2bf8 e23e afc2 ba3e c1af a9be 4257 ea3e
00000040: 779a 60bf 68f4 1ebf 5861 2ebf 1f86 b03d
00000050: 5c61 f4be a82d 8bbe afe6 76be 0bde e33d
00000060: aac4 5ebf d13d 03bf fdbc d03e 042b 45bf
00000070: cce0 abbd 666e 2ebf 709f 713e f9bb 30bf
00000080: 5064 c33e 9d60 27bc 5c80 85be a409 81be
00000090: 6cae 9abe 6cfa 193e 602a 8bbe 4e1f 28bd
000000a0: da89 743e 4073 2b3e 3c89 d0be 7ddd b93e
000000b0: 7406 d73e f4ea b6bc cf0f b13d 3492 77be
000000c0: 267d 993e f89f 413e fbba 84be f1b1 2dbf
000000d0: 9f1d 22bf 4615 043e 66b5 dcbd a9ce eabe
000000e0: f05a 8a3e e1be 3ebe 41dd fbbe 1e01 133f
000000f0: a05f d33e 2209 ddbe 54f0 eabe be28 48be
00000100: 7527 923d 4ed8 63be a27c 8c3e 14e9 f4bd
00000110: 6d56 a5bd 2e0d f5bd 480c 3c3e 1428 b4bd
00000120: d727 7c3e eb7e 1a3e f865 d73d 502b fe3d
00000130: e226 4a3e ff06 fbbe 2009 f6be 0111 693e
00000140: 9556 aabe 0d13 86be f7dd 123e 08e6 5ebd
00000150: 1b05 4abe 7627 7c3e 89fb 03be 3204 283d
00000160: ce37 093e aeef 01bf ec5d 4e3c f2db b13c
00000170: 52b3 1f3d 7a77 dabb 4ab0 e43d 4d83 403d
00000180: 5bb9 2b3e 1832 243d 3a32 8cbe ab68 2dbb
00000190: 406b 8bbe 30f8 033e 3f74 01be d422 b2be
000001a0: 4836 8cba d08d b3be 06db 9f3d 97ac a6bd
000001b0: 3622 953e 3b09 80be 63e5 edbe c182 c73d
000001c0: 94cb 6ebe b50a 1e3b 0200 93be 7512 eabe
000001d0: 64f2 103d 47ca efbd 2c28 3c3e f038 5a3d
000001e0: f1d6 31be f944 c43d e838 263e 49d0 acbe
000001f0: c39c 86be 756e a83d b8f0 41bd a228 1fbe
00000200: ed62 3d3e 00dd 4ebc a2d8 03be 8fab 93be
00000210: 9629 3c3d 902f f2be 4587 cdbe 22ff ffbe
00000220: f26d 6e3e 448c ee3d 2840 513e 66e9 86bd
00000230: b6bc 3d3d 7385 383e b7fc 563e a0ca 6bbe
00000240: 7016 413e 3a30 563e 1d5f c5be b15e 573e
00000250: 8263 753e 397a 623e a8ab 67bc 6932 1d3e
00000260: 38a3 bb3e bf61 afbe 6bbd d5be c759 9b3b
00000270: bb2e b9be 79a6 db3d f322 63be 78ef f8bd
00000280: fedf 553e 2eac bdbe 19d7 303e 96e7 03bf
00000290: 6ba9 803e e892 e0be 25ac 4bbe f5aa 1abe
000002a0: 54fd 27be 35c2 c73d 56b5 d6bd 5b59 7d3b
000002b0: 7568 86be 5292 1f3e f952 943e 22ac 29bd
000002c0: 4a73 f3be a476 25bf 51ac 0e3e 9da5 443d
000002d0: c925 b13d 4f81 b1be 074a 15bf 1c82 00bf
000002e0: 5fcd 08bd 6b2c 88be 6301 d33d 3fd7 9c3e
000002f0: 7e74 80be b1cd de3d c88e 5dbe 4a72 7cbe
00000300: 6c43 50be de53 063e 92b2 1b3e 3726 25be
00000310: 4d0d 5f3e 544d d0bb 9edf 053f 3802 f4bd
00000320: ea7d 81be c7b3 0fbe 0d9a 033e e67c 3bbe
00000330: 1b58 453d df8d 55bd 307a 073e 9bab 07bf
00000340: 61b1 683e fd4a 49bd 6ee0 af3d db99 e83d
00000350: d798 28bb 0a35 bc3d 78bf 093e 4fbe 6c3e
00000360: 5cc6 9ebe 0c12 ed3e a92a fbbd d4f4 e0be
00000370: 3dd9 e0bd 0c52 a5be 3bdf 1dbe 2cb5 c7bc
00000380: bae5 62be 3d34 363e 2a7c 4f3e 92e9 a43d
00000390: c2a2 403e f5cc f43c 749e 00bf 816c 23be
000003a0: aa4f 563e f7d1 da3b e72c bfbd 19d6 833e
000003b0: 466a 013f 865b 81be d36a 0bbf 6089 543e
000003c0: 0a97 dfbd 3f9b 2a3e 3c8f d0be 161a 893e
000003d0: 426b a5bd d2f4 073f 6158 3dbe 4197 133e
000003e0: bc15 943d 002a 983d 415a 813c a2e5 ec3e
000003f0: 5f3f 013f b413 683e 3da2 123e 76ff 27be

fc4.bias f4 [23]
-0.11018902 0.06940653 -0.025945997 0.12528272 0.025625268 -0.042572577 -0.24196988 -0.09124686
-0.0111347 -0.01362526 -0.19721842 0.008980327 0.01535062 -0.5668244 -0.031352215 -0.07309465
-0.1414453 -0.041582674 -0.16097231 -0.22806719 0.14659847 0.056514423 0.11436472
00000000: c8aa e1bd 0325 8e3d b38c d4bc 1d4a 003e
00000010: 15ec d13c 9560 2ebd f4c6 77be a2df babd
00000020: 516e 36bc 7c3c 5fbc a0f3 49be 3922 133c
00000030: 2b81 7b3c 671b 11bf 2e6b 00bd a6b2 95bd
00000040: 09d7 10be 9852 2abd edd5 24be 728a 69be
00000050: e91d 163e ab7b 673d 0d38 ea3d

bn1.weight f4 [256]
0.8663276 0.9488181 0.9020997 0.9008283 0.91255873 0.9754204 1.0636282 1.0279977
0.8858326 0.93948334 0.7729537 0.8637534 0.9148189 0.89111376 0.9528211 0.7915996
1.0451713 1.0072231 1.0706688 0.9643051 0.9849494 0.87098926 0.9329599 0.9034695
0.98137623 0.8350634 0.9949752 0.88118094 0.84388167 0.8994317 0.8485609 1.1646932
0.85252833 0.93857795 0.8892527 1.010879 0.8943464 1.0645992 1.0006784 0.95160115
0.93024665 0.9193858 0.87875456 0.9794693 0.85984343 1.0110106 0.9557419 0.9743366
0.84835917 0.9028795 1.0116514 1.198764 0.9538229 1.033751 0.8650682 0.9028773
0.8506432 0.85886323 0.84958977 1.1700193 1.0240364 0.9635984 0.90099365 0.87675416
1.0168743 0.90383357 0.8811477 0.8894759 0.8308679 0.89179343 0.9205988 0.9311163
1.0410478 0.9294562 0.96501863 0.8160531 0.96863514 0.90269417 0.8974222 0.8133248
1.0149239 0.86420524 0.8754521 0.8538638 0.888753 0.9436583 1.3211862 0.9195663
0.8882222 0.87953407 0.96351016 0.95336354 1.0539919 1.043772 0.89574873 0.8877726
0.8105903 0.8916222 1.1478496 0.943052 1.0027164 1.0417587 0.8493892 1.0048283
1.0932778 0.91709965 0.9049828 0.8785322 0.87332284 0.8619781 0.91430306 1.1418475
1.1288238 0.87755996 1.0070446 0.88769066 0.9442934 0.96551114 1.1039515 1.015647
0.8850041 0.9676733 1.0550708 0.9474716 0.98655057 0.9056169 0.96144205 0.93764734
1.0132264 1.0030999 0.85578096 0.95667773 0.89321506 0.8502197 0.85512 0.99436677
0.80024964 0.9086511 0.78972036 0.86123544 0.77532524 0.8733245 0.92040306 0.86549973
0.8872065 0.973008 0.8864525 1.0689073 0.98151565 0.95566374 0.99134797 0.8450749
0.79613554 0.8141271 1.0316455 0.93219614 0.90409064 0.9470157 0.8841115 1.1533296
0.9887728 0.89931107 0.83374447 1.1336942 1.0687596 0.90544325 1.1356614 1.0068094
0.9245671 0.89651054 0.90272504 1.1053551 0.8958406 0.9329769 0.9078015 0.9118469
0.98856044 0.947278 0.9256807 1.150666 0.83313525 1.0781322 0.80782914 0.82196385
1.0732145 1.1096605 0.96133715 1.058826 1.0018526 0.9052829 1.0242946 0.9423242
1.0056528 0.87434137 0.86392736 0.9143539 0.9408362 0.9105675 0.8568567 0.9484734
0.96781343 0.9541018 1.00324 0.8629774 0.82882714 1.1461269 0.963398 0.9173693
0.940677 0.9524705 0.8648616 0.9121014 1.0118545 0.8528514 0.8883152 1.1158161
1.0730057 0.90450466 1.0031611 1.0269779 1.0616113 1.2212038 0.9897488 0.88987195
0.8768246 0.97662395 0.8698053 1.0178953 0.798173 1.0778091 1.0639863 0.96387494
0.87854147 1.2232552 1.0291235 0.93348795 0.9485137 0.88233453 0.9140449 0.8935872
0.90506446 0.88589776 1.048856 1.1684108 0.96432334 0.86948824 1.0256078 0.85463655
0.97231346 1.0413154 1.1367091 0.94944537 0.9690942 0.8725786 0.9205368 0.9328696
00000000: a5c7 5d3f bee5 723f 02f0 663f af9c 663f
00000010: 739d 693f 27b5 793f f824 883f 6e95 833f
00000020: edc5 623f fb81 703f 4be0 453f f11e 5d3f
00000030: 9231 6a3f 0820 643f 15ec 733f 45a6 4a3f
00000040: 2cc8 853f b0ec 803f ad0b 893f b3dc 763f
00000050: a525 7c3f 27f9 5e3f 76d6 6e3f c749 673f
00000060: 793b 7b3f b7c6 553f b2b6 7e3f 1395 613f
00000070: a108 583f 2841 663f 4a3b 593f ab14 953f
00000080: 4c3f 5a3f a546 703f 11a6 633f 7c64 813f
00000090: e3f3 643f c944 883f 3b16 803f 229c 733f
000000a0: a524 6e3f de5c 6b3f 0ff6 603f 80be 7a3f
000000b0: b31e 5c3f cc68 813f 80ab 743f 206e 793f
000000c0: 112e 593f 1c23 673f cb7d 813f 1971 993f
000000d0: bd2d 743f f451 843f 1c75 5d3f f722 673f
000000e0: c1c3 593f 76de 5b3f b77e 593f 31c3 953f
000000f0: a013 833f 62ae 763f 85a7 663f f672 603f
00000100: f028 823f a361 673f e592 613f b1b4 633f
00000110: c2b3 543f 934c 643f 5dac 6b3f a35d 6e3f
00000120: 0e41 853f d7f0 6d3f 760b 773f dbe8 503f
00000130: 79f8 773f f716 673f 76bd 653f 0e36 503f
00000140: 07e9 813f 8e3c 5d3f a11d 603f d196 5a3f
00000150: 5185 633f 9793 713f a11c a93f b268 6b3f
00000160: 8862 633f 2529 613f 9aa8 763f a20f 743f
00000170: 35e9 863f 529a 853f ca4f 653f 1145 633f
00000180: d982 4f3f 5a41 643f bcec 923f db6b 713f
00000190: 0359 803f 5958 853f 9271 593f 379e 803f
000001a0: 87f0 8b3f 0bc7 6a3f f4ac 673f 7ce7 603f
000001b0: 1692 5f3f 99aa 5c3f c40f 6a3f 0f28 923f
000001c0: 4c7d 903f c5a7 603f d6e6 803f b23f 633f
000001d0: 36bd 713f bd2b 773f 484e 8d3f b900 823f
000001e0: a18f 623f 70b9 773f 8f0c 873f 808d 723f
000001f0: 948e 7c3f 82d6 673f 1121 763f a809 703f
00000200: 67b1 813f 9465 803f 7614 5b3f d5e8 743f
00000210: bea9 643f 00a8 593f 25e9 5a3f d28e 7e3f
00000220: 29dd 4c3f 5c9d 683f 1d2b 4a3f ed79 5c3f
00000230: b77b 463f 3292 5f3f 899f 6b3f 6491 5d3f
00000240: f71f 633f 0d17 793f 8dee 623f f4d1 883f
00000250: 9c44 7b3f 61a6 743f fbc8 7d3f d456 583f
00000260: 8acf 4b3f a26a 503f f60c 843f 68a4 6e3f
00000270: 7c72 673f 9f6f 723f 2255 623f 4ea0 933f
00000280: 3720 7d3f 4039 663f 4770 553f e41c 913f
00000290: 1dcd 883f 21cb 673f 5a5d 913f 21df 803f
000002a0: 6eb0 6c3f b781 653f fd18 673f 477c 8d3f
000002b0: cf55 653f 93d7 6e3f ae65 683f cc6e 693f
000002c0: 4c12 7d3f d080 723f 69f9 6c3f 0649 933f
000002d0: 5a48 553f 3c00 8a3f e4cd 4e3f 396c 523f
000002e0: 185f 893f 5b09 8e3f 311a 763f 9c87 873f
000002f0: b53c 803f 9fc0 673f 161c 833f 293c 713f
00000300: 3bb9 803f d6d4 5f3f 582a 5d3f 1913 6a3f
00000310: a4da 703f f41a 693f f65a 5b3f 27cf 723f
00000320: 9fc2 773f 0440 743f 2b6a 803f 16ec 5c3f
00000330: 042e 543f 49b4 923f 40a1 763f b7d8 6a3f
00000340: 35d0 703f 1bd5 733f 9267 5d3f 7a7f 693f
00000350: 7384 813f 7854 5a3f a068 633f 10d3 8e3f
00000360: 4058 893f 9e8d 673f 9567 803f 0374 833f
00000370: e1e2 873f 6850 9c3f 2d60 7d3f a6ce 633f
00000380: 9477 603f 0704 7a3f 8fab 5e3f 654a 823f
00000390: 1155 4c3f a6f5 893f b430 883f 82c0 763f
000003a0: 18e8 603f a093 9c3f 52ba 833f 11f9 6e3f
000003b0: cbd1 723f ade0 613f d9fe 693f 21c2 643f
000003c0: 4eb2 673f 32ca 623f ea40 863f 7c8e 953f
000003d0: e5dd 763f c896 5e3f 1e47 833f 76c9 5a3f
000003e0: 89e9 783f d349 853f af7f 913f da0e 733f
000003f0: 8f16 783f 5061 5f3f 4da8 6b3f 8bd0 6e3f

bn1.bias f4 [256]
-0.13426222 -0.10904191 0.038261414 -0.08334791 -0.05252056 -0.025179366 0.0132135805 -0.07075778
-0.071267985 0.0006743822 -0.15760317 -0.08094023 -0.100111224 -0.026463514 -0.05314971 -0.069467306
0.06610032 -0.042003807 0.0069395197 -0.11375997 -0.03302446 -0.13861889 -0.14487173 -0.06555757
-0.043273002 -0.07708605 0.050164472 -0.12787436 -0.14285934 -0.109901436 -0.17089084 0.021583105
-0.07356311 0.12313309 -0.11424683 -0.030226618 0.022337083 -0.008270585 0.09800517 -0.0684009
-0.039976902 0.0002636767 -0.037931465 -0.09583222 -0.14467385 0.007682725 -0.11646593 -0.10441722
-0.12150714 -0.0256202 -0.11302799 0.10528046 -0.1137674 -0.008936602 -0.16829091 -0.1583006
-0.119159296 -0.1522415 -0.17266273 -0.066586405 -0.04806554 0.09973142 -0.04266073 -0.13769448
0.021180274 -0.028053258 -0.00016576416 -0.07872308 -0.18388806 -0.0687635 -0.12155292 0.09360064
-0.029557196 -0.08502887 0.015892727 -0.10610829 -0.04045873 -0.146968 -0.14772995 -0.13201691
-0.03138856 -0.07574548 -0.049247507 -0.002379001 -0.1736314 -0.030306814 0.30545554 -0.122805305
-0.08070567 -0.119591154 -0.069351666 -0.06386889 0.016384471 0.095370516 -0.036110006 -0.10680488
-0.14278567 0.24480009 0.090793245 -0.035609607 -0.00889063 -0.056765582 -0.20229693 -0.0949933
0.162993 -0.17764984 -0.06417441 -0.075429805 -0.07720495 -0.1530648 -0.14614286 0.058283754
-0.20133893 -0.060449563 0.015729204 -0.053865973 -0.021140182 -0.11986593 0.17675823 -0.039950084
-0.085734695 -0.122586824 -0.038412515 -0.086805195 0.14683124 -0.016175177 0.011742982 -0.13250916
0.05810505 0.021074489 -0.11996522 -0.123106256 -0.048300866 -0.10609874 -0.13302651 0.006029844
-0.1631217 -0.18560126 -0.18182635 -0.118293785 -0.1825008 -0.028853653 0.07696942 -0.17652161
-0.08707897 -0.13344532 -0.01303304 0.05218251 -0.11983804 0.21048136 -0.0764564 -0.20222963
-0.16607809 -0.14846574 -0.018447693 -0.031963866 -0.17965044 -0.075268924 -0.08405615 0.023324864
0.13331857 -0.10741599 -0.05286572 -0.017882759 -0.01371951 0.01213872 0.15762758 -0.119092405
-0.13606094 -0.063226454 -0.10838627 -0.113903284 -0.120312706 0.0036800099 -0.095496304 0.09081255
-0.022706315 0.11280697 -0.11805536 0.09453207 -0.06591985 0.006178836 -0.22703543 -0.18546239
-0.07797517 -0.090981 -0.057208978 -0.045257542 0.124210276 -0.090524554 0.011904138 -0.07346608
-0.09930393 -0.07604113 0.025439728 -0.1393837 -0.0031583575 0.007936477 -0.1363994 0.013745514
-0.13989952 -0.11223235 0.010296101 -0.106501885 -0.11524795 0.18077645 0.03838818 -0.017510956
0.0342898 -0.00089006 -0.14192207 -0.13959564 0.041964836 -0.046202514 0.026421105 -0.0086651705
0.03314173 -0.19857234 -0.108416595 0.05560208 -0.06537167 0.121762365 -0.029102525 -0.010822163
-0.05008277 0.117774285 -0.14444041 -0.055515196 -0.18792106 -0.038716353 0.13311341 0.13656811
-0.009732123 0.10909215 -0.06347151 -0.065246314 -0.07270616 -0.14647214 -0.062293414 -0.084795915
0.05181093 -0.15136345 -0.06013447 0.042647824 0.008575203 -0.079241864 -0.12911612 -0.16920997
-0.08720573 0.09417435 0.021803154 -0.1840753 -0.069735266 -0.085136764 -0.081633806 -0.075108066
00000000: 097c 09be 5d51 dfbd 00b8 1c3d 4fb2 aabd
00000010: cc1f 57bd f544 cebc c67d 583c 74e9 90bd
00000020: f3f4 91bd 06c9 303a ba62 21be fec3 a5bd
00000030: 1d07 cdbd 03ca d8bc 83b3 59bd e044 8ebd
00000040: 9b5f 873d 2f0c 2cbd e964 e33b fdfa e8bd
00000050: a844 07bd 1cf2 0dbe 4159 14be 0c43 86bd
00000060: 083f 31bd 4adf 9dbd 4379 4d3d 7ff1 02be
00000070: b849 12be 0114 e1bd 02fe 2ebe 0dcf b03c
00000080: 41a8 96bd 342d fc3d 3efa e9bd d09d f7bc
00000090: 42fc b63c 5981 07bc efb6 c83d c515 8cbd
000000a0: d2be 23bd 163e 8a39 065e 1bbd af43 c4bd
000000b0: 6225 14be 5ebf fb3b b185 eebd b2d8 d5bd
000000c0: bcd8 f8bd 74e1 d1bc 387b e7bd 489d d73d
000000d0: e2fe e8bd d36a 12bc 7454 2cbe 8d19 22be
000000e0: ca09 f4bd 32e5 1bbe 80ce 30be 745e 88bd
000000f0: 5fe0 44bd fd3f cc3d 05bd 2ebd c8ff 0cbe
00000100: 4182 ad3c f2cf e5bc fad0 2db9 9139 a1bd
00000110: 274d 3cbe e1d3 8cbd bdf0 f8bd b1b1 bf3d
00000120: ef21 f2bc 9e23 aebd 7731 823c 4e4f d9bd
00000130: 0eb8 25bd c87e 16be 8546 17be 712f 07be
00000140: 4a91 00bd 7220 9bbd c1b7 49bd 03e9 1bbb
00000150: 6ecc 31be ff45 f8bc ab64 9c3e 5981 fbbd
00000160: 0449 a5bd 35ec f4bd 3f08 8ebd b1cd 82bd
00000170: ba38 863c 9e51 c33d 16e8 13bd 84bc dabd
00000180: 6836 12be e0ac 7a3e cff1 b93d 61db 11bd
00000190: 01aa 11bc 0783 68bd ed26 4fbe d98b c2bd
000001a0: a3e7 263e d7e9 35be e06d 83bd f17a 9abd
000001b0: a11d 9ebd 05bd 1cbe 79a6 15be f2ba 6e3d
000001c0: cb2b 4ebe f699 77bd 88da 803c 91a2 5cbd
000001d0: 2d2e adbc 457c f5bd 1c00 353e b3a2 23bd
000001e0: ac95 afbd cd0e fbbd 7156 1dbd ecc6 b1bd
000001f0: ee5a 163e ce81 84bc a365 403c 7bb0 07be
00000200: 90ff 6d3d 68a4 ac3c 53b0 f5bd 221f fcbd
00000210: 21d7 45bd 4c4a d9bd 1a38 08be ff95 c53b
00000220: 6009 27be 420e 3ebe b030 3abe 0344 f2bd
00000230: 7de1 3abe 7f5e ecbc 25a2 9d3d 15c2 34be
00000240: 7656 b2bd e4a5 08be 8888 55bc 54bd 553d
00000250: a56d f5bd 6d88 573e 2c95 9cbd 4915 4fbe
00000260: 6010 2abe 6707 18be 9e1f 97bc 8bec 02bd
00000270: 49f6 37be 9826 9abd a125 acbd c913 bf3c
00000280: aa84 083e eafc dbbd ba89 58bd dd7e 92bc
00000290: ccc7 60bc 7be1 463c 2069 213e b8e6 f3bd
000002a0: 8f53 0bbe df7c 81bd 9ff9 ddbd 2046 e9bd
000002b0: 8266 f6bd 522c 713b 9193 c3bd eefb b93d
000002c0: 9802 babc 5707 e73d 02c7 f1bd 089a c13d
000002d0: fc00 87bd d577 ca3b fa7b 68be dae9 3dbe
000002e0: 72b1 9fbd 3f54 babd f653 6abd f95f 39bd
000002f0: f561 fe3d f064 b9bd 9309 433c 6275 96bd
00000300: dc5f cbbd 74bb 9bbd fa66 d03c 9aba 0ebe
00000310: 72fc 4ebb ff07 023c 49ac 0bbe dd34 613c
00000320: d241 0fbe 13da e5bd fab0 283c a91d dabd
00000330: 1e07 ecbd 761d 393e ed3c 1d3d 2373 8fbc
00000340: 7673 0c3d ea52 69ba 0554 11be 29f2 0ebe
00000350: 52e3 2b3d d93e 3dbd 1371 d83c 5cf8 0dbc
00000360: 9fbf 073d 8c56 4bbe 8509 debd 02bf 633d
00000370: 95e1 85bd 8c5e f93d 6b68 eebc 714f 31bc
00000380: 9723 4dbd a533 f13d 30e8 13be e763 63bd
00000390: 616e 40be 0a95 1ebd e24e 083e 83d8 0b3e
000003a0: 7c73 1fbc b56b df3d 5afd 81bd dc9f 85bd
000003b0: f8e6 94bd cbfc 15be 6127 7fbd 7ba9 adbd
000003c0: b337 543d 05ff 1abe 904f 76bd 7caf 2e3d
000003d0: 027f 0c3c 8f49 a2bd 0437 04be 6145 2dbe
000003e0: eb98 b2bd 7bde c03d 879c b23c 3c7e 3cbe
000003f0: 5dd1 8ebd 2f5c aebd a02f a7bd 42d2 99bd
