Parte II/TEC_AD_TP2/models/fcn_best_run_04_seed_44.pt (torch, 229038 bytes, 20 tensors)

fc1.weight f4 [256, 41]
0	0xbf26958d	-0.65071946
1	0x3e5084d5	0.20363171
2	0xbe0030a5	-0.12518556
3	0x3e84e97e	0.2595939
4	0xbe7a622b	-0.2445151
5	0x3d9cd074	0.07656947
6	0x3ba0b6e5	0.004904615
7	0x3cc512e3	0.024056857
8	0xbeabd9e7	-0.33564684
9	0xbe291f47	-0.16515838
10	0x3d56dccb	0.05245666
11	0xbe8acae1	-0.2710791
12	0x3dd6e2e3	0.10492494
13	0xbec11f11	-0.37719014
14	0xbdec4a4e	-0.1153761
15	0xbe86d240	-0.26332283
16	0xbe6111d7	-0.21979462
17	0x3d86da4a	0.06584604
18	0xbe421b3b	-0.189557
19	0x3eb58dbf	0.35459706
20	0xbbb34796	-0.00547118
21	0x3dea9621	0.11454416
22	0x3ec77572	0.3895679
23	0xbf0af219	-0.5427566
24	0xbf091272	-0.5354377
25	0xbe61e97d	-0.22061725
26	0xbe56ceac	-0.20977277
27	0x3e4ea7df	0.20181225
28	0xbdd49432	-0.103798285
29	0x3eb1d7ec	0.34735048
30	0xbe2de69e	-0.16982505
31	0xbe4f97a2	-0.20272687
32	0x3d8d1181	0.06888104
33	0xbec3f36d	-0.38271657
34	0x3ec6117e	0.3868522
35	0x3d03f515	0.03221615
36	0xbeeae699	-0.45879057
37	0xbecb6b1b	-0.39730152
38	0x3f0036a0	0.5008335
39	0x3e5e9745	0.21737392
40	0x3e00ffa4	0.12597519
41	0x3e2cd099	0.16876449
42	0x3e8f7a49	0.28022984
43	0xbebbf510	-0.36710405
44	0x3d8bfb51	0.06835044
45	0x3f1fdc6c	0.6244571
46	0x3d80e0c2	0.06292869
47	0xbe7f4510	-0.24928689
48	0xbeb15a13	-0.34639034
49	0x3907af0b	0.00012939812
50	0xbf08ce3f	-0.53439707
51	0xbc9783a3	-0.018495386
52	0x3ca76c1d	0.020437295
53	0xbdc2e7fb	-0.09516903
54	0xbeb700ec	-0.3574289
55	0x3e4ee18f	0.20203231
56	0x3edebb18	0.43502116
57	0x3eabf2e5	0.3358375
58	0x3d8801f6	0.06640999
59	0x3ce60a80	0.028081179
60	0xbe3c644e	-0.18397638
61	0x3eaa58eb	0.33270964
62	0xbe3b32fd	-0.18281169
63	0x3e1e0dd1	0.15434958
64	0x3e3b775d	0.18307252
65	0xbd4568bb	-0.048195582
66	0x3eb61c93	0.35568675
67	0xbd232153	-0.039826702
68	0x3e69e03e	0.22839448
69	0xbe06996a	-0.1314446
70	0xbb473e6d	-0.00304022
71	0x3df0af48	0.11752182
72	0xbde32451	-0.11090911
73	0x3dc1d261	0.09463955
74	0xbb4dfb28	-0.0031430218
75	0xbe11fa3a	-0.1425561
76	0xbeaa1d9c	-0.33225715
77	0xbe38a9a5	-0.18033464
78	0x3ea86fb3	0.3289772
79	0xbb19466f	-0.002338793
80	0xbe4f3c47	-0.20237838
81	0x3d9a2e9e	0.07528423
82	0x3d978f33	0.0740036
83	0xbe60e5e2	-0.21962693
84	0xbdbf79c0	-0.09349394
85	0xbe256793	-0.16152792
86	0xbeb1eb8a	-0.34750015
87	0xbe436356	-0.19080862
88	0x3e80daed	0.25167027
89	0xbe821e6f	-0.25413844
90	0xbea49c0d	-0.32150307
91	0xbe41f39c	-0.18940586
92	0xbd8ad6ba	-0.06779237
93	0x3dfa9f31	0.122373946
94	0x3c86146c	0.01636716
95	0xbe57e7d1	-0.21084525
96	0x3deae207	0.114688925
97	0x3ed9daa7	0.4254963
98	0x3e21339b	0.15742342
99	0x3e9c767e	0.30559152
100	0x3d9b3abf	0.07579564
101	0xbdf5845f	-0.119881384
102	0xbf062220	-0.5239582
103	0x3ea8de2a	0.32981998
104	0x3ad86480	0.0016509444
105	0x3e8a6853	0.27032718
106	0xbe28c696	-0.16482005
107	0x3ecb6c91	0.39731267
108	0x3e62e364	0.22157055
109	0x3d42fde8	0.047605425
110	0xbe994b1b	-0.29940113
111	0x3ef6db60	0.48214245
112	0x3c53e158	0.012932144
113	0x3ec42a05	0.38313308
114	0x3ee11966	0.4396469
115	0x3c5e108d	0.013553751
116	0xbde5ec2a	-0.11226685
117	0xbe91bc13	-0.28463802
118	0xbd910280	-0.07080555
119	0x3db662e8	0.089055836
120	0xbe5fb677	-0.21846949
121	0x3d05db61	0.03267992
122	0xbc7d8934	-0.015474606
123	0x3eae6ef2	0.3406902
124	0xbd95a437	-0.07306712
125	0xbd8d4586	-0.06898026
126	0xbebb134d	-0.36538163
127	0xbef69411	-0.4815984
128	0x3e85a969	0.26105812
129	0x3eb5bd12	0.35495812
130	0x3e2507eb	0.16116302
131	0x3d9593e1	0.07303596
132	0xbd0619a5	-0.0327393
133	0x3d160a90	0.036631167
134	0x3e93607d	0.28784552
135	0xbd262ac4	-0.04056813
136	0xbe61ad6d	-0.22038813
137	0x3d829082	0.06375219
138	0x3ed298f5	0.41132322
139	0xbe3c9640	-0.18416691
140	0x3e74b591	0.23897387
141	0xbd6760b7	-0.05648872
142	0x3df32190	0.11871636
143	0xbe7afeb0	-0.24511218
144	0x3d8edd3a	0.06975789
145	0xbd8a4c5a	-0.06752844
146	0x3ef71dc7	0.48264906
147	0x3e4380f5	0.19092162
148	0xbe12cdb8	-0.14336288
149	0xbeac0442	-0.33596998
150	0x3eee8937	0.46589062
151	0x3e2fcd73	0.17168216
152	0x3cad8817	0.021183057
153	0x3eaf7627	0.3426983
154	0xbd978f47	-0.07400375
155	0xbdbf9031	-0.09353674
156	0x3eaa8b47	0.33309385
157	0xbe134475	-0.14381583
158	0x3e08e3f5	0.13368209
159	0x3ead8b73	0.33895454
160	0xbe0df2df	-0.13862179
161	0xbf398a3c	-0.72476554
162	0xbe4978b0	-0.19674945
163	0xbda51dc5	-0.08062319
164	0xbe68e12f	-0.2274215
165	0xbe44b307	-0.19208919
166	0xbea222b3	-0.31667098
167	0xbea2426a	-0.31691295
168	0x3f18deb3	0.5971481
169	0xbea80e61	-0.3282347
170	0xbe10d1f5	-0.14142592
171	0x3e52c179	0.20581616
172	0xbec3de70	-0.38255644
173	0xbeb4308a	-0.35193282
174	0x3e184f4d	0.14874001
175	0xbca707c7	-0.02038945
176	0xbe079785	-0.13241394
177	0xbedb4adb	-0.42830548
178	0xbd866f24	-0.06564167
179	0x3e917292	0.28407723
180	0x3e833d43	0.25632676
181	0xbe352e3a	-0.17693415
182	0xbee098b1	-0.43866494
183	0x3ec9ee2c	0.39439523
184	0xbddbd778	-0.10734457
185	0x3e2369a6	0.1595827
186	0x3eb5bf0f	0.3549733
187	0xbdb0185c	-0.08598396
188	0x3cf89ec1	0.030349137
189	0x3af16ef3	0.0018419906
190	0x3e8ee3a6	0.27908057
191	0xbe5e8742	-0.21731284
192	0xbe00db6f	-0.12583707
193	0xbdbe208e	-0.09283553
194	0x3d9e99aa	0.07744153
195	0x3ea92b5d	0.33040896
196	0xbd74855e	-0.0596975
197	0xbe86d626	-0.26335257
198	0x3bc8b50a	0.006125097
199	0x3ec7e656	0.3904292
200	0x3e82e350	0.2556405
201	0x3d186e55	0.037214596
202	0x3d92fc09	0.07176978
203	0x3e22e216	0.15906557
204	0x3dc02130	0.0938133
205	0x3d9aeb06	0.075643584
206	0x3ec4a233	0.38404998
207	0xbe47f81f	-0.19528244
208	0xbd82fbfc	-0.063957185
209	0xbeff8949	-0.49909428
210	0x3e2778b6	0.16354641
211	0xbe6964bf	-0.22792338
212	0x3e0c11f4	0.13678724
213	0xbd863a82	-0.06554128
214	0xbe623821	-0.22091724
215	0xbe810a2f	-0.25203082
216	0xbe6d42ef	-0.23170064
217	0x3e28cc6a	0.16484228
218	0x3cd07edb	0.025451114
219	0x3e40678f	0.18789504
220	0x3e1f954e	0.15584299
221	0xbd5e4ab8	-0.054270476
222	0x3e258b10	0.1616633
223	0x3d33efab	0.043929737
224	0xbe69b19b	-0.22821657
225	0x3d9ffdfb	0.07812115
226	0xbe23dc65	-0.16002043
227	0x3e805a91	0.25069097
228	0x3e874d1b	0.26426014
229	0xbe3b1800	-0.18270874
230	0x3e45a77d	0.19302173
231	0xbdf31d94	-0.11870876
232	0x3e45f2af	0.19330858
233	0xbdb3e068	-0.087830365
234	0x3f14e00b	0.5815436
235	0x3e18b5a9	0.14913048
236	0xbb8ac07d	-0.004234372
237	0xbeabc903	-0.33551797
238	0x3f004ab3	0.5011398
239	0xbe7b0bab	-0.2451617
240	0x3eafc3bb	0.34329018
241	0x3c4abca6	0.012374079
242	0x3e510ad5	0.20414288
243	0xbf1a6ca1	-0.60322005
244	0x3debdb7f	0.11516475
245	0xbd8c2202	-0.06842424
246	0x3e158b32	0.1460388
247	0x3eb3d390	0.35122347
248	0xbe18e71f	-0.14931916
249	0x3e15812e	0.1460006
250	0x3eb82829	0.3596814
251	0xbe849380	-0.25893784
252	0x3e1fdc2f	0.15611337
253	0x3e013865	0.12619169
254	0xbe81e94d	-0.25373307
255	0x3cd7952e	0.026316252

fc1.bias f4 [256]
0	0x3bf35a25	0.0074265175
1	0x3c098ff1	0.008396135
2	0x3cc0963d	0.02350914
3	0xbc4ea719	-0.012613081
4	0xbc17ba94	-0.009260792
5	0xbb1b03aa	-0.0023653307
6	0xbccaec12	-0.02477077
7	0xbc56f4f4	-0.013119925
8	0x3c95484f	0.018222956
9	0xbb87a8c2	-0.0041399905
10	0x3ca8055a	0.020510364
11	0xbbbb59ed	-0.005717507
12	0x3c8c63ee	0.017137494
13	0x3c383006	0.011241918
14	0x3af3f400	0.0018612146
15	0x3acc7d59	0.0015601321
16	0x3afba3d7	0.0019198608
17	0x3bff8a71	0.007798486
18	0x3d042018	0.03225717
19	0xbc0c841b	-0.008576418
20	0xbbdbc4fa	-0.006706831
21	0xbbf42ffd	-0.0074520097
22	0xbb4b8399	-0.003105378
23	0x3c23595c	0.009970035
24	0x3c1fe617	0.009759448
25	0x3c3d57a5	0.011556541
26	0x3c975cb0	0.018476814
27	0x3b8fa775	0.004383976
28	0xbd315b19	-0.043299768
29	0xbc5b9a89	-0.013403543
30	0xbb4976b1	-0.0030740912
31	0x3b4cc5b4	0.003124577
32	0xbc0fdebb	-0.00878113
33	0x3b132d57	0.0022457445
34	0xbc3c60df	-0.011497705
35	0x3c53056f	0.012879713
36	0x3c96f83d	0.018428916
37	0xbc341e7b	-0.010993595
38	0x3a87e5fd	0.0010368224
39	0x3d66471c	0.05622016
40	0xbbd02f23	-0.0063532754
41	0xbc988912	-0.018620048
42	0x3bff7485	0.0077958726
43	0x3c064a89	0.0081964815
44	0xbc5e7fe3	-0.013580295
45	0x3c0aca4b	0.008471082
46	0xbc539e8e	-0.01291622
47	0x3a46342c	0.0007560875
48	0xbbd15d58	-0.0063893013
49	0x3c214fe1	0.009845705
50	0x39c145a0	0.00036863703
51	0xba24d01a	-0.0006287113
52	0xbc01b9af	-0.007917806
53	0xba367454	-0.0006960083
54	0xbd0fe10f	-0.035126742
55	0xbada10ff	-0.0016637145
56	0x3c961d85	0.018324623
57	0xbd4e0b43	-0.05030371
58	0x3aecbb47	0.0018061184
59	0x3c6fe45b	0.0146418465
60	0xb99c6008	-0.00029826188
61	0x3b138dd5	0.0022514958
62	0x3beae594	0.007168481
63	0x3b10576b	0.0022024761
64	0xbada7fe9	-0.00166702
65	0xbab8dab7	-0.0014103268
66	0xbccdb51c	-0.025110774
67	0x3b9f0c59	0.004853767
68	0xbba43663	-0.005011366
69	0xbbd54599	-0.006508541
70	0x3b575fb9	0.0032863452
71	0x3be892b7	0.007097568
72	0xbafcc1f8	-0.0019283881
73	0xbc42c9f1	-0.011888967
74	0xbb927df3	-0.0044705807
75	0x3ca25eae	0.019820537
76	0xbbb0c86b	-0.0053949854
77	0xb8303ffa	-4.2021253e-05
78	0xbccad491	-0.024759563
79	0xbb9cd426	-0.0047860323
80	0xbb578ab5	-0.0032889072
81	0xbc1593a3	-0.009129438
82	0xbc1e7fde	-0.009674041
83	0x3a7d87bd	0.00096714107
84	0x3ba2e4fc	0.0049711447
85	0x3cf170db	0.029472759
86	0xbd07bded	-0.03314011
87	0x3c5c8896	0.013460299
88	0x3ad4290a	0.0016186547
89	0xbcbb685e	-0.022876915
90	0xbb37a80b	-0.0028023745
91	0x3ce98f6a	0.028510768
92	0xbd052dae	-0.032514267
93	0x3d0d6854	0.034523323
94	0xbd4e80d4	-0.05041583
95	0xbca670f8	-0.02031754
96	0xbb21c4ed	-0.0024684027
97	0x3a546463	0.0008102117
98	0xbbde6739	-0.0067872074
99	0xbc029de2	-0.0079722125
100	0x3be75df8	0.0070607625
101	0x3c8af2ed	0.01696154
102	0x3ad52041	0.0016260223
103	0xbad562ad	-0.0016280018
104	0xbc1108f5	-0.008852233
105	0xbc4f317a	-0.0126460735
106	0x3a9039b9	0.0011003531
107	0xbd18f2c4	-0.037340894
108	0xbb2893ad	-0.0025722787
109	0x3a992f0b	0.0011686994
110	0x3b2cee4a	0.0026387149
111	0xbaca216f	-0.0015421341
112	0x3c4583c4	0.012055341
113	0xbb496ae4	-0.0030733878
114	0xbc22990c	-0.0099241845
115	0xbc2803fb	-0.010254855
116	0xbd514dc4	-0.051099554
117	0x3be87a6d	0.0070946724
118	0xbb05944b	-0.002038258
119	0xbb770ac0	-0.0037695616
120	0xbc84e046	-0.016220223
121	0xbc7fce97	-0.01561322
122	0x3bb926c7	0.0056503746
123	0x3c0ec51b	0.008713986
124	0xbc6864db	-0.014184202
125	0xbac8f189	-0.0015330772
126	0xbc9df9bd	-0.019284124
127	0xbc3be9cf	-0.0114693185
128	0x3b3b56f5	0.0028585766
129	0x3cf567fb	0.029956808
130	0xbb336469	-0.0027373082
131	0xbc7c50c8	-0.015400119
132	0x3c9c248b	0.019060394
133	0x3b559105	0.003258766
134	0xbbbd302f	-0.005773566
135	0x3c9cf01f	0.019157467
136	0xbd07e041	-0.03317285
137	0xbc2a8979	-0.010408753
138	0x3becb7ba	0.0072240504
139	0x3c91785e	0.01775759
140	0xbd02ccdb	-0.031933647
141	0xbc6f6353	-0.014611083
142	0xbc86ceaa	-0.016455967
143	0x3c1e58b8	0.009664707
144	0xbbb0e723	-0.0053986474
145	0x3ae60f69	0.00175522
146	0x3cf8d23b	0.030373683
147	0xbcf63bfb	-0.030057898
148	0x3bb4f315	0.0055221417
149	0x3c8183b6	0.015809875
150	0x3c350043	0.011047426
151	0xbbc3bb7d	-0.005973278
152	0x3ac3159c	0.001488376
153	0xbac62b03	-0.001511902
154	0xbc948b20	-0.018132746
155	0xbc1a1418	-0.009404205
156	0xbb578aa1	-0.0032889026
157	0x3b7d4c44	0.0038650194
158	0x3ac01632	0.0014655052
159	0x3b707518	0.0036690887
160	0xbd31659b	-0.04330979
161	0xbc4bf975	-0.012449612
162	0x3ae60014	0.0017547631
163	0xbaa04a8c	-0.0012229248
164	0x3b96f434	0.004606748
165	0xbca744f8	-0.020418629
166	0x3c60cd74	0.013720859
167	0x3c9f524e	0.019448426
168	0xbcc4e846	-0.024036538
169	0xbb937d1e	-0.004500999
170	0x3c4f890e	0.012666954
171	0xbbdaa3f9	-0.006672379
172	0x3b4b2fdf	0.0031003875
173	0x3d0da09d	0.034577
174	0xbd581655	-0.052755672
175	0xbcd3be8a	-0.025847692
176	0x3bbd083c	0.005768804
177	0xbd266ad8	-0.040629238
178	0xbca0979b	-0.019603541
179	0x3b03a661	0.0020088183
180	0xb6968414	-4.4857243e-06
181	0xb9e33198	-0.00043333764
182	0x3a88d248	0.0010438645
183	0x3c04b80d	0.008100522
184	0xbd45909f	-0.048233625
185	0xbb958a0d	-0.004563576
186	0x3cc4a863	0.024006074
187	0xb9c12038	-0.00036835833
188	0x3caed85a	0.021343399
189	0x3c646293	0.013939518
190	0x3beb8199	0.00718708
191	0xbca62c8b	-0.020284912
192	0xbce6572c	-0.028117739
193	0xbbbeb822	-0.00582029
194	0x3b4ccfc8	0.0031251777
195	0x3c1a9d91	0.009436981
196	0x3c28009a	0.01025405
197	0xb9b34902	-0.00034195936
198	0x3c8b217d	0.016983742
199	0xbbbd9ab2	-0.0057862634
200	0xbc4e5e5d	-0.01259574
201	0x3c8d3f0b	0.017241975
202	0x3d02a523	0.031895768
203	0x3a968c34	0.0011485876
204	0xbb90de22	-0.0044210115
205	0xbc317c95	-0.010832925
206	0xbc8e5f0a	-0.017379303
207	0x3c2029b3	0.009775567
208	0xbaf519b5	-0.0018699678
209	0x3c1c143e	0.0095263105
210	0x3ac6ed33	0.0015176892
211	0xbb98962e	-0.0046565747
212	0x3923f9eb	0.00015637993
213	0xbbe93b98	-0.0071177
214	0xbc3b0b1b	-0.011416222
215	0x3c02f9a2	0.007994087
216	0xbc2c8773	-0.0105303405
217	0xbbee17be	-0.007266014
218	0x3b3bfbd8	0.0028684046
219	0x3cb62503	0.022234445
220	0x3bbe5f0b	0.00580967
221	0xbc2a52f5	-0.010395755
222	0xba6c20fe	-0.0009007602
223	0xbbdb8370	-0.006699018
224	0xbd062185	-0.03274681
225	0xbc173031	-0.009227798
226	0x3c81474f	0.015781073
227	0x3a0d8c1c	0.0005399601
228	0x39e2aaf2	0.00043233443
229	0x3b1ae5a5	0.0023635414
230	0x3c2bc68b	0.010484348
231	0xbb7f9281	-0.0038997235
232	0x398d093c	0.00026900496
233	0x3d0332e6	0.032030962
234	0x3c884abb	0.016637197
235	0xbc671f9a	-0.0141066555
236	0x3c1f7c6c	0.009734254
237	0xbbc36d25	-0.005963939
238	0xbd42ec91	-0.04758889
239	0x3c137a20	0.009001285
240	0x3bc2cf6d	0.0059451372
241	0xbbb8a62e	-0.0056350445
242	0xbc456845	-0.012048786
243	0xbc4d9991	-0.01254882
244	0xba859e3d	-0.0010194253
245	0x3bc8f5b5	0.006132806
246	0xbd994c51	-0.07485259
247	0xbd0646cc	-0.03278236
248	0x3b79534d	0.0038044036
249	0x3c1b7808	0.009489067
250	0xbbc13ca6	-0.0058971224
251	0xb926322c	-0.00015849684
252	0x3cb3fa66	0.021969985
253	0x3b9479af	0.0045311074
254	0xbcbd3507	-0.023096574
255	0x3b9373e3	0.0044998988

fc2.weight f4 [128, 256]
0	0xbd6ad970	-0.05733627
1	0x3dc980e5	0.09839038
2	0x3dcb9370	0.09940231
3	0xbd755021	-0.05989087
4	0xbe118f8b	-0.14214914
5	0x3e58c11b	0.21167414
6	0x3d52e9ee	0.051492624
7	0xbe09f606	-0.13472757
8	0xbdb793d1	-0.089637406
9	0x3e663b12	0.22483471
10	0xbd86efb6	-0.0658869
11	0xbdd38176	-0.10327427
12	0x3ea19737	0.3156068
13	0xbdf08937	-0.11744922
14	0x3baa150a	0.0051904963
15	0xbda90202	-0.08252336
16	0x3dc2f043	0.095184825
17	0xbda223db	-0.07916995
18	0xbdeda00d	-0.11602793
19	0x3dd3c1d2	0.10339703
20	0x3dbcdac2	0.09221412
21	0xbdc1caf6	-0.0946254
22	0xbe098344	-0.1342898
23	0x3d763c89	0.060116325
24	0x3d4bd7b3	0.049766254
25	0xbe242880	-0.16031075
26	0xbda8dbce	-0.082450494
27	0x3ddb278b	0.107009016
28	0x3dcea7c9	0.10090596
29	0x3e29d5bb	0.16585438
30	0xbd0df0b3	-0.034653377
31	0xbc0a60a0	-0.008445889
32	0x3ddd0c60	0.10793376
33	0xbd3ae28c	-0.04562621
34	0x3ddc2728	0.10749656
35	0x3d50ca29	0.050974045
36	0x3e5e34f5	0.21699889
37	0xbdac63ae	-0.0841745
38	0x3d8f69ba	0.070025876
39	0x3e20d7d2	0.15707329
40	0x3cb1b6e4	0.021693654
41	0x3d4c04dd	0.049809325
42	0xbe25e417	-0.1620029
43	0xbe503161	-0.20331337
44	0xb9c55f9f	-0.0003764601
45	0x3d4f399d	0.050592054
46	0xbe3c9e3c	-0.18419737
47	0xbcec8641	-0.028872611
48	0xbd9d0948	-0.07667786
49	0x3e131233	0.14362411
50	0x3e1a3681	0.15059854
51	0x3d3d0fe4	0.046157733
52	0x3e42bafd	0.19016643
53	0xbe269c76	-0.16270623
54	0xbe173c48	-0.14769089
55	0x3d82d06a	0.06387408
56	0xbe5298c1	-0.20566083
57	0x3ec0937a	0.37612516
58	0xbd3626d1	-0.044470612
59	0x3c1c1c30	0.009528205
60	0xbd9db268	-0.07700044
61	0x3e0c7808	0.13717663
62	0xbd12fb88	-0.03588441
63	0x3db8b8a4	0.090195924
64	0x3cebbcf4	0.028776623
65	0x3c55aa9b	0.013041164
66	0xbe23ff3d	-0.16015334
67	0x3dc8527f	0.0978136
68	0x3d0f68ee	0.035012178
69	0xbdc76f8a	-0.09738071
70	0xbca5c6c3	-0.020236379
71	0x3e250cd5	0.16118176
72	0x3e340a60	0.17582083
73	0xbd093dd9	-0.03350625
74	0xbd3c2b74	-0.045939878
75	0xbd8801e8	-0.066409886
76	0xbcb35e58	-0.021895573
77	0x3e162e94	0.14666206
78	0xbc1662b0	-0.009178802
79	0x3d839c66	0.06426315
80	0xbd91a267	-0.07111054
81	0x3da5de1d	0.08099005
82	0xbde8aec1	-0.11361457
83	0x3da2f5b0	0.079570174
84	0x3d661869	0.056175623
85	0x3e6bc964	0.23026043
86	0xbd2aacc1	-0.041668657
87	0x3dd7f661	0.1054504
88	0x3e128ab2	0.1431072
89	0x3d401346	0.04689338
90	0x3e33226c	0.174936
91	0x3e642fe2	0.22283891
92	0xbe3bda65	-0.1834503
93	0xbc4eac38	-0.012614302
94	0xbde52da6	-0.111903474
95	0x3df6c345	0.120489635
96	0x3d71b86f	0.05901378
97	0x3e11460d	0.14186879
98	0x3c7b223d	0.015327987
99	0x3d9bc36c	0.07605633
100	0xbde094f8	-0.109659135
101	0x3e4455ad	0.19173308
102	0x3b38220d	0.0028096468
103	0x3dfc26c0	0.123120785
104	0xbca8834b	-0.020570418
105	0xbd95a723	-0.073072694
106	0xbc533139	-0.012890154
107	0xbda9af24	-0.082853585
108	0x3cc2d126	0.02378137
109	0xbd009a10	-0.031396925
110	0xbdbddd1e	-0.092706904
111	0x3e237f82	0.15966609
112	0xbc7a127e	-0.015263198
113	0xbe12a669	-0.14321293
114	0xbd618ee7	-0.055067923
115	0xbb9d8a51	-0.0048077484
116	0x3b70c7c1	0.0036740156
117	0xbd946d0c	-0.072473615
118	0xbddb006e	-0.10693441
119	0x3d3c7e1a	0.046018697
120	0x3db2e887	0.08735757
121	0xbe1f1788	-0.1553632
122	0x3d58c216	0.05291947
123	0xbe14775b	-0.14498655
124	0xbe141b62	-0.1446357
125	0x3d6e8297	0.05823001
126	0x3e422c6a	0.18962255
127	0xbe07f367	-0.13276444
128	0x3e049a1f	0.12949418
129	0x3dc16c48	0.09444481
130	0xbe2d1fd5	-0.16906674
131	0x3d211adf	0.039332267
132	0xbe2b1227	-0.16706143
133	0x3ce74535	0.028231243
134	0x3c970aae	0.01843771
135	0x3d6e04c4	0.058110014
136	0x3d619569	0.05507413
137	0x3d8a6888	0.06758219
138	0xbe1f1f75	-0.15539344
139	0x3dca5ac0	0.098805904
140	0x3dc1e127	0.094667725
141	0x3d80e14e	0.062929735
142	0xbda34500	-0.07972145
143	0xbd78334b	-0.06059579
144	0x3d9cb64d	0.076519586
145	0x3cc8c887	0.024509681
146	0xbdfe4fd7	-0.12417572
147	0x3dcffe35	0.10155908
148	0x3de571b3	0.11203327
149	0xbe207656	-0.15670142
150	0x3e413c91	0.1887076
151	0xbcad84be	-0.02118146
152	0x3d2f71c1	0.042833094
153	0xbdc59e5c	-0.09649345
154	0x3e46f36b	0.19428794
155	0xbd941fcb	-0.072326265
156	0xbde93455	-0.11386935
157	0xbe0b1135	-0.13580783
158	0x3dd35ab4	0.103200346
159	0x3d5ce382	0.053927906
160	0xbd4a86ce	-0.049444966
161	0xbdab014d	-0.083498575
162	0xbd748a7f	-0.059702393
163	0x3d544fe7	0.051834013
164	0xbd3b481f	-0.045723077
165	0xbd25318f	-0.040330466
166	0x3c921e5f	0.017836748
167	0xbd02cc2e	-0.031933002
168	0x3d1805e6	0.037115
169	0xbe0b6fd8	-0.13616884
170	0xbdbddfa2	-0.0927117
171	0x3d8948e2	0.067033544
172	0xbdb31dc3	-0.08745911
173	0x3babbfbc	0.0052413624
174	0x3c4f0630	0.012635753
175	0xbcb7d377	-0.022439701
176	0xbd5266e8	-0.05136767
177	0x3deb2124	0.114809304
178	0xbe6d7bc7	-0.23191749
179	0x3d50439f	0.05084574
180	0xbcb66f5b	-0.022269895
181	0x3c068b10	0.008211866
182	0x3d421ab9	0.047388766
183	0x3e3c0020	0.18359423
184	0x3dd2e560	0.10297656
185	0x3d99d94b	0.075121485
186	0x3cc853da	0.024454046
187	0xbd2452d2	-0.040118046
188	0x3de835b7	0.1133837
189	0xbe0f9cca	-0.14024654
190	0xbd6c6668	-0.05771485
191	0xbd86ce9d	-0.06582377
192	0xbd81ba53	-0.06334367
193	0x3e74c318	0.23902547
194	0x3e1aa842	0.15103248
195	0x3dc0829c	0.09399912
196	0xbdb2b2b1	-0.08725489
197	0x3c8f0aa6	0.017461132
198	0xbd7f62e8	-0.062350184
199	0x3db0e01c	0.086364955
200	0xbdf2bcfb	-0.118524514
201	0x3dcf57ad	0.10124145
202	0xbdd91ff1	-0.106017955
203	0x3cb3f200	0.02196598
204	0x3e09260e	0.13393423
205	0x3e362012	0.17785671
206	0x3e22725c	0.15863937
207	0xbe077529	-0.13228287
208	0xbd21aeb1	-0.03947324
209	0x3df41f4c	0.11920032
210	0xbcd6a0e3	-0.026199764
211	0x3e1dbe02	0.15404513
212	0xbe13ad1b	-0.14421503
213	0xbc6d99ad	-0.014501971
214	0x3daed668	0.085369885
215	0x3df7a752	0.12092461
216	0x3e13e01b	0.14440958
217	0x3da7f32f	0.082006805
218	0xbc15e9ce	-0.009149982
219	0xbbd33b90	-0.0064463094
220	0x3d60f666	0.054922484
221	0xbd1d96d6	-0.038473926
222	0x3d03a476	0.032139264
223	0x3cbfcc0c	0.023412727
224	0x3c74d27e	0.014942763
225	0xbc259050	-0.010105208
226	0x3d8b778e	0.068099126
227	0xbe2363f1	-0.15956093
228	0xbe6a1842	-0.22860816
229	0x3e1531e1	0.14569809
230	0x3c2e935a	0.010655249
231	0xbcd84aee	-0.026402917
232	0xbd71f72f	-0.059073623
233	0x3e5304c9	0.20607294
234	0xbdaae6d3	-0.083448075
235	0x3c7b9177	0.015354506
236	0x3e5170d5	0.20453198
237	0x3e8229af	0.25422427
238	0xbc0734a7	-0.008252299
239	0x3d3cdd10	0.04610926
240	0x3cc811bd	0.02442252
241	0xbd32c8f0	-0.04364866
242	0x3bb2f87a	0.0054617496
243	0xbdcf73f9	-0.10129542
244	0x3d185f5d	0.03720032
245	0xbdfefb5b	-0.12450286
246	0x3dfba696	0.12287633
247	0x3dab05fc	0.08350751
248	0x3e273408	0.16328442
249	0x3ceec7fe	0.029148098
250	0xbcd0fe26	-0.025511812
251	0xbd261957	-0.04055151
252	0xbc83ff59	-0.01611297
253	0x3d449cbc	0.048001036
254	0xbe015a22	-0.12632039
255	0xbcf64aa7	-0.030064894

fc2.bias f4 [128]
0	0xbba9c5a8	-0.005181033
1	0xbc954346	-0.018220555
2	0xbc911b6f	-0.017713277
3	0x3b52ea53	0.0032183125
4	0x3c9957c8	0.018718615
5	0xbcbf97e2	-0.023387853
6	0x3c4b9994	0.012426753
7	0x3a611dcf	0.00085875107
8	0x3b313264	0.0027038092
9	0xbd16232a	-0.03665463
10	0x3c50d107	0.0127451485
11	0xbcf22a92	-0.029561315
12	0xbd5cba21	-0.053888444
13	0x3c1b8b19	0.009493613
14	0xbc5a8dcb	-0.01333947
15	0x3c472e9a	0.012157107
16	0xbc944640	-0.018099904
17	0x3c175ae0	0.009237975
18	0xbd440eaa	-0.047865547
19	0x3b69dc5a	0.0035684318
20	0xbc8bd72b	-0.017070374
21	0xbb2728a0	-0.0025506392
22	0xbc8332e1	-0.016015472
23	0x3c28e75c	0.010309067
24	0xbb82c662	-0.003990934
25	0xbb91a140	-0.0044442713
26	0x3ab75a47	0.0013988697
27	0xbafaed78	-0.0019144258
28	0x3ce69e18	0.028151557
29	0xbc120f63	-0.008914801
30	0x3aa58c0b	0.0012630237
31	0xbc23be39	-0.009994083
32	0x3c8d6178	0.01725839
33	0xbccb901d	-0.024848992
34	0x3bbedbe9	0.005824555
35	0x3c21dea5	0.009879743
36	0xbbbdb296	-0.0057891114
37	0xbad899d8	-0.0016525341
38	0x3c055f77	0.008140436
39	0x3b684aad	0.00354449
40	0x3bce74e9	0.006300558
41	0xbc8af083	-0.016960388
42	0xbce87f7b	-0.0283811
43	0x3b5e176d	0.0033888475
44	0xbd5fc3e6	-0.054630183
45	0xbd2730d7	-0.04081806
46	0xbd4e58ab	-0.05037753
47	0xbb29dde3	-0.0025919608
48	0x3c9135d6	0.017725866
49	0xb99cda90	-0.0002991748
50	0x3c9e951f	0.019358216
51	0xbc29546b	-0.010335068
52	0x3c1ba62b	0.009500067
53	0xbca0fb30	-0.019651026
54	0x3c0db81a	0.00864985
55	0xbb152cca	-0.0022762292
56	0x3a37f62f	0.000701758
57	0xbb4fbf71	-0.0031699801
58	0xbccd33a2	-0.025049035
59	0xbc720f4d	-0.014774156
60	0x3d6440d1	0.055725876
61	0xbcf41926	-0.029797148
62	0xbc3bf66c	-0.011472326
63	0x3cd5da38	0.026105031
64	0x3bd94dad	0.006631574
65	0x3c66d493	0.014088768
66	0xbc12688b	-0.008936058
67	0xbc9ae4c3	-0.01890791
68	0xbc25de5c	-0.010123815
69	0xbcaf241a	-0.02137952
70	0xbc13b02f	-0.009014173
71	0xbc4bbc7c	-0.012435075
72	0xbb4c1d9d	-0.003114558
73	0x3c873925	0.01650674
74	0x3d0a8296	0.033815943
75	0x3d13671e	0.035987012
76	0xb83039a0	-4.2015337e-05
77	0xbd4ca88f	-0.049965438
78	0xbc6c6877	-0.014429203
79	0xbbdff929	-0.006835122
80	0x3b194792	0.0023388606
81	0x39ff27b6	0.00048666977
82	0x3cf4b6d6	0.02987234
83	0x3c043f62	0.008071752
84	0x3bde8fe0	0.0067920536
85	0x3c83eebe	0.016105052
86	0x3c3aa6c2	0.011392297
87	0x3c49ecea	0.012324551
88	0x3c46c205	0.012131219
89	0xbac2aed5	-0.0014853129
90	0x3b60aee8	0.003428394
91	0x3c010357	0.007874331
92	0x3c0c5dd1	0.008567289
93	0x3b77651d	0.0037749477
94	0x3c1fcf64	0.009754036
95	0x3cbeb1c3	0.023278123
96	0xbd1965ce	-0.037450604
97	0x3a85d619	0.0010210901
98	0x3901d4d7	0.00012381688
99	0x3cecc118	0.028900668
100	0xbc907049	-0.017631667
101	0x3c8bef7f	0.017081974
102	0xbb8d8268	-0.004318524
103	0x3b12a0c8	0.0022373665
104	0xbccebeb0	-0.025237411
105	0xba433ecc	-0.0007448017
106	0xbca00a81	-0.019536259
107	0x3cfc437a	0.030793894
108	0xbc087d33	-0.008330631
109	0xbc097b39	-0.008391195
110	0xbd4343fd	-0.04767226
111	0xbd3cd33d	-0.04609989
112	0x3cc88b4f	0.02448049
113	0xbc1f91fc	-0.009739395
114	0x3af747c4	0.0018865992
115	0x3aa5b89e	0.0012643521
116	0x3bb8d2c4	0.0056403596
117	0x3b222805	0.0024743092
118	0x3bd11b27	0.0063814106
119	0x3c4dc508	0.012559183
120	0x3c4171c7	0.011806912
121	0xbcc361b9	-0.023850309
122	0xbccd216f	-0.025040356
123	0xba557c44	-0.0008143822
124	0xbba1f268	-0.004942227
125	0x3c83004d	0.015991354
126	0xbac63b5d	-0.0015123893
127	0x3a2983f3	0.00064665003

fc3.weight f4 [64, 128]
0	0x3d600141	0.054688696
1	0xbe2d7817	-0.16940342
2	0x3c459fbf	0.012062012
3	0xbce72c27	-0.028219296
4	0x3e172f9e	0.14764258
5	0xbda9644f	-0.082710855
6	0x3e1ada7b	0.15122406
7	0x3d4f2484	0.050571933
8	0xbd0e41d1	-0.034730736
9	0x3e69ec00	0.22843933
10	0xbe41f4f8	-0.18941104
11	0xbe011156	-0.1260427
12	0xbdc5bcce	-0.09655152
13	0xbd88ea1a	-0.06685276
14	0x3d39c165	0.04535045
15	0x3d8e9d4e	0.06963597
16	0x3e2761a6	0.16345844
17	0xbdc60bc4	-0.09670213
18	0x3e1494fd	0.1450996
19	0x3d9c7cb4	0.07640973
20	0xbde37261	-0.111058004
21	0x3e386463	0.18007044
22	0xbdd70a3f	-0.10500001
23	0x3e955e6e	0.29173607
24	0xbcd9f764	-0.026607223
25	0x3e816ff1	0.25280717
26	0x3db2e1a5	0.087344445
27	0xbc05a083	-0.008155945
28	0x3d7a13fe	0.061054222
29	0xbd18a5b9	-0.03726742
30	0xbe0edc99	-0.13951339
31	0x3e000dea	0.12505308
32	0x3e458508	0.19289029
33	0x3ded05bf	0.115733616
34	0x3df5f958	0.12010449
35	0xbe2ab5a1	-0.16670848
36	0xbe4509b7	-0.19241987
37	0x3e61ff70	0.22070098
38	0x3c9e69c1	0.019337537
39	0xbc928fbe	-0.017890807
40	0x3e99651b	0.2995995
41	0x39db3b8e	0.00041815307
42	0xbd541c10	-0.051784575
43	0x3ddc519b	0.107577525
44	0x3d8fd5eb	0.070232235
45	0x3d2bdb61	0.041957263
46	0x3de0d56f	0.10978209
47	0xbe066f0d	-0.131283
48	0x3db651d2	0.08902325
49	0x3e3a9db0	0.18224216
50	0x3e0a6f9f	0.13519143
51	0x3df4b40c	0.11948404
52	0x3e52d594	0.20589286
53	0xbe506b91	-0.20353533
54	0xbdcff557	-0.10154217
55	0xbce78ba8	-0.028264835
56	0x3d1eea32	0.038797565
57	0xbe89fc8c	-0.2695049
58	0x3d5cf4ed	0.053944517
59	0x3e78feb6	0.24315915
60	0x3dbec3f1	0.093147166
61	0x3d9f2fa5	0.07772759
62	0x3d8b1242	0.06790592
63	0x3bcfd9de	0.0063431105
64	0x3e80555d	0.25065127
65	0x3e39bc43	0.18138222
66	0x3e589aef	0.21152852
67	0xbdccae05	-0.09994129
68	0xbc48d19e	-0.012257008
69	0x3d56eb4c	0.05247049
70	0xbe814872	-0.25250584
71	0xbc827664	-0.015925594
72	0x3e4e7a38	0.2016381
73	0xbdc88fe2	-0.097930685
74	0x3dc879f4	0.09788886
75	0xbe79bcf0	-0.2438848
76	0xbd83e19b	-0.06439515
77	0xbe24b57b	-0.16084854
78	0x3d918831	0.071060546
79	0x3dc54bee	0.09633623
80	0xbdddd547	-0.10831695
81	0x3e643e65	0.22289427
82	0x3c52d6a6	0.012868559
83	0xbdeb87fc	-0.11500546
84	0xbe1a978b	-0.15096872
85	0x3d84e1ed	0.064884044
86	0x3dfab469	0.12241442
87	0x3e0cbb5e	0.1374335
88	0xbdf34638	-0.118786275
89	0xbe2e8692	-0.17043522
90	0x3e66b11b	0.22528498
91	0x3e1dd5bb	0.15413563
92	0x3d966c45	0.073448695
93	0xbd0c10d8	-0.03419575
94	0x3e33f850	0.17575192
95	0x3d8a95a0	0.0676682
96	0xbd6f9c15	-0.05849846
97	0xbcc8a238	-0.024491414
98	0xbdd9ef7d	-0.10641382
99	0x3e06a5c1	0.13149168
100	0xbe682c49	-0.22673143
101	0x3e40b81e	0.18820235
102	0x3c5664b0	0.013085529
103	0x3d0a0384	0.03369476
104	0xbd7bdd22	-0.061490186
105	0x3e5e6f95	0.21722253
106	0xbd1bce6d	-0.03803866
107	0x3d1b1105	0.037858028
108	0x3e379205	0.17926796
109	0xbdcd72ed	-0.10031686
110	0x3e32bb5b	0.17454283
111	0x3e79da5a	0.24399701
112	0x3d8e2170	0.069399714
113	0xbd1b1931	-0.03786582
114	0x3d825416	0.06363694
115	0x3dc63360	0.09677768
116	0xbe24d336	-0.16096196
117	0xbd68d6ed	-0.056845594
118	0xbe1c5636	-0.15267262
119	0x3dc0580a	0.09391792
120	0x3d3aa2ae	0.0455653
121	0x3dbedec8	0.09319836
122	0xbd9adea4	-0.075619966
123	0x3e11f226	0.14252529
124	0x3e29243a	0.16517726
125	0x3e02a499	0.12758102
126	0xbd226c6a	-0.039654173
127	0xba9f5193	-0.0012155048
128	0x3c0a789e	0.008451609
129	0xbe74faf6	-0.23923859
130	0xbe74ba2d	-0.23899145
131	0x3e3b5e1e	0.18297622
132	0xbc490f25	-0.012271677
133	0xbe64ee65	-0.22356565
134	0x3ded008e	0.115723714
135	0x3d0b045d	0.033939708
136	0xbddbe871	-0.10737694
137	0xbdd0e32c	-0.101995796
138	0xbd29267c	-0.041296467
139	0x3e413178	0.18866527
140	0xbe0502a8	-0.12989295
141	0xbe2ba9d3	-0.16764002
142	0x3cf2878a	0.029605646
143	0x3df7a3d0	0.12091792
144	0xbe6abbff	-0.22923277
145	0x3e4164cb	0.18886106
146	0xbdb03248	-0.086033404
147	0x3cd6ba74	0.026211955
148	0x3de05cff	0.109552376
149	0x3e4930de	0.19647548
150	0x3dc0ac96	0.09407918
151	0x3e1d6df8	0.15373981
152	0x3e4c1538	0.1992997
153	0xbd108037	-0.035278525
154	0x3e3ebe15	0.18627198
155	0x3e396103	0.18103413
156	0x3e01d6cd	0.12679596
157	0x3cc941f1	0.024567576
158	0x3d9c0a47	0.07619148
159	0xbe8d0f67	-0.27550814
160	0xbe0d39fc	-0.1379165
161	0x3db41502	0.087930694
162	0xbe114132	-0.14185026
163	0xbd60d416	-0.05488976
164	0x3d19fca5	0.037594456
165	0xbc31029a	-0.010803843
166	0x3d9f8c97	0.07790487
167	0xbdc71993	-0.09721675
168	0x3e1bf43c	0.15229887
169	0x3d4ea7fd	0.050453175
170	0x3df1e3a8	0.11811
171	0x3e0eaa2e	0.13932106
172	0xbcc1a7cb	-0.02363958
173	0xbdfe821c	-0.1242716
174	0xbe89c153	-0.26905307
175	0xbd6a448c	-0.057194278
176	0xbd7a2b4c	-0.061076447
177	0x3e60211c	0.2188763
178	0xbddc5d5f	-0.107599966
179	0xbd621197	-0.055192556
180	0x3e566d63	0.20940165
181	0xbe5bd0ef	-0.2146642
182	0xbe1342b2	-0.14380911
183	0x3e4bfaa3	0.19919829
184	0x3dbe8b54	0.093039185
185	0xbea8c4a5	-0.32962528
186	0x3e7742d8	0.24146593
187	0xbdea1f23	-0.1143172
188	0xbd4cbd23	-0.049985062
189	0xbc971d35	-0.018446544
190	0x3d8ce942	0.06880428
191	0xbe93c56c	-0.28861558
192	0xbe810797	-0.25201103
193	0xbd5323fa	-0.05154798
194	0x3dd840c1	0.10559226
195	0x3e2182bb	0.15772526
196	0xbec0a18b	-0.37623248
197	0xbddc44e7	-0.107553296
198	0xbe2342ec	-0.15943497
199	0xbdf2f50d	-0.11863146
200	0x3beb1b36	0.0071748747
201	0x3d2347e6	0.03986349
202	0x3e07f687	0.13277636
203	0xbe2a38ae	-0.16623184
204	0xbe60fae6	-0.2197071
205	0xbdf04c24	-0.11733273
206	0x3cff3569	0.031153398
207	0xbe5bfc96	-0.21483073
208	0xb8d9f32b	-0.0001039266
209	0xbe1162fa	-0.14197913
210	0x3e01da99	0.12681045
211	0x3cc091cf	0.023507027
212	0x3e40da11	0.18833186
213	0x3d705fff	0.0586853
214	0xbd57c43e	-0.052677386
215	0xbe55d023	-0.20880179
216	0x3d514b1f	0.05109703
217	0xbe435958	-0.1907705
218	0x3d220c4c	0.03956251
219	0x3e330d19	0.17485465
220	0x3e4d18b9	0.20028962
221	0xbdb5f38d	-0.08884344
222	0xbcdba155	-0.026810328
223	0xbe85053e	-0.25980562
224	0xbd34bcd7	-0.044125404
225	0x3e6a2b30	0.22868037
226	0xbe8cf665	-0.27531734
227	0x3e18b77a	0.14913741
228	0xbe8feea1	-0.28111747
229	0xbcf99c09	-0.030469911
230	0x3d4c5ae7	0.04989138
231	0xbdb7f884	-0.089829475
232	0xbd33ba27	-0.0438787
233	0xbe3dc211	-0.18531062
234	0xbdf157d1	-0.11784328
235	0xbe6b4a1f	-0.22977494
236	0xbd7aaa24	-0.061197415
237	0x3cd276d5	0.02569143
238	0xbe1a3ccd	-0.15062256
239	0xbd0640a8	-0.032776505
240	0x3de533ae	0.11191498
241	0x3d695e3e	0.056974642
242	0xbe82507e	-0.25452036
243	0xbe31f94a	-0.17380252
244	0x3e423c81	0.18968393
245	0xbe317690	-0.17330384
246	0xbcd07e61	-0.025450887
247	0xbc004435	-0.007828762
248	0x3e2aa4f5	0.16664489
249	0x3c969a16	0.01838402
250	0xbda4a6c7	-0.08039623
251	0x3e819a74	0.2531315
252	0x3dcfc55a	0.10145064
253	0xbd7b0e7f	-0.06129312
254	0xbdbbf413	-0.09177413
255	0xbd87d02c	-0.066315025

fc3.bias f4 [64]
0	0x3c981a9f	0.018567381
1	0x3d91975f	0.0710895
2	0x3c86caf0	0.01645419
3	0x3d73f9b7	0.05956432
4	0x3c53e11f	0.012932091
5	0x3b92dc7c	0.00448185
6	0x3cc0b08e	0.023521688
7	0xbb32b23c	-0.002726688
8	0x3c1f39f6	0.009718409
9	0xbc8f3940	-0.017483354
10	0x3c9ec6b5	0.01938186
11	0x3d2cd793	0.042197775
12	0xbb9fb5a8	-0.00487395
13	0x3c69f7a9	0.014280238
14	0xbd183e51	-0.037168805
15	0x3cc4c4e0	0.024019659
16	0xbd58f54f	-0.05296832
17	0xbbc83012	-0.006109246
18	0xbb014c33	-0.0019729256
19	0xbc9d19a1	-0.01917726
20	0x3a180b9b	0.0005800069
21	0xbd1ba66c	-0.03800051
22	0x3d6e1209	0.05812267
23	0xbc1d7a51	-0.009611682
24	0xbc10b1dd	-0.008831468
25	0xbaaae387	-0.0013037779
26	0x3ba9e259	0.0051844534
27	0x3d0e3aee	0.03472417
28	0xbc3661f9	-0.011131757
29	0xbc27de75	-0.010245909
30	0x3d16bf8b	0.036803763
31	0x3c4c4906	0.012468582
32	0x3d13fb44	0.036128297
33	0x3bfb866b	0.007675936
34	0x3c0c4d1e	0.008563308
35	0x3b3b56b3	0.0028585612
36	0xbd38d9a6	-0.04512944
37	0xbb8aba99	-0.00423367
38	0xbd059615	-0.032613833
39	0x3d56fc3e	0.05248665
40	0x3c7cd20e	0.01543094
41	0xbced7ec4	-0.02899111
42	0xbcf43850	-0.029812008
43	0xbc348db9	-0.011020117
44	0x3bf027d3	0.007328966
45	0xbbf768fb	-0.0075503564
46	0xbd255f7c	-0.040374264
47	0x3d0f9367	0.035052683
48	0xbd13fa4f	-0.036127385
49	0x3708a7ee	8.145331e-06
50	0xbca7301a	-0.020408679
51	0xbb0905f5	-0.0020908092
52	0xbd088dec	-0.033338472
53	0x3ce5d55b	0.028055837
54	0xbb69edee	-0.0035694796
55	0x3ccfdf96	0.025375169
56	0xbc74a33d	-0.014931497
57	0x3cf33831	0.02968988
58	0xbae60771	-0.0017549825
59	0x3c15f553	0.009152728
60	0xbcfb4b3b	-0.030675521
61	0x3b24b9f9	0.0025135262
62	0xbc610249	-0.013733455
63	0xbd487a7a	-0.048944928

fc4.weight f4 [23, 64]
0	0xbf1a23db	-0.6021096
1	0xbf067d44	-0.5253489
2	0xbe0e2d7f	-0.13884543
3	0xbeefa279	-0.46803644
4	0xbf8f38e7	-1.118924
5	0xbe8d05c8	-0.27543473
6	0xbbf586ed	-0.007492891
7	0xbe631200	-0.22174835
8	0xbc723dbf	-0.014785229
9	0xbe82924a	-0.25502235
10	0x3e93ae4f	0.28843924
11	0xbf231888	-0.63709307
12	0x3f1899fd	0.5960997
13	0xbf129879	-0.57263905
14	0xbe56ac95	-0.20964272
15	0xbe98e179	-0.29859522
16	0x3e2ca348	0.16859162
17	0xbee0e8ba	-0.43927556
18	0xbf5fc112	-0.87403977
19	0x3f4f7d95	0.81051
20	0xbf45847e	-0.7715529
21	0x3ee2cbee	0.4429621
22	0xbf186d77	-0.5954203
23	0x3ed7b2d5	0.42128626
24	0xbf1dd2d7	-0.6164984
25	0xbca601a7	-0.02026446
26	0xbec8a430	-0.39187765
27	0xbe93d728	-0.2887509
28	0x3e3b62f3	0.18299465
29	0xbdf8c10d	-0.121461965
30	0x3f36c284	0.7139056
31	0xbe310257	-0.17286049
32	0xbe020df3	-0.12700634
33	0xbe2b458f	-0.16725753
34	0xbec21b0d	-0.37911263
35	0xbea8a61e	-0.32939237
36	0xbe756019	-0.2396244
37	0xbf137a5f	-0.576086
38	0xbf85b367	-1.0445374
39	0x3eea24fa	0.45731336
40	0x3ee8c96d	0.45466176
41	0x3f22ebef	0.63641256
42	0x3e894187	0.26807806
43	0xbd3e6c10	-0.046489775
44	0xbed3474f	-0.41265342
45	0xbe0c5367	-0.1370369
46	0xbec9f197	-0.3944213
47	0x3d3392c5	0.043841142
48	0xbf344a1a	-0.7042557
49	0x3eaf663b	0.34257683
50	0xbf0a312c	-0.5398128
51	0xbd801f7d	-0.06256006
52	0xbd1acb24	-0.037791386
53	0xbefb187c	-0.49042118
54	0xbe865df0	-0.26243544
55	0x3e893049	0.2679465
56	0xbe5a03eb	-0.21290557
57	0xbe92685a	-0.2859524
58	0xbe9b3b60	-0.30318737
59	0x3e85d6ef	0.26140544
60	0x3e3aa037	0.1822518
61	0xbe8cc0ec	-0.27490938
62	0xbec0b81b	-0.3764046
63	0xbecb8b94	-0.39754927
64	0xbd516d9c	-0.051129922
65	0xbdb79054	-0.08963075
66	0x3e11d90f	0.14242958
67	0xbe241b53	-0.16026048
68	0xbdc46eaa	-0.0959142
69	0xbd818945	-0.0632501
70	0x3e4bc8f7	0.19900881
71	0xbd5a2bd6	-0.05326446
72	0x3e94485b	0.28961453
73	0x3db1d0e3	0.0868242
74	0xbe823f5f	-0.25438973
75	0xbdd0c791	-0.10194314
76	0xbd4e8339	-0.050418112
77	0xbe602667	-0.2188965
78	0x3c31cb5f	0.01085171
79	0xbd6f3d7d	-0.05840825
80	0x3ddc8932	0.107683554
81	0xbe8d810b	-0.27637514
82	0x3db7f298	0.08981818
83	0xbebbb927	-0.36664698
84	0xbe8a12a8	-0.2696736
85	0x3cdb77bf	0.026790498
86	0xbeaaf863	-0.3339263
87	0xbce39f7b	-0.027786007
88	0xbba6b14e	-0.0050870543
89	0xbd977229	-0.07394821
90	0xbe80b76f	-0.2513995
91	0x3e9e28fb	0.3089064
92	0x3da6f769	0.081526585
93	0xbe14a87a	-0.14517394
94	0xbf0c0254	-0.5469105
95	0x3d274bc8	0.040843755
96	0xbe8cf86b	-0.27533278
97	0x3d3cc4c4	0.046086088
98	0xbe5dc0b7	-0.21655546
99	0x3dc333b5	0.09531347
100	0x3e51835d	0.20460267
101	0xbe058e57	-0.1304258
102	0x3d99800d	0.07495127
103	0xbe24c251	-0.16089751
104	0x3e2a5f37	0.16637884
105	0xbee21a88	-0.44160867
106	0x3d201583	0.039083015
107	0xbe415a62	-0.18882135
108	0x3e2d7bd8	0.16941774
109	0xbdae691e	-0.08516143
110	0x3e6ad985	0.2293454
111	0xbeac6a80	-0.33675003
112	0xbf2e1c84	-0.6801226
113	0xbe1e955f	-0.15486668
114	0xbda5bab8	-0.080922544
115	0x3e2e9a56	0.17051062
116	0xbdad4ead	-0.08462272
117	0xbe5fbcb8	-0.21849334
118	0xbeef86ca	-0.46782523
119	0x3e68f879	0.22751035
120	0x3b5a0897	0.003326928
121	0xbe1580e9	-0.14599957
122	0x3dd55b6b	0.10417827
123	0xbe58b331	-0.21162106
124	0x3e54cfef	0.20782445
125	0xbe827614	-0.2548071
126	0xbd9ea01b	-0.077453814
127	0x3e68b4be	0.22725198
128	0x3dced6f5	0.100995935
129	0x3e422145	0.18958004
130	0x3d5212d8	0.051287502
131	0x3e098221	0.13428546
132	0x3e036fda	0.12835637
133	0x3eac0387	0.3359644
134	0xbea5d7ae	-0.32391113
135	0xbea5287c	-0.3225745
136	0x3de4d0cb	0.111726366
137	0xbf02277f	-0.50841516
138	0xbe4700f6	-0.1943396
139	0x3eb7fc39	0.35934618
140	0xbf09b672	-0.53794014
141	0x3e9b464c	0.3032707
142	0xbf02a069	-0.51026016
143	0xbea41086	-0.32043856
144	0xbe6e3944	-0.23264033
145	0xbedcde7d	-0.43138495
146	0x3dcbea79	0.099568315
147	0xbf3deeea	-0.7419268
148	0x3e86c4ec	0.26322114
149	0xbf1757df	-0.59118456
150	0x3bc5d0c4	0.0060368497
151	0x3e35c4e4	0.17750889
152	0x3ea5b52a	0.3236478
153	0x3e5d90a5	0.21637209
154	0xbeb2a952	-0.34894806
155	0xbe862f74	-0.2620808
156	0xbe0e2b82	-0.13883784
157	0xbd01ee64	-0.031721488
158	0xbe38f520	-0.18062258
159	0xbf0481bd	-0.51760465
160	0x3e51aa0e	0.20475027
161	0x3ec901cd	0.39259186
162	0x3ee32782	0.4436608
163	0xbe89cf3f	-0.2691593
164	0xbef1ada2	-0.47202784
165	0x3e0ca025	0.13732965
166	0x3e74bf9b	0.23901217
167	0xbdc8b5d8	-0.09800309
168	0xbdac11ba	-0.084018186
169	0xbf6f50e3	-0.934828
170	0x3ea84ba7	0.32870218
171	0xbf0b149b	-0.54328316
172	0x3dc0fb20	0.09422898
173	0xbf1d79e8	-0.6151414
174	0x3be867d6	0.0070924563
175	0xbddaf079	-0.10690398
176	0x3dabe799	0.08393783
177	0xbe29d83b	-0.16586392
178	0x3e923981	0.28559497
179	0xbeab3b90	-0.3344388
180	0xbeb5a579	-0.35477808
181	0xbdda8d03	-0.10671427
182	0xbecea71b	-0.40361866
183	0xbf2ad4b6	-0.6673082
184	0xbe65efe6	-0.22454795
185	0x3ee5eac9	0.4490569
186	0xbe18a0ad	-0.14905043
187	0x3d89fa49	0.06737191
188	0xbdcf6fbd	-0.10128734
189	0xbec41860	-0.38299847
190	0xbdbdda41	-0.09270144
191	0x3eb790d3	0.3585268
192	0xbce8fac3	-0.028439885
193	0x3ee5849e	0.4482774
194	0xbea4d227	-0.32191584
195	0xbe8cfc34	-0.27536166
196	0xbe66a2f5	-0.225231
197	0x3eb993e2	0.36245638
198	0xbedb9a83	-0.4289132
199	0xbcef3bb3	-0.029203271
200	0x3e46df45	0.19421108
201	0x3eb0a301	0.34499362
202	0xbe8d54c8	-0.27603745
203	0xbdf178ff	-0.11790656
204	0x3f07feb6	0.53123033
205	0xbdf0893b	-0.11744925
206	0xbe30d441	-0.17268468
207	0x3eb9bfe8	0.36279225
208	0xbebc21bb	-0.36744484
209	0xbbfd9aec	-0.0077394154
210	0x3d09e95a	0.033669807
211	0x3e2f7f20	0.17138338
212	0x3d7d618e	0.061860614
213	0x3edeed09	0.43540218
214	0x3e1908ea	0.14944807
215	0xbe4d4341	-0.20045187
216	0x3eb92e88	0.36168313
217	0xbe3866f6	-0.18008026
218	0x3e855d68	0.26047826
219	0x3df1370b	0.11778077
220	0x3ee0fece	0.439444
221	0xbdaaab42	-0.08333446
222	0x3ec8447c	0.3911475
223	0xbe8ebc64	-0.27878106
224	0x3ef55ae1	0.47920898
225	0xbe8e6daf	-0.27818057
226	0xbeb49587	-0.3527033
227	0xbd975883	-0.07389929
228	0xbe4fbc2c	-0.20286626
229	0xbd64c7bb	-0.05585454
230	0x3e4badb3	0.1989048
231	0x3e20b022	0.1569219
232	0x3c986054	0.01860062
233	0x3ea819da	0.32832223
234	0x3ebab2cb	0.36464533
235	0x3e467471	0.19380356
236	0x3e9da22b	0.30787787
237	0xbdc36387	-0.09540468
238	0x3c8ba1dd	0.017044956
239	0xbe91e8bc	-0.28497875
240	0x3e43d2bc	0.19123358
241	0xbd2e3261	-0.042528514
242	0xbd176bcc	-0.036968037
243	0x3b88eb68	0.0041784532
244	0xbe7075a9	-0.23482384
245	0x3e4ba4bc	0.1988706
246	0xbefc25c3	-0.4924756
247	0xbe14f2f1	-0.145458
248	0xbea63b25	-0.32467
249	0x3e1f1705	0.15536125
250	0xbe471c3a	-0.19444361
251	0x3e95a728	0.29229093
252	0xbde2126b	-0.11038669
253	0x3d68fe82	0.056883343
254	0x3d819d49	0.06328828
255	0xbec751b7	-0.3892953

fc4.bias f4 [23]
0	0xbcf87523	-0.030329293
1	0x3bf83cbe	0.0075756004
2	0x3d4e4a52	0.050363846
3	0x3e87a8b4	0.26495898
4	0x3d2dcd49	0.042432103
5	0xbdc7bbd2	-0.09752621
6	0xbdf45386	-0.11929993
7	0x3c8a06aa	0.01684888
8	0xbd4f43ea	-0.050601877
9	0xbe6d26cb	-0.2315933
10	0xbd882bd3	-0.06648984
11	0x3dc4b83a	0.09605451
12	0x3d1da9e7	0.03849211
13	0xbeef7c9f	-0.46774766
14	0x3d96b84d	0.07359371
15	0xbe952621	-0.29130653
16	0xbe257239	-0.16156854
17	0xbcdeeb9a	-0.027211953
18	0xbd3b90ce	-0.045792393
19	0xbed29522	-0.41129404
20	0x3e0ce026	0.13757381
21	0x3e45c641	0.19313909
22	0x3d6f9d9c	0.058499917

bn1.weight f4 [256]
0	0x3f539741	0.8265267
1	0x3f82c151	1.0215245
2	0x3f80f2ff	1.0074157
3	0x3f62040b	0.8828742
4	0x3f450d06	0.76973
5	0x3f67c906	0.9054111
6	0x3f8c2bbf	1.095085
7	0x3f79134c	0.9729507
8	0x3f746184	0.954613
9	0x3f630de2	0.8869306
10	0x3f83c65d	1.0294911
11	0x3f7fbfef	0.9990224
12	0x3f82eb5b	1.0228075
13	0x3f789b47	0.97111934
14	0x3f43c16f	0.7646703
15	0x3f5efc06	0.8710331
16	0x3f95f431	1.1715146
17	0x3f5a0984	0.8517077
18	0x3f758f59	0.95921856
19	0x3f5b0dd5	0.8556798
20	0x3f517a86	0.8182758
21	0x3f5b5a2f	0.85684484
22	0x3f58b4f2	0.846511
23	0x3f7cecf9	0.9879909
24	0x3f85a5c1	1.0441209
25	0x3f85ada5	1.0443617
26	0x3f5e51a9	0.86843354
27	0x3f61a035	0.8813508
28	0x3f8143f5	1.0098864
29	0x3f7156d3	0.9427311
30	0x3f583aac	0.84464526
31	0x3f7f3c3d	0.9970129
32	0x3f4b03e8	0.79302835
33	0x3f7d3a3d	0.9891699
34	0x3f895592	1.0729239
35	0x3f6641e9	0.8994432
36	0x3f87407c	1.0566554
37	0x3f57c141	0.8427926
38	0x3f4f1755	0.80894977
39	0x3f917591	1.1364003
40	0x3f670bad	0.9025219
41	0x3f8a81e8	1.0820894
42	0x3f50b4aa	0.8152567
43	0x3f8c498d	1.0959946
44	0x3f5b627e	0.8569716
45	0x3f704de1	0.93868834
46	0x3f6db86c	0.9285953
47	0x3f582264	0.84427476
48	0x3f727ee5	0.94724876
49	0x3f8792a1	1.0591623
50	0x3f70fab8	0.94132566
51	0x3f4e25e7	0.80526584
52	0x3f850ab8	1.0393896
53	0x3f648677	0.8926768
54	0x3f838541	1.0275041
55	0x3f5fc9fc	0.8741758
56	0x3f7563e0	0.9585552
57	0x3f9890d1	1.1919194
58	0x3f6054ed	0.87629586
59	0x3f821910	1.0163898
60	0x3f510709	0.8165136
61	0x3f7d3ccf	0.9892091
62	0x3f4d0e85	0.8010028
63	0x3f7929cb	0.97329396
64	0x3f64ac07	0.8932499
65	0x3f6743f8	0.9033809
66	0x3f82ed34	1.0228639
67	0x3f65f854	0.89832044
68	0x3f5056b5	0.81382304
69	0x3f8197c0	1.0124435
70	0x3f6056f5	0.87632686
71	0x3f7bbcc8	0.9833493
72	0x3f5addf6	0.85494936
73	0x3f785369	0.97002274
74	0x3f710a2a	0.94156134
75	0x3f6a9649	0.91635567
76	0x3f80e77f	1.0070647
77	0x3f3ffeed	0.7499836
78	0x3f511e77	0.8168711
79	0x3f5478b4	0.8299668
80	0x3f673142	0.90309536
81	0x3f783e5d	0.9697016
82	0x3f6c75fc	0.9236753
83	0x3f753bdc	0.95794463
84	0x3f74159c	0.95345473
85	0x3f97b407	1.1851815
86	0x3f56cf30	0.83909893
87	0x3f526286	0.82181585
88	0x3f909ed9	1.1298476
89	0x3f435e62	0.7631589
90	0x3f535d1f	0.82563967
91	0x3f7985a8	0.9746957
92	0x3f5f9f88	0.873528
93	0x3f7bddc6	0.98385274
94	0x3f84a639	1.0363227
95	0x3f6e8a04	0.93179345
96	0x3f701bb2	0.9379226
97	0x3f859ed6	1.0439098
98	0x3f64bbb5	0.8934892
99	0x3f599b8d	0.85002977
100	0x3f5300fb	0.8242337
101	0x3f7926b0	0.9732466
102	0x3f46d0ee	0.7766255
103	0x3f51c2f8	0.81938124
104	0x3f6bb8fb	0.9207913
105	0x3f65e51c	0.8980272
106	0x3f5e10bb	0.8674428
107	0x3f71b823	0.94421595
108	0x3f64491b	0.8917405
109	0x3f719ecc	0.9438293
110	0x3f733e73	0.95017165
111	0x3f835d28	1.0262804
112	0x3f5b2091	0.8559657
113	0x3f68b622	0.9090291
114	0x3f73ffc1	0.95312124
115	0x3f7947cc	0.9737518
116	0x3f6e8d74	0.9318459
117	0x3f541343	0.8284189
118	0x3f4d7e00	0.80270386
119	0x3f4cfc57	0.8007254
120	0x3f7d7173	0.99001235
121	0x3f768504	0.96296716
122	0x3f601d90	0.8754511
123	0x3f5be86d	0.8590153
124	0x3f7287b4	0.94738317
125	0x3f439ce3	0.76411265
126	0x3f79682f	0.97424597
127	0x3f8026b3	1.001181
128	0x3f4f46e2	0.80967534
129	0x3f6e00d9	0.92970043
130	0x3f701dae	0.9379529
131	0x3f7d4ea2	0.9894811
132	0x3f8e0257	1.1094464
133	0x3f568bc0	0.8380699
134	0x3f7d28ea	0.98890555
135	0x3f60a4d3	0.877515
136	0x3f675359	0.90361553
137	0x3f472066	0.7778381
138	0x3f5a1405	0.851868
139	0x3f5230c9	0.8210569
140	0x3f7abdb9	0.97945744
141	0x3f5bfc00	0.85931396
142	0x3f6ac297	0.9170317
143	0x3f5bcbf9	0.8585811
144	0x3f7644f1	0.96198946
145	0x3f4837ac	0.7820995
146	0x3f9a6200	1.2061157
147	0x3faae2ce	1.3350465
148	0x3f59965e	0.8499507
149	0x3f6928f5	0.9107812
150	0x3f65d223	0.8977377
151	0x3f5eebe2	0.8707868
152	0x3f6243c7	0.8838467
153	0x3f884948	1.0647364
154	0x3f62b2de	0.8855418
155	0x3f59035c	0.8477075
156	0x3f7f599d	0.99746114
157	0x3f84b6da	1.0368302
158	0x3f57546b	0.84113187
159	0x3f652b0d	0.89518815
160	0x3f79a5ea	0.9751879
161	0x3f843e9f	1.033161
162	0x3f58f4e1	0.84748656
163	0x3f78757a	0.97054255
164	0x3f748614	0.95517087
165	0x3f6c9103	0.9240877
166	0x3f5cb443	0.8621256
167	0x3f6aec37	0.91766685
168	0x3f68d236	0.90945756
169	0x3f719f8c	0.94384074
170	0x3f5ec24b	0.8701522
171	0x3f5a635d	0.85307866
172	0x3f591a58	0.8480582
173	0x3f6cb6ef	0.92466635
174	0x3f93d41e	1.1549108
175	0x3f58f976	0.8475565
176	0x3f8be677	1.0929707
177	0x3f74969a	0.955423
178	0x3f5bd302	0.8586885
179	0x3f4a82cc	0.7910583
180	0x3f817716	1.0114467
181	0x3f8f6683	1.1203159
182	0x3f7add75	0.97994167
183	0x3f65a288	0.8970113
184	0x3f786e60	0.9704342
185	0x3f534fa5	0.825434
186	0x3f8d6b32	1.1048338
187	0x3f83b925	1.0290877
188	0x3f6fe499	0.9370819
189	0x3f58dd57	0.8471274
190	0x3f892a1d	1.0715977
191	0x3f76cff2	0.9641105
192	0x3f6ca9fc	0.92446876
193	0x3f7a01d2	0.9765903
194	0x3f50fe90	0.8163843
195	0x3f505074	0.8137276
196	0x3f81bf43	1.0136493
197	0x3f6887f6	0.9083246
198	0x3f6041dc	0.87600493
199	0x3f5ccd26	0.8625053
200	0x3f848320	1.0352516
201	0x3fa105ce	1.2579896
202	0x3f5faa2c	0.87369037
203	0x3f6c8552	0.9239093
204	0x3f7b08ee	0.980605
205	0x3f7768ad	0.966441
206	0x3f6778be	0.9041861
207	0x3f6e27fc	0.9302976
208	0x3f6508c5	0.89466506
209	0x3f5488ce	0.8302125
210	0x3f4fb3d3	0.81133765
211	0x3f5b497d	0.8565901
212	0x3f62cd38	0.8859439
213	0x3f52de49	0.8237043
214	0x3f745ac0	0.95450974
215	0x3f63677d	0.88829786
216	0x3f676047	0.9038128
217	0x3f73030c	0.94926524
218	0x3f63ee91	0.890359
219	0x3f8705a4	1.0548596
220	0x3f4e9928	0.8070245
221	0x3f65968d	0.8968285
222	0x3f65ab55	0.89714557
223	0x3f76f972	0.96474373
224	0x3f6846ca	0.90733016
225	0x3f73cdb9	0.9523578
226	0x3f8537f1	1.0407697
227	0x3f7f65d3	0.99764746
228	0x3f6219c8	0.8832059
229	0x3f486e95	0.78293735
230	0x3f8986d5	1.0744272
231	0x3f404fe2	0.7512189
232	0x3f5fb4c9	0.8738523
233	0x3f857405	1.0426031
234	0x3f5c3064	0.8601134
235	0x3f4975da	0.7869545
236	0x3f5b5d0d	0.8568886
237	0x3f61bb41	0.8817635
238	0x3f8ae0e6	1.0849884
239	0x3f73cf46	0.9523815
240	0x3f907aac	1.1287436
241	0x3f607320	0.87675667
242	0x3f7bb07a	0.98316157
243	0x3f705b84	0.9388964
244	0x3f64590a	0.8919836
245	0x3f6ddee7	0.92918247
246	0x3f8287be	1.0197675
247	0x3f6e94c7	0.93195766
248	0x3f7b52fb	0.98173493
249	0x3f55cfbf	0.8352012
250	0x3f53bacc	0.82706904
251	0x3f4cd4c3	0.8001215
252	0x3f6bf0a3	0.9216406
253	0x3f5c7730	0.86119366
254	0x3f653911	0.895402
255	0x3f65098b	0.89467686
