Parte II/TEC_AD_TP2/models/fcn_best_run_02_seed_22.pt (torch, 229038 bytes, 20 tensors)

fc1.weight f4 [256, 41]
00000000: 1013 463e 3c8c 18be d2ab 853e 573c 203e
00000010: b536 d8be 9beb cbbd e6b4 8ebd 3d6c 393d
00000020: 53ba c7be ce05 1f3e dc1e c2bc 8e2d b6be
00000030: 6e4e 6e3e a54b 2a3c b0d8 733e 15a2 f4be
00000040: d919 403e 7f5b 7cbd 851e 2d3e 15d7 4bbd
00000050: b66d adbe d1d1 8ebc e5a2 df3e 71dc 93bc
00000060: e1bf bb3e a419 69be bfbe 25be 83b2 debe
00000070: ed52 dd3e 781a 76be 3892 f83c 0d7d 8a3e
00000080: bb38 e0bd 78c9 943e 62a0 f13e 6d49 883e
00000090: 8f42 dc3e b80d ee3e 6b80 44be 344d 7a3e
000000a0: d9e8 283e 2618 933e 8989 433e 19ce 663e
000000b0: 86dd c1bd 3cd5 41bf 991d f03c 09e9 893e
000000c0: 1610 1ebe 9621 a83e bf15 003d f825 1abe
000000d0: 9047 a63e 9768 263e 36b9 e1bd 5b09 06bc
000000e0: 3a5d 00be dbd4 4a3e d4ff a9be 1b33 8f3e
000000f0: 9d24 babd cd33 a23d bb90 0d3e a4a6 adbe
00000100: eb3d 9a3d 42ba 55be fe40 12bd 3a1b 6a3e
00000110: 374e 913e f366 65bc e889 cb3d 611c 953d
00000120: a6d6 033f 4bde 853e c8d1 923e 4939 c9be
00000130: 4b08 ecbd 85f6 fcbd 00df 113e f97c 663e
00000140: ff23 9e3d 1951 3d3d 6b54 34be 8115 0bbf
00000150: 2298 d1be 0c27 283d 06e2 f7bc 5464 8dbe
00000160: 03f2 153d b9bc 6e3e 80e5 06bf 7a64 21bf
00000170: 3df6 88bd 15fd 03be 8bc2 02bf f161 b73d
00000180: 7f64 9ebe ea11 a0be 803c 963e 136f 913d
00000190: 359c 533e 6cca 8dbd 9235 0fbe 454e 863e
000001a0: 8dd7 f13d 2abd bc3e a0ea 5cbe df7f 0ebe
000001b0: 0a45 c7be c345 0dbe 8305 303e e85d bf3e
000001c0: ca22 5d3d 0c69 c13e 07a0 0ebf 0da9 183d
000001d0: c4e7 2cbe 1aed d2bd f03e da3e 1bae d23d
000001e0: 12cd 70bd 0477 8f3e f364 d8bd ccec 673e
000001f0: 21a2 c0be 8107 6d3d 9d88 3a3e 6b92 163e
00000200: 37f5 4cbe 276b 2fbe db60 ffbd c4b3 adbe
00000210: ea1f cebe 1cc0 6abe 16cd 2dbe a8c4 a2be
00000220: f6ac 2fbd 48d5 733e cef6 d73d 7ba9 8b3d
00000230: c847 a13e b569 41be a095 453d 18fb fbbd
00000240: 3efa 6fbc 26f9 a43d e49d a13e 5a01 aa3e
00000250: 04d5 10be 8b1b ca3d 250c febe 6445 8abd
00000260: d828 86be aab4 e8bd 944f 043f bd1c 083f
00000270: f52f 33bf 36a9 b0be 0453 873e 0c94 cabd
00000280: 501f 4fbd b885 123c 5a57 4e3d 15e1 703c
00000290: a7a5 2dbe 2282 d2be 82eb 59be 381c aabb
000002a0: 2baa c2be 1029 da3d 53cc b83d 9000 4fbe
000002b0: f7ac 473d 0a9c 1fbe 65eb a3be c2ce 9b3e
000002c0: 114e a1be 84bb 0a3e b712 3e3e 0c9a 71be
000002d0: 9a0a 053d ccef cf3c dc41 c9be 4a2d 57bd
000002e0: fdd3 c23e 9eb3 c0bb f8c5 683d 210b cc3e
000002f0: 3c6d 933e e258 543d d2e9 dc3c b3ef 25bd
00000300: dba0 20be b840 933e 4f3f 9ebd 4835 243e
00000310: 8aca a93e 1210 d13d 9816 91bd a484 e43e
00000320: e40d b83e be97 a43e 7a26 35be c3c5 973e
00000330: e7da 9bbe 18df f8bc 48e8 08be 7235 1c3e
00000340: da64 5fbe ae0b 16be b86e cfbd 6436 bbbd
00000350: 0728 9fbe 7ae4 90bd 4683 6a3e 9818 67be
00000360: 2cd6 06be 4463 b53d 6249 d23d 4e42 583e
00000370: 92ba c73e 4ec3 893e 0678 5bbe 6edd b7be
00000380: 3a60 513e 46c5 1a3e 5627 b9be 1e18 d23d
00000390: 732e 29be aaf2 1b3e de64 94be bf34 58bc
000003a0: 52b8 513e 949d c3bc 6a72 7b3e 0176 a43e
000003b0: 9d2a d43e f63e d8be dacf f5bd 3830 01be
000003c0: 2123 6f3d 270e 09bf 6258 08bd d8f5 143f
000003d0: d3d1 303d c0c1 d0bd c632 88be 8430 73be
000003e0: 40c6 bb3e c74a d9be 469e 143f 20d1 1e3e
000003f0: 7ee0 29be 3781 bbbe 9a00 dbbe 3429 c13d
0.1934321 -0.14897245 0.2610765 0.15648018 -0.42229238 -0.099570476 -0.069680974 0.04526924
-0.39009342 0.15529558 -0.023696356 -0.3558163 0.23272106 0.010394012 0.23813128 -0.4777991
0.1875986 -0.061610695 0.16906174 -0.049765665 -0.33872765 -0.017434033 0.43678966 -0.01804945
0.3666983 -0.22763687 -0.16186045 -0.4349557 0.4322733 -0.24033535 0.03034316 0.2704853
-0.109483205 0.29059958 0.47192675 0.2661852 0.4301953 0.46494842 -0.19189613 0.24443513
0.16495074 0.2872936 0.19095434 0.22539558 -0.0946608 -0.75715995 0.029310988 0.26935604
-0.15435824 0.32838124 0.03127074 -0.15053546 0.32476473 0.16250835 -0.11021654 -0.008180941
-0.12535563 0.1980776 -0.33202994 0.27968678 -0.09089015 0.079200365 0.13824742 -0.339162
0.07531341 -0.20871833 -0.035706513 0.22861949 0.28379986 -0.014001596 0.09938413 0.072808035
0.514994 0.2614616 0.28675675 -0.39301518 -0.11525019 -0.12351707 0.14245224 0.22508611
0.077217095 0.04621992 -0.17610328 -0.5432969 -0.4093638 0.041052863 -0.030259144 -0.27615607
0.036607753 0.2331418 -0.5269394 -0.6304394 -0.06687591 -0.12889512 -0.510781 0.08954228
-0.30936047 -0.31263667 0.29343033 0.07101264 0.20665057 -0.069233745 -0.13985279 0.2623159
0.11808691 0.3686307 -0.21573877 -0.13915966 -0.3891986 -0.13796143 0.17189603 0.37376332
0.053988256 0.37775457 -0.5571293 0.037270594 -0.16885287 -0.1029913 0.42626143 0.10287114
-0.05878932 0.2802049 -0.105661295 0.22648925 -0.37623695 0.057868484 0.18216176 0.14704292
-0.20015417 -0.17130719 -0.124696456 -0.33926213 -0.40258723 -0.22924846 -0.16972765 -0.31790662
-0.042889558 0.23811829 0.10545121 0.06819435 0.31500077 -0.1888798 0.048238397 -0.12303752
-0.014647065 0.08055334 0.31565773 0.33204156 -0.14143759 0.09868535 -0.4961864 -0.067515165
-0.26203036 -0.11362584 0.51683927 0.5316885 -0.6999505 -0.34504098 0.26430523 -0.09891519
-0.05056697 0.008943014 0.050376274 0.014702101 -0.16957723 -0.41114908 -0.21281245 -0.005191352
-0.38020453 0.10652363 0.09023347 -0.20215058 0.048748937 -0.15586868 -0.3201553 0.3043118
-0.31504872 0.13548094 0.18561827 -0.2359392 0.032480814 0.025382899 -0.3930806 -0.052533425
0.3805236 -0.005880787 0.056829423 0.3985224 0.28794277 0.051842578 0.026966963 -0.040511798
-0.15686361 0.28760314 -0.07726919 0.1603595 0.33162338 0.10208143 -0.070843875 0.44632447
0.35948098 0.3214702 -0.17690459 0.29643068 -0.30440447 -0.030379817 -0.13369858 0.15254763
-0.21815816 -0.14652893 -0.1012854 -0.091412336 -0.31085226 -0.070748284 0.2290164 -0.22567976
-0.13167638 0.08856824 0.10267903 0.21119043 0.3900953 0.26906818 -0.21432504 -0.35911125
0.20446864 0.15114316 -0.36162823 0.10258506 -0.16521625 0.15229288 -0.28983206 -0.013196169
0.20480469 -0.02387885 0.24555364 0.3212128 0.4143876 -0.42235535 -0.12002535 -0.1261605
0.05838311 -0.5353722 -0.033287413 0.5818763 0.043168854 -0.10193205 -0.26601237 -0.23748976
0.3667469 -0.42439863 0.58054006 0.15509462 -0.16589543 -0.3662202 -0.42773896 0.09431687

fc1.bias f4 [256]
00000000: 7d92 22bc e404 373d 88dd ea3b 48fb 6b3c
00000010: 2632 6a3b 64d7 ec3a e18f 903a 0890 af3c
00000020: 9501 fb3a 6495 dcbc e0c5 373c 1867 8fbc
00000030: 14bf 86bc 0e36 1dbb 654e e7bb e525 7ebb
00000040: b106 9b3d da41 8bbc 6acd 0cbb 8975 873c
00000050: 69b5 8fbc 6b09 e13c eff9 6f3c ed01 43bc
00000060: 182b 9bbc ebb3 04bd 1b1f 533b e479 2bbd
00000070: 8594 24bc 0ce3 3b3c dcd4 5ebb 8779 683c
00000080: 6698 f4bb c8b1 39bc 6f8d 423d 5107 08bc
00000090: 40ba 5b3a 1c24 80bc 74a4 d9bc 7d3b 1b3c
000000a0: ef68 f03c 465f a9bc 126b c6bb 19d7 98bb
000000b0: 3981 b0ba 1d70 9cbb f5cc 833c 787b afba
000000c0: b22c 2cbc b609 40bc 6097 c3bb 29c5 963a
000000d0: 50ad d13b 1cbb 9a3b f71b faba 0685 99bb
000000e0: 945e dbbc 0805 b73c 2c6f 8bbc 0046 183c
000000f0: 97db e63b dba3 a73b ed01 a33c e5c8 823c
00000100: 9b2b d6bc 0d12 433b 6d22 d4b9 e748 533c
00000110: 15a4 a4ba f438 02bd 1b88 24bc 72be 72bc
00000120: 0d81 203b c725 783c 003d 8ebb fe87 a2b9
00000130: f6b2 23bd ace2 f43a e391 353c 9668 06bb
00000140: f175 d83a d1e9 adbc e641 c43b a0cc b93c
00000150: 62e6 c3bb 5bcf 053c bfaa dabb b073 efba
00000160: 1517 893b b53a d3bc 012c de3b 96c9 afbc
00000170: 0b7d 363d fe60 373c a309 be3a 9f70 013c
00000180: c969 13ba fa6a 03bc 412d 533c 9c36 02bc
00000190: e11e 07bd b734 77bb f6c9 27bd d306 cebb
000001a0: 794d a8bc ffe5 4fbb d866 1dbc 6599 ad3c
000001b0: 14d4 3fbb a47e 26bd e1e8 dc3a 9829 52bb
000001c0: b025 5f3c 66d4 0fbc 9ffa 9ebc a40b a33b
000001d0: 74d8 213b 657a 8e3c c790 3dbd d1c7 abbc
000001e0: f75f 933c 5a04 fcbb bf64 413c 0704 763a
000001f0: 1b8b 003c fe4f c3bb b355 263b a13f 80bb
00000200: c6b8 b8bc be3c 5c3a 2fae 353c 693d 3d3b
00000210: 2886 5dbc ef76 f8bc fa2d 863b 983c 0bbc
00000220: 1297 0e3c bd40 5c3c 4924 52bb 5486 92bb
00000230: 50b7 d6bc 9dcf 6e3d c247 1dbc 4afb 20ba
00000240: 10a5 5c3b 7da3 333d 2d73 dcbb 7d39 04bb
00000250: dd25 a43c 1335 78bc b275 483b cc00 a3bb
00000260: d660 aebc 9219 72bb 71b1 c0ba e7c5 c8bb
00000270: 5380 d9bc 749f 5fbc b380 9ebc 82e3 5c3a
00000280: 1d46 e8b8 7173 8e3c 9bb6 c63c 4bcd babb
00000290: cd32 30bc cb50 6bbb 10f2 3cbc 8b3c 7fbc
000002a0: 568b 333b 9a21 a23b 70f7 20bc ed9d 0ab9
000002b0: 1216 173c d2bb abbc db27 953b c862 ff3a
000002c0: 508c c1bc d338 c13c 80ba 1a3c 0157 b5bb
000002d0: e25e c03c 1994 903a 1a9d 0fbc f825 acb9
000002e0: 96b6 44bc 8a15 053b e1c9 0c3b fe17 bebb
000002f0: 5310 24bc f4ba 1fbb 1c73 933d 83be 983c
00000300: f10d 1cbb dc12 12bd 1104 8b3c e209 eabb
00000310: 27ea 533b 6d5e fa3c 3a9b 30b9 72b4 11bc
00000320: 257e cdbc b1e3 cabb 6bd5 aeba 5615 5bbc
00000330: f20b 8bbc 4ab8 15bc 8c36 0ebc 5a08 363b
00000340: 4b80 32bc e0ba cc3a a948 db3c f5f4 1e3c
00000350: 73c5 a2ba c861 fa3b 9bb7 53bd 419a 50bd
00000360: 3bb8 f73b e69e 8d3b 22e9 05bc 7fed 583a
00000370: 1e5b bb3c 7649 1a3c f4f6 2139 f8a9 9b3a
00000380: 6510 aebc 6f6c 2cbb d84f 05bd 2985 98bc
00000390: 34e6 7abc 1b93 0fbc 4b7c af3a 8348 a13c
000003a0: f9e0 b1bc b614 6b3c b0a6 0d3b 6df8 5fbb
000003b0: f567 a03c d05e 53bb b9bb c2ba d6dd 323c
000003c0: 191b 6a3c 8db0 da3c fd8f ff3b d029 bb3c
000003d0: bc4a 2fbc 7050 743c 2164 a03c dccd 2bbc
000003e0: 3d7b 5839 6207 073b 67c2 3bbc 1972 4d3c
000003f0: e663 02bd a62e e33b b7f1 4eba bb54 923b
-0.009922621 0.0446824 0.007167522 0.014403172 0.0035735457 0.0018069563 0.0011029207 0.021430984
0.0019150252 -0.026926704 0.011216611 -0.017505214 -0.016448535 -0.0023988518 -0.007058906 -0.003877991
0.07569636 -0.016999174 -0.002148474 0.016535537 -0.017542558 0.027470311 0.014646991 -0.011902315
-0.018941447 -0.032398146 0.0032214585 -0.04186429 -0.010045175 0.011467706 -0.0034001386 0.014189131
-0.0074644564 -0.01133389 0.047498163 -0.008302526 0.00083819404 -0.015642218 -0.026567675 0.009474632
0.029346911 -0.020675313 -0.0060552442 -0.0046643135 -0.0013466246 -0.004774107 0.016088942 -0.0013388237
-0.010508703 -0.011721065 -0.005968973 0.001150285 0.0063988343 0.004722012 -0.001908182 -0.004685047
-0.026778497 0.022341266 -0.017020784 0.009294033 0.00704522 0.0051159686 0.01989838 0.015964935
-0.02614384 0.0029765398 -0.0004046144 0.012895799 -0.0012561107 -0.031792596 -0.010042216 -0.0148159135
0.0024490983 0.015145726 -0.004340768 -0.0003100037 -0.039965592 0.0018683276 0.011082145 -0.0020509115
0.0016514641 -0.021229656 0.005989301 0.02268058 -0.0059783915 0.008167113 -0.0066731866 -0.001826873
0.00418366 -0.02578483 0.006780148 -0.021458428 0.044552844 0.011192558 0.0014498722 0.007900386
-0.0005623368 -0.008021111 0.012889207 -0.00794759 -0.032988433 -0.003772063 -0.04096409 -0.0062874346
-0.020544754 -0.0031722782 -0.009607039 0.021191308 -0.0029270696 -0.040648118 0.0016854071 -0.003206825
0.013619825 -0.008778667 -0.019406615 0.004975753 0.0024695667 0.017392347 -0.04628065 -0.020969303
0.017990096 -0.0076909484 0.011803805 0.00093847554 0.007845665 -0.0059604635 0.002538067 -0.003913835
-0.022549044 0.0008401385 0.011088892 0.0028875715 -0.013520755 -0.03033015 0.0040948363 -0.008498333
0.00870301 0.013443169 -0.0032065085 -0.0044715796 -0.026210457 0.058303464 -0.009599628 -0.00061409606
0.003366772 0.043857086 -0.006727597 -0.0020175867 0.020037586 -0.015149373 0.003058773 -0.00497446
-0.02128641 -0.003694151 -0.0014701319 -0.0061271074 -0.026550448 -0.013648856 -0.019348478 0.0008426235
-0.00011075682 0.017389031 0.024256995 -0.0057007424 -0.010754299 -0.003590631 -0.011532322 -0.015578399
0.0027396283 0.0049478533 -0.009824619 -0.00013219538 0.009221571 -0.020963583 0.0045518703 0.0019484395
-0.023626477 0.023586666 0.009443879 -0.0055340533 0.023482744 0.0011030465 -0.008765483 -0.00032834685
-0.0120064225 0.0020307028 0.0021482634 -0.0058012 -0.010013658 -0.0024372907 0.0719969 0.01864553
-0.002381202 -0.035662517 0.016969712 -0.0071422914 0.003233561 0.030562604 -0.00016842494 -0.008893119
-0.025084564 -0.0061916937 -0.001333875 -0.013371786 -0.01697347 -0.009138176 -0.008679997 0.0027775974
-0.010894845 0.0015619658 0.026768045 0.009701957 -0.0012418464 0.007641051 -0.05168877 -0.050928358
0.007559804 0.0043219207 -0.008173259 0.0008275136 0.022870596 0.0094169285 0.00015446154 0.0011876216
-0.021248052 -0.0026309749 -0.032546848 -0.018618183 -0.015313674 -0.0087631 0.0013388483 0.019687897
-0.02171372 0.0143482 0.0021614246 -0.0034175173 0.01958082 -0.0032252558 -0.0014856971 0.010917148
0.014288687 0.026695514 0.007799147 0.022847086 -0.01069897 0.014911756 0.019578995 -0.010486092
0.00020645275 0.0020603766 -0.011459923 0.01253941 -0.03183355 0.006933051 -0.00078942947 0.004465667

fc2.weight f4 [128, 256]
00000000: e6aa 143e 5e70 0d3e b332 d03d 14b2 2abd
00000010: 1b3e efbd 0487 0a3e 9675 ef3d 7ccd 863c
00000020: 4b6b 4cbd cc03 a7bd 6a6f 9e3b c3ea 2a3d
00000030: 169a e2bd 4454 8b3d 3ffc a6bd c30e 0a3e
00000040: 9348 3ebe d51d 0cbe 762d 4bbd 2c10 353e
00000050: 670e 3abd afa3 963c 4bb1 12be 9fc2 043d
00000060: 2b8a 363e 13ff ed3d 4e34 793d d359 873c
00000070: f7a3 ffbd 8ab1 17be 734e eabd 5777 c0bd
00000080: 6688 38bd 8c46 59be 1b9c 373d ee6a 283e
00000090: 20d9 1cbe 4659 be3d 1614 5e3d 902c 33bd
000000a0: ace6 1c3d d9f6 debd 052b 3ebc 2c21 703b
000000b0: b4f8 d03d 3893 28be dabc 17bd 98ff fcbc
000000c0: 2474 553d 9b47 0e3e 4977 923a 2855 eabd
000000d0: 65c4 d23d cc5d 8e3c 5d98 413e d440 08bd
000000e0: 696d a73d 8c0d 863d 7ae9 c13d a72c f9bc
000000f0: 293b 47bd ed4f 7b3d c430 71be ce2d 7dbe
00000100: 305a 393e 594f d53d 1db2 f83d e4f9 9a3d
00000110: 0c26 91bd 5cf4 17be a977 18bd 85cf 8d3d
00000120: 1031 e8b9 76f1 873d a61a 32be 9f09 3e3a
00000130: 9219 ac3d 1a44 623d a619 353b 92a0 8d3c
00000140: 877c 1c3e d22a 023e 3ad8 4cbe 3600 5b3d
00000150: 2114 84bd ebe4 d03a c212 1c3e 495c 01be
00000160: f032 713d 98f2 3f3e d564 b8bd 9a34 26be
00000170: c48f eabc 50c3 3cbb 3de9 c6bc cbf8 993c
00000180: fc60 13be 9e23 fd3d 0edd 9ebd 818e a03c
00000190: 5d65 d93d 7876 28be 1c94 d6bd eff2 853d
000001a0: 84c8 05be 93c7 0c3e 1e31 bc3c 3803 a4bd
000001b0: 30cb ef3d ae8f 3a3e b980 b53d 1fd8 a03d
000001c0: 166f 92bd 4db8 1a3e 8841 e9bd dc8a bd3d
000001d0: c9af 493e 22e5 063e 7bea d7ba b6cd 003e
000001e0: 7dcb f3bc f6b4 a2bc 2aed 673e d398 713e
000001f0: a3a1 b5bd 8172 c2bd 4f00 bebb 6a98 473d
00000200: 8419 71be f587 c73d 4b08 40bd dd03 113e
00000210: 1f44 e83c 2c26 adbd ee0d 603e 5638 8bbd
00000220: 0f50 1d3c 6f50 153e 9f9a 10be 78f8 b7bd
00000230: bed2 e9bd af20 fcbd 950e d03d 1b43 c7bd
00000240: cd33 20be e76d 2a3e c3b3 99bc eaa4 85bd
00000250: 7fd8 5bbd e379 5c3e 78d1 203e aed8 25be
00000260: 51b1 b83d e08d 95bd e5bf b23c da45 153e
00000270: 5e29 efbd 2569 90bd 8d87 483b 2c04 42bb
00000280: d3db 653e 19c2 4a3e 449f 5dbd 93ec 283e
00000290: 1163 82bd 31ba 563d 2314 9dbd fcee 97bd
000002a0: 2676 3ebd 1243 6fbd b25c e43b cbbc 1b3e
000002b0: a175 2cbe 9cd0 e3bd 13e2 003e 1840 cb3c
000002c0: 6eea 0abd ef19 a6bd 8187 6abd 0d44 f33a
000002d0: be04 293e 396c c9bc 1435 2c3e 08d5 143d
000002e0: f1b5 07bd 4278 7d3d 5269 043e f93d 09bd
000002f0: b677 8d3d 841f d13d da9a 5dbe ba2f d4bc
00000300: e236 9cbc 7ee1 853b 5042 42bc 2f3b 2d3d
00000310: 6d7d 19be 041e d33d f774 8dbd 8380 76bd
00000320: e847 373e 3dda 343e ba96 25be 8c86 683e
00000330: f956 d5bd d497 6fbd cf2f 53be e08f 923b
00000340: 7a34 7f3d f3de 1f3d 0e38 1bbd 06ad ae3d
00000350: d6fd 12be 0e6f 673d 7bc6 51be d43a be3d
00000360: c7d0 f43d f435 62bd a2c3 b63a 2668 a1bc
00000370: b337 3c3e 8893 1f3e 4713 10bd 531e 5c3d
00000380: dec5 a6bc 1989 533e 013c 703e 09e4 943e
00000390: 0682 e73d 68bb 943e da67 a93d 6af4 65bd
000003a0: 5ff7 993d 7369 ad3c 8f8d bc3b 5172 c7bd
000003b0: 5bf0 cbbd 9b6f 6a3e 4da9 cdbd b0bc 6e3e
000003c0: a570 57bc 03d4 773d 1f9a 063e a994 c33d
000003d0: 03ae 7b3c 7083 923c a564 153c f7eb 3ebe
000003e0: 0e91 473e da15 9cbc 295c b3bc 394f bdbd
000003f0: fe75 483e 733e 31bb 517f a6bc a29c 2c3d
0.14518318 0.13812396 0.1016592 -0.041673735 -0.116817676 0.13528067 0.116923496 0.016455404
-0.04990701 -0.08155021 0.004835059 0.041727792 -0.11064546 0.06803182 -0.08153581 0.13482194
-0.18582372 -0.13683255 -0.0496039 0.1768195 -0.04542389 0.018388597 -0.14325444 0.032412168
0.17826144 0.11620917 0.060840897 0.016522324 -0.12482446 -0.1481382 -0.11440744 -0.09397762
-0.045051955 -0.21218318 0.04482661 0.1644704 -0.15317202 0.09294371 0.054218374 -0.04374367
0.038305923 -0.10886926 -0.011606936 0.0036640866 0.10203686 -0.1646241 -0.037045337 -0.030883595
0.052112713 0.13894503 0.0011174466 -0.114420235 0.102913655 0.01737871 0.18905778 -0.03326495
0.08175165 0.065455526 0.0946836 -0.0304168 -0.048640404 0.06135552 -0.23553759 -0.24724504
0.1810081 0.10415525 0.121433474 0.07567194 -0.07087335 -0.1483931 -0.03722349 0.06924347
-0.00044287043 0.06637852 -0.17392978 0.00072493585 0.08403315 0.055240728 0.0027633696 0.01728848
0.15281878 0.12711647 -0.20004359 0.053466998 -0.06449152 0.0015937363 0.1524153 -0.1263286
0.05888647 0.18744886 -0.09003607 -0.16231003 -0.028633006 -0.0028802939 -0.024281139 0.018795392
-0.14392465 0.12360309 -0.077570066 0.019599201 0.10615037 -0.16451442 -0.10477468 0.065404765
-0.13064772 0.13748007 0.02297264 -0.080084264 0.11708677 0.18218872 0.088624425 0.07853722
-0.07150094 0.15109368 -0.11389452 0.09255001 0.19695963 0.13173345 -0.0016473079 0.12578472
-0.029760117 -0.01986168 0.22649065 0.23593454 -0.088687204 -0.09494496 -0.0057983766 0.048729338
-0.2354489 0.097427286 -0.04688291 0.1416163 0.028352795 -0.08454546 0.21880314 -0.067978546
0.009601607 0.14581464 -0.14121483 -0.089829385 -0.11417149 -0.123109214 0.10159031 -0.09729596
-0.1564476 0.16643487 -0.018762475 -0.065255955 -0.053673264 0.21530871 0.15704906 -0.16195938
0.090181954 -0.07302451 0.021820018 0.14577428 -0.11677812 -0.07051305 0.0030598373 -0.0029604537
0.22447138 0.19800605 -0.054106966 0.16496496 -0.06366552 0.05242366 -0.076698564 -0.074186295
-0.046499394 -0.058413573 0.006969058 0.15208738 -0.16841747 -0.111237735 0.1258624 0.024810836
-0.033914976 -0.08110415 -0.057258133 0.001855971 0.16505715 -0.024587737 0.16817123 0.036335975
-0.033132497 0.061882265 0.12930802 -0.033506367 0.06907599 0.10211089 -0.21641102 -0.025901664
-0.019069139 0.0040857187 -0.01185663 0.04229277 -0.14989252 0.103084594 -0.06907075 -0.060181152
0.17898524 0.17661376 -0.16170779 0.22707576 -0.10416979 -0.058494404 -0.20623706 0.0044727176
0.062305905 0.03903098 -0.037895255 0.08529095 -0.14354643 0.056502394 -0.2048587 0.09288564
0.119538836 -0.055227235 0.0013943801 -0.019702982 0.18380623 0.15583622 -0.035174634 0.053739857
-0.020358022 0.20657767 0.2346039 0.29080227 0.11304097 0.2904923 0.08271761 -0.056141295
0.075178854 0.021168446 0.00575418 -0.09738601 -0.099579535 0.22894137 -0.10042057 0.23314166
-0.013149415 0.060504925 0.1314473 0.09549839 0.015361312 0.01788494 0.009118234 -0.18644701
0.19488928 -0.019053388 -0.021894531 -0.09243626 0.1957626 -0.002704528 -0.020324381 0.042141564

fc2.bias f4 [128]
00000000: 7f8d 023d 703e 06bd 6770 d83c 7896 9dbc
00000010: 6133 96bc 94fa 3e3b 60f3 a5ba 113b d7bc
00000020: 3ebd 79bd 3908 f3bc 3de2 cebb f463 7f3c
00000030: 7de5 4abc 61cf 0f3c 37d3 873c b0b4 fbbb
00000040: 3d10 15bc ffea 823b c8dd 643b 2b86 5f3d
00000050: c012 953c 7ada 38bc e5c9 36bc d2df b43c
00000060: 041a 31bc a99d 56bb b74f 273d 6170 23bc
00000070: afaf 17ba c29d 5ebc 09ce 33bb ccde 84bc
00000080: f117 9a3d d4c5 9ebb 6ef9 843c 3736 f7bc
00000090: daf3 4b3c c562 ad3b 7c44 d5bb 1f1a 0ebd
000000a0: 1058 0aba 91e2 08bc e156 38bb ffcb df3c
000000b0: ec1b cfbb 6944 c7ba 7f11 17bc 2a02 59bc
000000c0: 3dee f03b 59ae 253d d5e5 0ebd 7833 e2bc
000000d0: 0a26 523c 739d 33bb 2783 86bb cfcd 373c
000000e0: fcb2 023b c1cc e33a b500 7cbb 2681 023c
000000f0: f4f2 c7bc 7acd 673c 8a43 923b b47a 813c
00000100: 3d62 97bc 97ae 35ba dd91 0e3d b4ed 43bc
00000110: 4d5e 7fbd 6346 9fbb d94b 2e3b e957 0bbc
00000120: 6401 a3bb 27e1 1abd f862 b33c 86c0 de3c
00000130: ff93 41bc ea1b 29bb ee9a b7bc 82de 6ebc
00000140: 4879 6abc c53c 083d 2bd9 f43b b971 0dbc
00000150: 5624 25bc fc4a ab3c b775 fdbc 863b 46bd
00000160: 1ae1 803a a421 14ba ae33 c6bc 673a d5ba
00000170: e83f 00bd bbe9 7b3b 4358 8dbc b128 4e3b
00000180: cdf2 77bd a222 55bd 66cc 343b c62c 6fbb
00000190: 452a b03c 7d39 2f3d 3c15 8c3b f9d1 0cbc
000001a0: 1e3a d43d f77c 90bc 7ba4 f8bc 7bfe 9abc
000001b0: a11e 0b3c f249 833b d49d 963c 020c e73a
000001c0: b02e 713c 03ca 6b3c 0e95 9bbb 4716 afbb
000001d0: 63e1 cbbc b5e0 12bc 79c0 ebbc 63e7 f23b
000001e0: be9d be3c 8cc7 a6bc 0423 72bb ceaf e53b
000001f0: 228f 953c dc9d f33c 67d8 103d d7e2 2dbc
0.031873222 -0.03277439 0.026420785 -0.019236788 -0.018335046 0.0029141055 -0.0012661032 -0.026273282
-0.06097149 -0.029667007 -0.006313591 0.0155877955 -0.012383816 0.00877747 0.016580207 -0.0076814517
-0.00909811 0.003995299 0.003492223 0.054571312 0.018197417 -0.011282558 -0.011156534 0.022079382
-0.010809425 -0.0032747781 0.040847506 -0.009975524 -0.0005786372 -0.013587417 -0.002743604 -0.01621952
0.07524098 -0.0048453603 0.016232219 -0.030177219 0.012448275 0.0052913153 -0.006508408 -0.03469288
-0.00052774046 -0.008354799 -0.0028127956 0.027318953 -0.006320467 -0.0015202883 -0.00922048 -0.013245145
0.007352619 0.040449474 -0.034887154 -0.027612433 0.012826452 -0.002740708 -0.00410499 0.011218502
0.0019943109 0.0017379747 -0.003845257 0.007965362 -0.024407841 0.0141481105 0.0044636177 0.01580558
-0.01847946 -0.0006930618 0.034807075 -0.011958528 -0.06234579 -0.0048606857 0.0026595502 -0.008504846
-0.004974531 -0.03781238 0.021897778 0.027191412 -0.01181507 -0.0025803992 -0.022412743 -0.014579417
-0.014311142 0.03326108 0.0074721775 -0.008633071 -0.010079464 0.020909779 -0.03093992 -0.04839661
0.000983271 -0.0005650765 -0.024194565 -0.0016268016 -0.031310946 0.0038438875 -0.017254 0.003145736
-0.060534287 -0.05203498 0.0027587651 -0.0036495193 0.02150453 0.042779434 0.0042749923 -0.008594983
0.103626475 -0.017637713 -0.030351868 -0.018920174 0.008491189 0.0040066177 0.018385805 0.001762748
0.014720604 0.014391425 -0.0047479933 -0.005343232 -0.024887746 -0.008964707 -0.028778302 0.0074128374
0.023268577 -0.020358823 -0.003694714 0.007009483 0.018256728 0.02973836 0.035362627 -0.010613165

fc3.weight f4 [64, 128]
00000000: 5586 2ebe 5106 b83e 85bf 8abd 6949 3fbe
00000010: 79a9 dabe 2277 5d3c 8b24 583d 655c a7bd
00000020: b48d 44be cf65 81bd a05d 84bd f7da 50bb
00000030: c3a6 843b f9f1 dc3d cd9e fd3d 65a8 47be
00000040: 7509 543e d8c9 8fbe ab88 5bbe 0704 693e
00000050: 8aa5 98bd 0bd5 fcbd 36e1 263e 516b d93d
00000060: 7f97 84bd 0ec8 dd3c f2cb 09bd 160b 2e3d
00000070: 307b b1be df44 013e 161d 773c 144f 94be
00000080: 66e4 5bbe 8698 25bc 00e7 8ebe 14a9 293e
00000090: e733 c5bd e28a e0bd bcc8 09bd 769b 223d
000000a0: c62d 033d 5002 cc3d ab69 99be 7f6f 40be
000000b0: cc84 47be 659b 36bd 17e6 18be 882c 0c3e
000000c0: 333d 81bd 6154 49bd c085 48be e1ce 88bd
000000d0: e463 8fbe 3ab4 833d 1450 9cbd 60d4 42be
000000e0: 5904 25be 847a 8a3e a5f2 9abe 3334 0f3c
000000f0: 8e8d 88bd e3c5 623d 29f9 9fbd 8960 e2bd
00000100: 9c4a f03d 99ce 05bc 2d07 22be 92e3 923e
00000110: 7cf0 a1be abde 8abc 7ba6 f73e fca1 68bc
00000120: 689d bebe 4818 57bc 45f6 163e e5ea 293e
00000130: 5f99 793e 4f75 043e 2977 ddbd f700 e43d
00000140: 54bb 95bd b592 a5ba 5888 3a3e f22d 403e
00000150: 9373 0d3e 8e72 843e dee2 83be c6e1 9fbe
00000160: dc73 693e 9a55 72bc 5d22 25be 0591 9abe
00000170: b096 a9bd 936b 8abe 9d69 f93d 6591 87bd
00000180: b7fa 183d 9c08 20bd 5e3f 553e 8970 9f3c
00000190: b83b e13d 0751 5e3e 6b2b 39be 9830 12bd
000001a0: 1d31 19be 5a95 debd 44b9 70be 00f4 25be
000001b0: 7d6b 85ba ece4 ac3e e3da 1e3e 5067 5f3e
000001c0: 1593 de3b e96d adbe 9306 febd 13a2 753b
000001d0: a6e6 adbe dcfd 903c 0dc9 413e 1a69 0f3e
000001e0: 1d99 a43b 18f9 373e dd9a 11be ecf3 ad3d
000001f0: ee7b 3d3c 3a23 033e 7d84 90be adc4 c8bd
00000200: 763a 7f3e d1c1 94be cc66 5ebe fa60 91bd
00000210: 83b9 593e a68a 723d a200 09be 00ba e93d
00000220: e19c 63bd 47de 903c 9c2b 74be 0b47 cd3d
00000230: fe66 0c3e 1d52 73bd fe3a 763e 873c 51be
00000240: 27f4 17be f2f5 88bd 917b 38be 23c7 7b3e
00000250: 4799 f63d a123 a13d c844 de3d 669b 953d
00000260: 3509 8b3d 243d 2f3e 32cd 24bd 9bad 98be
00000270: 7003 e6bd 353e d4bd 1313 67bd 80c2 92bd
00000280: 8f70 5bbe f60a 9ebd 7823 033e 1dde 113e
00000290: eae0 34be 9f87 a2bd 65b7 5d3e 917c 5d3e
000002a0: 84f2 113e 6c33 3cbd a2b8 be3d 1f9f 3e3e
000002b0: 28cf 6bbd e675 eb3d 794f bd3d a158 cbbd
000002c0: abf9 abbd 43f1 0ebe c040 323e f099 e53d
000002d0: d8c7 c1bd 13bf 9bbe 3888 a9bd af3f 313e
000002e0: d447 043d b755 debd 712e 3bbc 71e3 1ebe
000002f0: 5b7b 913d 07f5 82be 712b 72be 9568 803e
00000300: 033b 2ebd 66f0 1c3e c7e1 223c e9a9 35be
00000310: 3175 9d3b 03a5 88be 3290 23be b8d9 b53d
00000320: 48fa 523c 5d60 d43d 1905 3fbd 309b 1abe
00000330: 76d8 02be b3c0 02be 022a 7bbd 4916 18bd
00000340: abeb 0dbe 5e2c 10be 9786 fcbc 77f9 a5be
00000350: d27c 76bd e553 323e 0b61 253d 5065 ab3d
00000360: 3bf5 883d 0aa5 8ebe ebae fdbd bb93 e23c
00000370: 2a5e 59be 86b9 303d 204b 293e 4a54 663e
00000380: af25 84be 3e37 96bc b8b5 a83d df20 e8bd
00000390: 5219 f83d b6fe e6bd 4096 18be 5291 52be
000003a0: c3c4 203e 06e5 863d 589d 42be 3a5e 1c3e
000003b0: 83ac 62be fdea 20be 5043 f93d 4fa1 683d
000003c0: c3be c03b 3b3d 0dbe 8feb 8d3e 72f6 093e
000003d0: fabf 19bd ac62 af3e 5129 b1bd 9ffc 073e
000003e0: 3004 c43d ef6a 7b3e 95fb 233e 1fd9 5cbe
000003f0: 4887 6c3d e7cd a4be 481a 33be da06 373e
-0.17043431 0.3594232 -0.06774811 -0.18680348 -0.42707422 0.013517173 0.052769225 -0.0817192
-0.1919468 -0.063182466 -0.0646317 -0.0031868794 0.0040482 0.1078834 0.123838045 -0.19497831
0.20706733 -0.28083682 -0.21438853 0.22755443 -0.07453449 -0.12345322 0.16296849 0.10616172
-0.06474208 0.027072933 -0.033641763 0.04249104 -0.34664297 0.12623928 0.015082618 -0.28966582
-0.21473846 -0.010107165 -0.27910614 0.16568404 -0.0962904 -0.1096399 -0.0336387 0.03969904
0.032026075 0.099613786 -0.2996343 -0.18792532 -0.19484252 -0.04458179 -0.14931522 0.13688862
-0.06310501 -0.049152736 -0.19582272 -0.06680084 -0.28005898 0.0643086 -0.07632461 -0.19026327
-0.1611494 0.27046597 -0.30263248 0.008740473 -0.066676244 0.0553645 -0.078111954 -0.11053569
0.117329806 -0.0081669325 -0.1582305 0.28689247 -0.31628788 -0.01695188 0.48369202 -0.014198776
-0.37229466 -0.013128348 0.14742382 0.16593511 0.24374913 0.12935375 -0.108137436 0.111329965
-0.07311121 -0.0012632223 0.18216074 0.18767527 0.1381362 0.25868648 -0.25759023 -0.3122694
0.22798103 -0.014790917 -0.1612639 -0.30188766 -0.082806945 -0.27035198 0.12178347 -0.06619529
0.037348475 -0.03907071 0.20824954 0.01946284 0.109977186 0.21710597 -0.18082969 -0.035690874
-0.14960141 -0.1086833 -0.23508173 -0.1620636 -0.0010179129 0.33768404 0.15513186 0.21816754
0.006792436 -0.33872917 -0.12403598 0.0037480637 -0.33965033 0.017699175 0.18924351 0.14004937
0.0050231353 0.17966115 -0.14219232 0.0849379 0.011565192 0.12806407 -0.2822608 -0.09803138
0.24924645 -0.2905412 -0.21718901 -0.07098575 0.21262173 0.059214257 -0.13379148 0.1141243
-0.055569533 0.017684115 -0.2384476 0.10023316 0.13711163 -0.05940448 0.24045941 -0.20433246
-0.1483923 -0.06687535 -0.18015887 0.24587683 0.12040954 0.07868124 0.10852963 0.073050305
0.067888655 0.17113167 -0.040234752 -0.2981995 -0.112311244 -0.103634275 -0.056414675 -0.07166004
-0.21429656 -0.077169344 0.12806499 0.14244886 -0.17663923 -0.07936024 0.2165199 0.2162955
0.14252669 -0.045947477 0.0931256 0.18615387 -0.057570606 0.11497097 0.09243674 -0.09929014
-0.0839723 -0.13959222 0.17407513 0.11211002 -0.09461945 -0.30419216 -0.08277935 0.1730945
0.032295063 -0.108561926 -0.011424647 -0.1551645 0.07103606 -0.25577566 -0.23649384 0.2507979
-0.042536747 0.1532608 0.009941525 -0.17740597 0.00480523 -0.26688394 -0.15972975 0.08879417
0.0128770545 0.10369942 -0.04663572 -0.15098262 -0.12777886 -0.12768821 -0.06131936 -0.037130628
-0.13859431 -0.14079425 -0.030825896 -0.3241689 -0.06017763 0.17414816 0.04037575 0.08368933
0.06687399 -0.2786029 -0.123868786 0.027658334 -0.21227327 0.04314568 0.16532564 0.22493091
-0.2581 -0.018336888 0.08237785 -0.11334395 0.121142045 -0.11279051 -0.14901066 -0.20563248
0.15700059 0.065866515 -0.19005334 0.1527032 -0.2213612 -0.15714641 0.12171042 0.05679446
0.0058821156 -0.13792889 0.2771878 0.13472918 -0.0375366 0.34254968 -0.086504586 0.13279961
0.09571111 0.2455251 0.1601394 -0.215672 0.0577462 -0.3218834 -0.17490494 0.17873707

fc3.bias f4 [64]
00000000: 3784 2fba 0ec7 cabc 7161 a0bc 97b2 02bc
00000010: b950 c4bc c911 8cbc 241d f6bc 7ec2 3d3c
00000020: d1ed 4dbc 2001 703d 0fe1 01bc 329e 71bc
00000030: 5422 d83c b225 123d 8b66 31bd 909c 43bc
00000040: 9f49 90bb 527a 79bd 4dc2 fabb d597 6f3c
00000050: a0e3 9f3c 5068 8c37 53b1 7ebb c405 c13c
00000060: dbc8 8dbc e6ad cdbc 8450 c0bc bd3f 8f3c
00000070: 0fc8 8cb7 43c9 39bd b7ae d13c 41b6 32bc
00000080: 49c4 093d 87c7 053d b483 8e3c 082c 6a39
00000090: 3804 bbbb e17c 2d3c a5cf 45bc 683d c3bc
000000a0: e974 04bd 2146 8fbc b2fd 4bbd c90c c53c
000000b0: 60eb 4b3c 76d6 7e3c 3397 97ba 30a8 8d3c
000000c0: 11c0 aebc 69d7 3c3b c9c4 753b 7f8e a0bc
000000d0: ccf4 8b3c f045 f8bc 8a54 8f3c 0065 21bd
000000e0: 59e5 fe3c 9674 533d 916a 89bc c5db 0d3d
000000f0: f93b 7f3c 7a81 92bc ee15 38bc 5dd0 203c
-0.0006695422 -0.02475312 -0.019577714 -0.007977149 -0.023964273 -0.017098324 -0.030043192 0.011582015
-0.012568907 0.058594823 -0.007927193 -0.014747189 0.026383556 0.03568048 -0.043310683 -0.011939183
-0.0044033076 -0.06090767 -0.007652557 0.014623602 0.01951772 1.6737875e-05 -0.0038863018 0.02356232
-0.01730769 -0.025107335 -0.023475893 0.017486447 -1.678246e-05 -0.045357954 0.025596006 -0.0109077105
0.033634458 0.032660987 0.017396785 0.00022332382 -0.00570729 0.0105888555 -0.012073432 -0.023832992
-0.032338057 -0.017489495 -0.04980249 0.024053948 0.0124462545 0.015554061 -0.0011565447 0.017292112
-0.021331819 0.0028814918 0.0037501326 -0.019599197 0.017084502 -0.030306786 0.017496366 -0.03940296
0.03111522 0.051624857 -0.016774448 0.034633417 0.015578263 -0.017884005 -0.011235697 0.009815303

fc4.weight f4 [23, 64]
00000000: d764 3c3d 3b7c 68be c671 c53e 62d6 3abd
00000010: 575a a1be c927 ad3e c056 18bf 7f16 65bf
00000020: c6e3 0e3f e35f 1cbf 2904 8bbd 1678 15bf
00000030: 4384 af3e 6bb0 8fbe cc97 2ebf 4620 143e
00000040: 58f4 dbbe 720e bdbd 9d0a 2bbf b972 cd3e
00000050: 49f3 1cbf 0cfc 60be e3c4 d23c 5679 84bf
00000060: 4722 813e 0ece ddbe 4186 cdbe aeee 323f
00000070: 2a5d 063e 8ec7 07bf 15c1 66bf 634d 2f3f
00000080: 12c2 4cbd fad2 20bf ee6d 7ebe 0c37 bcbd
00000090: 50ef 293c 3e8e 5bbd 0f0a 143e bcff dfbe
000000a0: 376b 1abe 5e91 3bbf 2790 aebe aaec 19bf
000000b0: 0a02 5d3e af4d edbe 2d66 24bf 178a 7ebf
000000c0: 984c eb3d e400 7abf 0617 b93e ae2e 12be
000000d0: aeea 3a3e bdaa 8a3e 18b7 92bf 42ae 1bbf
000000e0: 8469 08bf 2890 e3be a3fd 17bf ee83 013e
000000f0: 9b99 b6be a4e3 563e c547 893e 7225 aa3c
00000100: 9484 463c 9074 123b c754 08bc 5205 863d
00000110: 8eb1 a03c 9c2e 0abd e847 d6be fb28 43be
00000120: 1040 10be 3bb8 0a3e 9356 50be 91f0 bfbe
00000130: ef0d d2be 00f0 d3bd d9a7 b03d b571 003e
00000140: 295d 03bf 501e 1fbd c84d 10be 32a8 153e
00000150: e1ad bfbe 7c41 083e cf7a c83d 26f3 87bd
00000160: 01ef 15be 7c12 973c 1fda 78be caa5 5cbe
00000170: 2ad6 253e dc82 c4be c644 0f3e 0674 9dbe
00000180: fed2 dcbe 2df8 113e 5301 2f3d 00ca ac3e
00000190: ceef 9dbc bf81 073e c874 fabd eb9c d13b
000001a0: 7054 23be 68f1 20be 8ea6 2bbe e822 f8bd
000001b0: ed69 0bbf fa2c 16bf 168c 89bd 97fe 46be
000001c0: a475 5c3d ea9f a53d 8672 09be cc07 4bbe
000001d0: fd07 92be d754 713e 969c fbbd 3b51 0b3e
000001e0: b437 44bd a4a2 8dbd 67ef 5abf 81f9 893e
000001f0: b0d1 8fbe 1616 8cbe d0be 7b3d 223b d63d
00000200: 27fe 363e 72f8 abbe aaee adbe 3b20 67be
00000210: efa4 a0be 039c 5fbe 1582 2cbe 93e3 73bd
00000220: 6547 e0bd 09a4 943e 5c88 00bc 5ac9 293e
00000230: 026b 743e 919d c93d 381d 09bf 1525 3ebe
00000240: b5ef 433e 45de bbbe 1e2b 7e3e 6e13 8bbe
00000250: 9b60 e8be e214 d93d 86fa 40bf 39b0 293e
00000260: c37f d3be a896 803d ef9d 0e3e 1db7 16be
00000270: 1ba0 2ebf e50a 993e 08fd 42be 32a1 98be
00000280: a9e3 293e f460 37bf 7e6a c2be c2cd 9c3e
00000290: 391e 6abe 816f 79be c7df 21be 60e9 b0be
000002a0: f3fd 30be f1eb acbe e251 09be cdc9 813e
000002b0: c19c 41be 5b2a 533e e1d6 a83d c58d 533e
000002c0: ecf1 9dbd e484 cdbe e59b d0be 49e9 893e
000002d0: afc6 39bf 8560 98be 51d9 02bf bf05 a03d
000002e0: b239 1e3e 28ac a7be 7ff5 813e 0307 50be
000002f0: d41f 6c3e 90e8 c9bd c63a 1f3c 9271 01be
00000300: 0a7f 8fbd d9df 5f3d eca3 b13e 5301 65bd
00000310: a627 60be 08b6 6c3d a239 15bc 2efe a5be
00000320: 4c1e 633f b052 df3d adcc 8abc bf7d 74be
00000330: 206e 28bd 1786 463c ceba 7fbd 41b8 27bf
00000340: 27fa 613d a7d5 d53e 4f82 41be 7a33 a4bd
00000350: 7c7d bb3e 49b5 e3bd 47c2 2fbf 10f6 32be
00000360: b485 203e c644 d43e 42d9 e93c 848f ad3e
00000370: 182b 55be 9d2a 12be ccc7 74be a00c 0e3f
00000380: 709e 3bbe dbaa 4bbe 1560 6f3d 4377 763d
00000390: 1cf3 02be 1367 ba3e 20d3 6dbe 794d de3e
000003a0: 6361 983e d6c3 803b 3a35 883e 2642 ef3e
000003b0: 4135 2b3e a001 0e3e fa5d 03be cc16 b0be
000003c0: b473 eabc bb84 a3be 5c13 8d3c 4723 893e
000003d0: 803f a7bd a0eb 1ebe 6f1d ccbd ebf4 ea3d
000003e0: 9143 c2bd d2cf a83e a64e 2ebd e2bb 27be
000003f0: f9fd e8be f9c8 96bd 92d1 11be 108c b13e
0.045994606 -0.2270364 0.38563365 -0.045614608 -0.31514236 0.33819416 -0.5950737 -0.8948745
0.55816305 -0.6108381 -0.06787903 -0.5838636 0.34280595 -0.28064284 -0.68200374 0.14465436
-0.42959857 -0.09231271 -0.6681307 0.4012659 -0.61308724 -0.21971148 0.025728649 -1.0349529
0.25221464 -0.4332127 -0.4014149 0.69895446 0.13121477 -0.5303887 -0.9013837 0.6847746
-0.049989767 -0.62821925 -0.24846622 -0.09190187 0.010371998 -0.05360245 0.14456962 -0.43749797
-0.15079962 -0.7326869 -0.34094355 -0.60126746 0.21582809 -0.4634833 -0.6421841 -0.9942946
0.114892185 -0.9765761 0.36150378 -0.1427562 0.18253586 0.27083388 -1.1462126 -0.6081277
-0.53286004 -0.4444592 -0.59371394 0.12647983 -0.35664067 0.20985276 0.26812568 0.020769808
0.01211657 0.0022347309 -0.008320994 0.065439835 0.019615915 -0.033735856 -0.41851735 -0.19058602
-0.14086938 0.13546841 -0.20345525 -0.37488225 -0.41026255 -0.10348511 0.086257644 0.12543376
-0.51314026 -0.038847268 -0.14092171 0.14614943 -0.37437347 0.1330623 0.09789049 -0.06638174
-0.14641954 0.018441431 -0.24301957 -0.21547619 0.16194978 -0.38381088 0.13991079 -0.3075258
-0.43129724 0.14254828 0.042725872 0.33747864 -0.019279387 0.13233088 -0.122293055 0.00639688
-0.15950179 -0.15717089 -0.16762754 -0.12116033 -0.54458505 -0.5866238 -0.067161724 -0.19433056
0.05382313 0.08087142 -0.13422593 -0.19827193 -0.2852172 0.2356752 -0.12285726 0.13605206
-0.047904685 -0.06915787 -0.8552155 0.2694817 -0.28089666 -0.273606 0.06146127 0.104604974
0.17870389 -0.33587986 -0.3397115 -0.22570889 -0.31375834 -0.21836857 -0.16846497 -0.059543204
-0.109511174 0.290314 -0.007845011 0.16580716 0.23868945 0.098445065 -0.5356021 -0.18568833
0.1913441 -0.36693016 0.24821135 -0.2716326 -0.45386204 0.10599686 -0.7538227 0.1657113
-0.41308412 0.062787354 0.13927434 -0.1471829 -0.6821305 0.29891124 -0.19041836 -0.29810482
0.16590752 -0.71632314 -0.37971872 0.3062573 -0.22863092 -0.24358942 -0.1580802 -0.3455305
-0.17284374 -0.3377376 -0.13410142 0.25349274 -0.18907453 0.20621626 0.0824411 0.2065955
-0.077121586 -0.4014045 -0.40743938 0.26935795 -0.7256879 -0.2976114 -0.5111285 0.07813596
0.15451697 -0.32748532 0.2538261 -0.20315175 0.23059016 -0.09858811 0.0097186025 -0.1264098
-0.07006653 0.054656837 0.34695375 -0.055909466 -0.21890125 0.057790786 -0.009107979 -0.32420486
0.88718104 0.10904443 -0.0169433 -0.23876093 -0.04112065 0.01211693 -0.06243401 -0.65515524
0.055170204 0.41764566 -0.18897365 -0.08017631 0.36619174 -0.11118562 -0.6865582 -0.17476678
0.15676004 0.4145872 0.02854598 0.33898556 -0.2081722 -0.14274068 -0.23904341 0.55488014
-0.18322158 -0.19889395 0.05844124 0.06017233 -0.12788051 0.36406764 -0.23225069 0.43418482
0.297618 0.0039295955 0.2660311 0.46730155 0.16719534 0.13867807 -0.12828818 -0.34392393
-0.028619625 -0.31937203 0.017221145 0.26784727 -0.081664085 -0.15519571 -0.099665515 0.11472496
-0.094855435 0.32971054 -0.042555474 -0.16380265 -0.45506266 -0.07362551 -0.14240101 0.34677172

fc4.bias f4 [23]
00000000: 0a8a 9bbe a0fe 47bc 9103 81bd 467c 0e3e
00000010: 5e08 1c3e a4f1 3d3a d28e 3fbe 3cdd 8dbe
00000020: fe0b 193c e1d5 39be 724a 6ebe 4caa 053e
00000030: 6baa 133e 7ed1 9cbe e650 7abd 7da1 a5be
00000040: 52a4 f9bd 5182 93bc a320 81be e4ed a2be
00000050: e03a 683d 0fdb 583e cfaa 183e
-0.30378753 -0.012206703 -0.06299508 0.13914594 0.15237567 0.0007245785 -0.18706825 -0.2770785
0.009341238 -0.18147995 -0.23270586 0.13053244 0.14420478 -0.3062858 -0.061112307 -0.32349768
-0.12189545 -0.018006476 -0.25220212 -0.3182212 0.056696773 0.21177314 0.14908908

bn1.weight f4 [256]
00000000: dc12 4f3f 97d6 843f c13c 503f 1f97 803f
00000010: 66c6 563f bbeb 873f b77b 573f 2d03 873f
00000020: 89b2 613f 5237 823f cd49 4e3f f1ab 913f
00000030: 3e23 3d3f 8fe2 603f 9b7b 953f c91e 863f
00000040: fc89 8d3f b1a3 503f 55f2 623f 5280 a23f
00000050: 8186 613f 7b71 4c3f df9e 583f 1d0c 4d3f
00000060: a96b 8f3f ccc1 7e3f 3819 6e3f cea0 8b3f
00000070: 3195 5d3f f2d2 5c3f c50d 513f 9035 6e3f
00000080: 8250 673f e13f 493f 62d3 8d3f a1a9 863f
00000090: abf1 583f dd00 973f 3291 593f 472a 7d3f
000000a0: 451a 843f d5e0 613f a719 5c3f 0226 663f
000000b0: 7522 6a3f 4d4b 3a3f 13da 643f 6c07 5f3f
000000c0: 50fd 433f 9938 803f f68c 683f 8b8a 4e3f
000000d0: f14d 803f 7e28 563f b893 743f 5032 433f
000000e0: 6cc6 843f 8349 4c3f a0da 843f 3061 753f
000000f0: 3324 523f 834a 573f c0d1 613f 9686 903f
00000100: 7f48 5f3f a2c1 503f 08df 2e3f 5beb 5f3f
00000110: 8436 5e3f 475c 8c3f 85e6 7f3f 2ea7 813f
00000120: 317f 793f f8a9 4f3f 4ff0 503f aeeb 3d3f
00000130: 7964 6e3f 8308 6d3f 4442 4b3f 9d35 833f
00000140: 3926 7b3f 7ca2 393f 229d 503f 7c13 923f
00000150: bcc7 443f 7f76 643f 3b30 723f 0093 453f
00000160: 553e 753f 7b49 9d3f 0922 4f3f b0b3 813f
00000170: 2889 543f b9db 4f3f 05e4 563f 9f0f 513f
00000180: 6327 2f3f 9a44 4e3f 76f5 8a3f 4de0 5b3f
00000190: c3f4 7a3f beaf 7d3f 8499 a33f ed71 723f
000001a0: d5cf 5e3f fb36 5b3f 412f 373f 236a 6b3f
000001b0: 135d 883f 0be2 833f 3515 5a3f e7c3 483f
000001c0: da82 4e3f 1275 713f b87d 6c3f a36c 4a3f
000001d0: 6f66 893f a256 733f db6d 9b3f 7693 743f
000001e0: 4e5f 593f 4350 4f3f 466a 843f 7466 523f
000001f0: 1023 593f 12f1 7c3f 1b80 873f e0bc 7f3f
00000200: 6caa 593f ad4f 693f 362a 353f 194a 813f
00000210: 7036 843f 51fb 863f 6d57 763f 3ce3 7a3f
00000220: 56a0 6f3f 82bc 7a3f 80c7 3f3f 0d5d 5b3f
00000230: f2c2 6a3f d03b 493f 2cd8 6c3f b35a 673f
00000240: a8b6 733f f5c8 873f 874a 803f ac50 683f
00000250: 2184 433f 5c70 633f e3bc 7c3f 8f7b 833f
00000260: 1906 883f bd70 5d3f da85 7b3f 8e6d 403f
00000270: b4a1 793f 775d 813f 6439 753f 60f1 863f
00000280: 4658 553f ca94 7e3f c8a2 543f 2fbe 853f
00000290: 046c 523f 526a 643f 4358 733f eed9 7c3f
000002a0: ea11 603f 89ad 503f abff 6b3f 3531 5f3f
000002b0: 53a3 5b3f ab48 633f 0c73 483f 4f50 4d3f
000002c0: c7bf 623f 842e 4b3f 37ba 643f 68ae 5b3f
000002d0: ce91 8b3f 061f 5b3f 2c83 523f efb3 6a3f
000002e0: ac79 803f fc5f 813f 3e91 583f 9d9d 803f
000002f0: 355c 843f 22a8 553f 294c 893f c136 973f
00000300: 491d 4f3f 5465 543f 9b81 5a3f d5f1 6c3f
00000310: 3013 523f bf68 5d3f b54a 4e3f 5b36 593f
00000320: 6786 8e3f 983f 3e3f 52c7 563f 4bcf 5f3f
00000330: 1ec9 603f d94a 7f3f fdab 473f 8c8c 583f
00000340: 0cd4 883f f45f 8d3f c986 7e3f 9b8e 713f
00000350: f3b4 293f e471 623f dfe6 953f 034b 873f
00000360: 5ec3 413f c906 803f 5ca5 8a3f 51b6 733f
00000370: 8f46 8c3f 414f 803f a26a 573f e10c 7d3f
00000380: 644a 543f ad24 693f 2258 923f c49f 903f
00000390: b63c 863f 1706 8a3f 9ca1 853f 7a68 473f
000003a0: 7fe8 413f 0ee4 3b3f 3d38 473f d83c 453f
000003b0: 9786 5b3f 0045 583f c8fe 863f b1f4 593f
000003c0: 353d 633f af66 4d3f b6b3 6e3f 2fd1 503f
000003d0: 6a28 483f 0075 5d3f 4acb 4b3f 03ce 723f
000003e0: 2c86 6d3f 2d26 653f 9e95 6a3f 2a44 4d3f
000003f0: 1a12 933f a2b7 7b3f f78f 4a3f f8f4 823f
0.8088815 1.0377988 0.81342703 1.0046118 0.8389648 1.0618814 0.8417315 1.0547844
0.8816305 1.0173132 0.8058136 1.1380597 0.738819 0.878457 1.1678346 1.0478145
1.1057734 0.81499773 0.8865102 1.269541 0.8809586 0.7986066 0.8461742 0.8009661
1.120473 0.9951446 0.9300723 1.0908449 0.86555773 0.86259377 0.81661636 0.9305048
0.9035722 0.78613096 1.1080134 1.0520517 0.84743756 1.1797138 0.84987175 0.98892635
1.0320517 0.8823369 0.8597664 0.89901745 0.9145883 0.7277115 0.89395255 0.871207
0.765584 1.0017272 0.9084009 0.8068015 1.0023786 0.83655536 0.955379 0.76248646
1.0373054 0.7979967 1.0379219 0.9585142 0.82086486 0.8409807 0.8821068 1.1291072
0.87219995 0.8154546 0.6830907 0.874685 0.86801934 1.0965661 0.9996112 1.0129144
0.97459704 0.81118727 0.8161668 0.74187744 0.9312206 0.9259111 0.7939799 1.0250736
0.981052 0.72513556 0.81489766 1.1412196 0.7686727 0.8924331 0.94604844 0.7717743
0.95798236 1.228805 0.8091131 1.0132961 0.83021784 0.81194645 0.8394168 0.8166446
0.68419474 0.8057343 1.0856159 0.8588913 0.98029727 0.99096286 1.2781224 0.94705087
0.87035877 0.8563077 0.7155648 0.91958827 1.0653404 1.0303358 0.8518861 0.78423923
0.80668414 0.9431926 0.9237933 0.79072016 1.0734385 0.95054066 1.21429 0.9553751
0.8491105 0.80981845 1.0344932 0.8218758 0.84819126 0.98805344 1.058597 0.99897575
0.8502567 0.911372 0.70767534 1.0100738 1.0329113 1.0545446 0.9622715 0.9800298
0.9360403 0.9794389 0.7491379 0.8568886 0.9170371 0.7860689 0.9251735 0.9037277
0.95200586 1.0608202 1.0022744 0.90748096 0.7637349 0.8884332 0.9872572 1.0272082
1.0626861 0.8650015 0.98251116 0.7516717 0.97512364 1.0106648 0.95790696 1.0542412
0.8333782 0.99445784 0.83060884 1.0448664 0.8219607 0.8922473 0.9505655 0.98770034
0.87527335 0.81514794 0.92186993 0.8718446 0.8579609 0.8878276 0.7830055 0.80200666
0.8857388 0.7936785 0.8934664 0.85813 1.0903871 0.85594213 0.822314 0.91680807
1.0037131 1.0107417 0.8459662 1.00481 1.0340639 0.83459675 1.0726367 1.1813585
0.8090406 0.82967114 0.8535401 0.92556506 0.8206053 0.86487955 0.80582744 0.84848565
1.1134766 0.74315786 0.8389789 0.8742568 0.8780688 0.99723583 0.7799681 0.8458946
1.0689712 1.1044908 0.99424416 0.94358224 0.6629173 0.88455033 1.1711081 1.0569767
0.7568873 1.0002071 1.0831714 0.9520007 1.0959033 1.0024186 0.84147084 0.98847777
0.8292601 0.9107159 1.1433146 1.1298757 1.0487278 1.0783108 1.0439944 0.77893794
0.75745386 0.7339486 0.7782019 0.77045965 0.8575224 0.84480286 1.0546503 0.85138994
0.8876527 0.8023481 0.9324297 0.8156919 0.78186667 0.8650665 0.7960707 0.948456
0.92782855 0.89511377 0.9163455 0.80182135 1.1489899 0.98327076 0.7912592 1.0231009

bn1.bias f4 [256]
00000000: b0ce a2bc 3fb1 5cbe e956 32be c10b 0abd
00000010: fa65 41bd 9dc6 653b 06be 29be 102f 52be
00000020: c93b 99bd 34c8 a9bd 805a 92be 5243 e7bc
00000030: 4a98 8cbe 0d8d ccbc b5f7 42bd 7e58 1a3d
00000040: f7b9 043e 3c02 e5bc e892 8fbe c8b4 dc3b
00000050: fdb9 16be 850b 35be 166f acbe 3482 08bc
00000060: fed2 9a3d 898e 65bd b4aa edbd af65 2d3e
00000070: 3ad5 aebd 960b 37be 62a5 95bd 533e a7bd
00000080: 0c42 4abe 3cd4 fdbc cc06 d13d 159b c03d
00000090: 9621 6ebe 92dd 1e3d 9bd6 46bd 5d6c b6bd
000000a0: 9f7c 69be ce29 42bd acad 8abe c591 9ebd
000000b0: e470 37be afcd 6abe f53c 4ebe 2438 0e3d
000000c0: 3e88 46be 54d9 cdbd 8c08 bfbd e365 7fbe
000000d0: f44d 433d 478b 81bd 3e08 20be 6bfe 6abe
000000e0: a6c4 20bd 84da 8c3d 91c3 23bd da76 cdbd
000000f0: eebc d0bb 7530 57be cb9a edbc 23d9 e83d
00000100: 98ee 93bc 13aa fcbd b545 98be 69af 01be
00000110: 03c3 423d 617d 9cbd 1d5b 583b a0e7 bcba
00000120: 2bdd 233c 6dac 4cbe 777c 21be 97d9 5cbe
00000130: ebc6 32be 2f06 b1bc 9dfd 3fbe 6df7 76bd
00000140: c50e 83bd 98d1 82be 8ac9 c0bd e467 8bbd
00000150: 9a66 3bbe 2dfd adbd a9d5 79bd 6fcf 18be
00000160: 9fda dcbd ac50 153e 9d77 68be d790 813d
00000170: 2d7f a9bd 7412 a73c 9b02 04be 6115 40be
00000180: 8b71 3ebe 1581 17be 7eaa 933c 1558 f7bd
00000190: 9292 553b 0e07 96be d7a0 ea3d d045 8a3d
000001a0: 7a84 c8bd 5a50 1dbe 9693 7abe 82f3 d9bd
000001b0: b661 42bd 5530 943d d9c1 cdbd e888 08be
000001c0: 179b 50be 6ecc 5bbe 6b47 dbbd 0ef1 75be
000001d0: 9c87 2e3e 60c5 fcbb 9e0a dfbd d04b 0abe
000001e0: 3091 4fbe 5374 fbbd 2357 69bd a147 4dbe
000001f0: 6d09 9fbe 48a5 40be 4f04 6abc 31d7 a7bd
00000200: 28f6 22bd 3a6d 14be 3456 8cbe 3721 c13c
00000210: 851d a5bd cf88 7d3e 2003 5bbe 6a1c e4bd
00000220: f950 2dbe 05d5 8cbd 010f 7abe 33fa 8fbe
00000230: 1a53 78bd d65a 14be d6c6 d6bd 781d 21be
00000240: cd88 9dbd 8e2c f03d 577c 253e a994 763c
00000250: cc24 32be 0469 bfbd c1ff 3fbe 9516 ecbc
00000260: 097e 02be 8422 cfbd 5446 76bd f5b7 77be
00000270: aa37 b5bd 1544 96bd 2660 b0bd 58f1 e2bd
00000280: 7b03 cabd 1540 3ebd 9ae9 95be 9e17 42bc
00000290: 5046 cabd f653 31be a958 fdbd d7c8 063e
000002a0: 9f1d 39be d804 34be 7bad 61be 81a6 2dbe
000002b0: 8120 b53d 5116 0ebe 1920 32be d966 b1bd
000002c0: 9217 35bd 0ee6 49bc 4720 c4bc 9a9c 20be
000002d0: 1b4b edbc e0df 39be 7cac 9fbd e248 83bd
000002e0: 5f57 99bd 1e9c 1ebd fbab 2abe 0372 d4bd
000002f0: 3b9e 2bbc f709 bb3c 447c 0d3e 8bfc f73c
00000300: f25e a1be 079e 88bd 8b99 90bd 3823 65be
00000310: 9180 26bd 5a4a 58be 6ea1 31be c24f 7dbe
00000320: 71f9 273e c680 50be a5f4 98bd 827a 1bbe
00000330: 39e0 673d 2c79 33be 2d5e 05be 2d6e 66bb
00000340: 55ec 70bd 08cd 89bd 2c62 1dbe 2456 1e3e
00000350: 7584 8bbe e534 9cbd bd98 83bc a72c 4ebd
00000360: 130b 09be 6376 d5bd 24b7 02bc 6b08 bf3d
00000370: 8148 fd3d 87b1 05bd b809 02be 22b7 8dbc
00000380: 2fd6 32be 75f2 3e3d 76bc be3d ff9c fb3c
00000390: 975a ea3d 886f 05bd b651 683c 4287 8fbe
000003a0: ac68 dbbd 6b14 93be 405e 1bbe 2390 7fbe
000003b0: 9d71 37be 6b83 8dbe a84c 553d 23cf c1bd
000003c0: 0fcd b3bd 2221 e2bd 43ab cabd 0951 1cbe
000003d0: b3ea f0bd 5e9b 09be 4b57 80be 9ed6 2ebe
000003e0: c325 82be 3f7a f8bd e263 15be 60b3 e53c
000003f0: d770 26be f0ed 35be e565 56be a4fc d4bc
-0.019873947 -0.21551989 -0.17415966 -0.033702616 -0.047216393 0.003506101 -0.16576394 -0.20525765
-0.07482106 -0.08290139 -0.2858467 -0.028230343 -0.27459937 -0.024969602 -0.047599513 0.03768205
0.12961565 -0.027955167 -0.28041768 0.006735418 -0.14719386 -0.17680176 -0.33678502 -0.008331824
0.07559775 -0.056044135 -0.11604825 0.1693332 -0.085367635 -0.17875513 -0.07306935 -0.08166184
-0.19751757 -0.03098499 0.102063745 0.094045796 -0.23255 0.038785525 -0.048544507 -0.089073874
-0.22801445 -0.04740315 -0.27085626 -0.07742647 -0.17914158 -0.22930025 -0.20140441 0.03472151
-0.1938791 -0.10051218 -0.09327802 -0.2494121 0.047681764 -0.06325393 -0.15628144 -0.22948615
-0.03925004 0.06877616 -0.03998143 -0.10032435 -0.0063701784 -0.21014579 -0.029004475 0.113695405
-0.018058106 -0.123371266 -0.29740682 -0.1266457 0.04754926 -0.07641102 0.0033013292 -0.0014412291
0.010001461 -0.1998765 -0.15770136 -0.21567379 -0.17458694 -0.021609394 -0.1874909 -0.060294557
-0.063993014 -0.25550532 -0.094134405 -0.06806925 -0.18300858 -0.08495555 -0.060994778 -0.1492288
-0.10783886 0.14581555 -0.22701879 0.06326454 -0.0827621 0.020394541 -0.12891619 -0.18758155
-0.18598 -0.14795335 0.018025633 -0.12077347 0.0032588583 -0.29302257 0.11456459 0.06751597
-0.09790893 -0.15362683 -0.24470362 -0.106421486 -0.047456466 0.07235781 -0.10046739 -0.13333476
-0.20371662 -0.21464702 -0.10706981 -0.24017736 0.17043918 -0.0077139586 -0.10890697 -0.13505483
-0.20270228 -0.122780465 -0.056967866 -0.20046856 -0.3106188 -0.1881305 -0.014283254 -0.081953414
-0.039785534 -0.14494792 -0.27409518 0.023575408 -0.08062271 0.2475922 -0.21387911 -0.11138232
-0.1692542 -0.06876568 -0.24419786 -0.28120574 -0.060626127 -0.14487776 -0.10487144 -0.15733898
-0.07692108 0.11727248 0.16160713 0.015050092 -0.1739685 -0.09346202 -0.18749906 -0.028819362
-0.12743391 -0.10114005 -0.060125664 -0.24191268 -0.08848508 -0.07337204 -0.08612089 -0.11081189
-0.09863945 -0.046447832 -0.29279786 -0.011846451 -0.09876692 -0.17317185 -0.12370426 0.13162552
-0.18077706 -0.17579973 -0.22038834 -0.16958047 0.0884409 -0.138757 -0.17395057 -0.08662195
-0.04421193 -0.012322916 -0.023941172 -0.15684739 -0.028966477 -0.18151808 -0.07796571 -0.06410386
-0.07487368 -0.038723104 -0.16667168 -0.103733085 -0.010474737 0.0228319 0.13816935 0.030271789
-0.3151775 -0.06670766 -0.07060536 -0.22376716 -0.040649954 -0.21122113 -0.17346737 -0.24737456
0.16403748 -0.20361623 -0.07468537 -0.15183452 0.05661032 -0.17526692 -0.13024206 -0.0035160885
-0.058819134 -0.0672856 -0.15369481 0.15462548 -0.27249494 -0.07627276 -0.016064042 -0.050335553
-0.1338313 -0.10422971 -0.007978234 0.093277775 0.12367345 -0.032640006 -0.1269902 -0.017299239
-0.17464517 0.046617944 0.0931329 0.03071451 0.1144306 -0.032577068 0.014179638 -0.2803288
-0.10713324 -0.28726515 -0.15172672 -0.24957328 -0.17914434 -0.27639326 0.05207506 -0.09463336
-0.08779346 -0.11041476 -0.09895947 -0.15265287 -0.11763515 -0.13438174 -0.250666 -0.17074057
-0.25419435 -0.121326916 -0.14588884 0.028039634 -0.16253982 -0.17766547 -0.20937307 -0.025999375
