Parte II/TEC_AD_TP2/models/fcn_best_run_08_seed_88.pt (torch, 229038 bytes, 20 tensors)

fc1.weight f4 [256, 41]
000000 50 9f b8 3e c5 2e 9a bd c1 7d 2b be e4 e6 33 be
       0.36059046 -0.07528452 -0.1674719 -0.17568547
000010 45 bc 1c bf 25 4b 15 bc 22 c2 80 bf 57 1d 64 3e
       -0.61224777 -0.009112154 -1.0059245 0.22276817
000020 45 f6 10 bf 9c 37 89 3d 42 ce bc bc a5 cd b5 3d
       -0.5662578 0.0670006 -0.02304757 0.08877114
000030 53 25 fd 3d 17 d4 01 be e0 67 2c be ad 45 98 3e
       0.12360635 -0.12678562 -0.168365 0.29740658
000040 62 d8 76 3e 75 c7 d6 bb df 0b 64 be 8c 3b 08 3e
       0.24105981 -0.006554539 -0.22270153 0.13303965
000050 d1 54 7d 3e 02 51 13 be e0 93 89 be b9 2f ff bd
       0.24739386 -0.14386371 -0.26870632 -0.12460274
000060 86 78 9c 3d 93 b6 8f bd 5d f8 77 bc 4d 05 0a 3e
       0.076401755 -0.07017245 -0.015134898 0.13478585
000070 e8 00 ee be 8f 45 08 3f 64 cc 99 3e 56 81 59 be
       -0.46485066 0.5323114 0.3003875 -0.21240744
000080 8e 8f 87 be ed 92 52 be bf 78 ff 3d e3 74 2b 3e
       -0.2647671 -0.2056386 0.12474202 0.16743807
000090 7f 9e 99 3e db b7 cf bd 2f 9d d4 bd d4 22 f6 bd
       0.30003735 -0.101424895 -0.10381543 -0.12018362
0000a0 ac 39 70 bd 67 4d 1b 3e a1 22 ad be df 3f 50 3e
       -0.05864875 0.15166245 -0.33815482 0.20336865
0000b0 54 08 14 be 56 39 db be 12 5e 68 be 33 7e 94 bd
       -0.14456302 -0.4281718 -0.22692135 -0.07250633
0000c0 99 08 77 be ed 55 02 bf 21 04 82 3d 9c 7d da bd
       -0.24124373 -0.5091236 0.06348444 -0.10668489
0000d0 ea fb 5f 3e d4 c0 98 3d 3d c6 3d 3e 05 bd 92 bc
       0.21873441 0.07458654 0.18532653 -0.017912397
0000e0 b3 a2 a6 be ce d0 e2 bd aa e6 ce 3c 96 b8 92 3e
       -0.32546005 -0.110749826 0.025256474 0.28656453
0000f0 3e f0 ef 3c 22 4a 18 be 9c f3 ed bd dd a7 68 3c
       0.029289361 -0.1487203 -0.116187304 0.014200178
000100 5f d9 c2 3e 7e 6c df 3e 00 f4 87 3e 67 85 f6 3b
       0.38056466 0.4363746 0.26553345 0.007523227
000110 3a 63 af 3c 16 c8 c1 3e 63 f7 df 3d b0 70 a4 be
       0.02140962 0.37847966 0.10935857 -0.32117224
000120 db 42 4d 3e 03 74 a6 3e 71 7a 8f 3e cd db aa 3e
       0.20045035 0.32510385 0.28023103 0.3337082
000130 51 79 9d 3d 82 54 06 3e eb 2d fe ba 76 13 c1 3d
       0.07689155 0.13118175 -0.0019392347 0.0942754
000140 21 c8 19 3d 0d 90 ad 3d db 59 83 3e 8a ab 6f be
       0.037544373 0.08474741 0.25654492 -0.2340528
000150 2f c4 cb 3c 03 0e bb 3d 58 53 b4 3e 8c a9 e0 bd
       0.024873821 0.09133532 0.35219836 -0.109698385
000160 fc dd 04 3d b7 fc 2a be 6a 3f 19 3f 60 f7 59 be
       0.032438263 -0.16697966 0.5986239 -0.21285772
000170 82 af 97 bd e4 52 32 3c 16 f2 6a 3e 64 8b 60 3e
       -0.07406522 0.0108840205 0.22943911 0.21928173
000180 cf c3 16 bd 8d d2 1c 3e d8 2d cb 3c 47 18 8d 3e
       -0.03680783 0.15314694 0.024802133 0.27557585
000190 5b c2 26 3e e4 7b 8f 3e 4b 89 a9 be 20 bc 37 3c
       0.16285078 0.2802421 -0.3311256 0.011214286
0001a0 51 83 cf 3e 02 43 b7 3d f4 48 10 be 86 f0 2b be
       0.40529874 0.089483276 -0.1409033 -0.16790971
0001b0 1b 30 10 bf 4e f0 95 3e 6f 49 ff bd fc 71 ae 3e
       -0.56323403 0.292849 -0.12465178 0.34071338
0001c0 a0 7a 60 3e 09 e1 94 3e f6 f2 c0 3d 35 9e 11 bd
       0.21921778 0.29077938 0.09421341 -0.03555127
0001d0 db ba 51 3e c0 6f 8d 3c 57 f7 10 be 39 b2 16 3e
       0.20481436 0.0172652 -0.14156853 0.14716424
0001e0 83 cb 6a be 91 57 22 3e 2a cb b7 be f1 bc 85 3d
       -0.22929196 0.15853716 -0.3589719 0.06530178
0001f0 44 32 a8 3e a5 ba 33 3e a6 69 ca 3e 95 a6 90 3e
       0.3285085 0.17551668 0.39533728 0.28252092
000200 e2 ce 9c be cf df 9d bd 6c 23 2a 3d a5 50 61 3f
       -0.3062659 -0.07708704 0.041537687 0.8801368
000210 c6 5c 53 be 67 93 90 be 8b 4c 95 be 4e 60 fd bc
       -0.20640859 -0.2823746 -0.2915996 -0.03092971
000220 bd 82 17 3e fe bf 8c 3d bb 13 d9 bd 50 4a 44 bc
       0.14795966 0.06872557 -0.105994664 -0.011980608
000230 57 40 a0 3e e8 6c 39 be 5d dc 99 3d 2d b6 7b be
       0.31299087 -0.1810795 0.07512734 -0.24581213
000240 e9 cd 71 3e 2c 8f ea bd f0 5a df 3e 02 a7 c9 3e
       0.23613705 -0.11453089 0.43624067 0.3938523
000250 a5 a7 43 3e 24 cd 7f 3e 78 78 95 bd 41 6a 80 be
       0.1910692 0.24980599 -0.07298368 -0.25081065
000260 c3 a7 78 3d 4d ed 00 3f 5c 1c 52 3e 4a 8d bb 3e
       0.060706865 0.5036209 0.2051863 0.36631233
000270 f2 01 a8 3d 08 8e 82 be 2d 33 e1 3d 01 68 08 3e
       0.08203496 -0.25498986 0.10996089 0.13320924
000280 a9 d1 66 3e 9a be 6b bd 1d 77 97 3d a2 d2 93 3d
       0.22540917 -0.05755482 0.07395766 0.072179094
000290 0d 6d 94 3e 16 ae f3 bd c8 50 b3 be 8d e4 86 3e
       0.2898945 -0.11898439 -0.3502257 0.26346245
0002a0 94 19 0b 3e 96 8e a0 bd 98 33 e5 bd 8d 15 b2 be
       0.13583976 -0.07839696 -0.11191481 -0.34782067
0002b0 f2 83 c9 be 77 db a3 be 22 5a e1 3d 0f 45 ca bd
       -0.3935848 -0.32003376 0.110035196 -0.09876453
0002c0 a2 18 07 3e e7 c9 af be 71 4c 15 be 3a b3 61 3e
       0.1319299 -0.34333727 -0.14579941 0.22041026
0002d0 6f 5d 64 3e 25 99 a0 bd c2 5e 47 3e 6e c9 0f 3b
       0.22301267 -0.0784171 0.19469741 0.002194013
0002e0 8c 19 87 3e d4 79 c5 3e 15 a8 40 be 7d 8c 17 bc
       0.26386678 0.3856951 -0.18814118 -0.009249804
0002f0 2c 80 38 3d eb dc 44 3b 32 95 5c 3c 07 3d eb 3d
       0.04504411 0.0030038904 0.013463305 0.114862494
000300 09 61 08 3e a9 f1 f9 bb dd cb bf be 5d 86 3a be
       0.13318266 -0.007627685 -0.37460223 -0.18215318
000310 1c b1 bc 3e 58 d0 53 be 82 e7 b4 bd 93 6a 1e be
       0.36853874 -0.20684946 -0.08833219 -0.15470342
000320 34 ea 25 be 67 6a 6c 3d b0 17 04 bf d1 db c5 3d
       -0.16202623 0.05771866 -0.51598644 0.09661067
000330 0c 60 c4 be 44 cc 35 bd 32 20 36 bd 3d c5 c4 3e
       -0.38354528 -0.044384256 -0.044464298 0.3843173
000340 38 e0 9b bd 03 b5 25 bf 79 1f d2 3d 0f 63 64 be
       -0.07611126 -0.64729327 0.10259909 -0.22303413
000350 0f 6f 47 3e c0 17 a8 ba cb c9 76 bd 1a 69 07 3e
       0.19475959 -0.0012824461 -0.06025104 0.13223687
000360 b7 80 b6 be 90 5e b3 be 4a bb af be a3 e6 10 be
       -0.35645077 -0.35033083 -0.34322578 -0.14150481
000370 0a 36 d9 be f0 b0 ba 3d 85 9a a7 be 89 2c de 3d
       -0.4242404 0.091157794 -0.32735077 0.10848338
000380 35 81 8d 3e 89 33 f2 3d 62 73 b9 be 5d e1 83 be
       0.2763764 0.11826236 -0.36220843 -0.25757876
000390 bc 87 29 3e dc 4e d9 bd b7 71 30 3e 73 a9 c7 3e
       0.16555685 -0.10610744 0.17230879 0.38996467
0003a0 05 bb 84 3e a2 a2 8b bd fc 54 52 be ce 58 43 bd
       0.25923935 -0.06818129 -0.20540231 -0.047692113
0003b0 75 52 36 be 31 57 7d be 2e 61 99 be b6 4e 2e be
       -0.17804892 -0.24740292 -0.29956955 -0.17022213
0003c0 99 ac 94 be 4f a9 ec 3d 75 8b 10 3e 53 94 0a bf
       -0.29037932 0.115557306 0.14115699 -0.54132575
0003d0 2c 7f bc be ce 66 1d 3e 0f ef f0 bd 55 05 95 3b
       -0.36815774 0.15371248 -0.11764347 0.004547755
0003e0 35 3d 77 3e 56 d9 c4 3d 4a c2 4a bf 28 4a 2a 3d
       0.24144442 0.09611766 -0.7920271 0.041574627
0003f0 55 44 a8 3d d4 e3 83 3e 66 9f 83 be 4c e5 2a 3e
       0.08216158 0.25759757 -0.2570755 0.16689032

fc1.bias f4 [256]
000000 f2 cf 02 3b 82 f7 02 bc 97 19 07 bc c4 84 a8 3a
       0.001996037 -0.007993581 -0.008245847 0.001285695
000010 77 05 1f 3c 95 19 d5 3b ea 87 e0 3b 1b 55 a5 3b
       0.009705893 0.0065032938 0.0068521397 0.0050455458
000020 9c c9 38 bd 9e d8 1f 3c 26 9d 5c ba 80 2a 0f 3c
       -0.045114145 0.009756235 -0.0008415751 0.00873816
000030 5a d9 02 3d 61 b8 35 3b 41 af b9 3b 20 7e 5f bc
       0.031945564 0.0027728307 0.005666644 -0.01364091
000040 4c 66 cb bb c9 cc 8d bc ef af 0d bb 59 f8 5c 3c
       -0.006207263 -0.017309563 -0.0021619757 0.013486945
000050 41 20 87 bb 3f 4a 6b 3b 06 37 3d bb 67 5b b4 3c
       -0.004123718 0.0035902408 -0.0028871908 0.02201624
000060 38 29 24 3a 8f 7f 4c 3a d1 cd 16 bb 0e ac 55 ba
       0.00062622456 0.000780099 -0.002301086 -0.00081509433
000070 64 54 1f 3d 9a b2 f3 3a f5 86 e7 3a 46 67 c9 39
       0.03889884 0.0018592656 0.0017664122 0.00038414652
000080 63 89 4d bc 7a d5 74 bc a7 37 a2 3c bf 82 97 3c
       -0.012544963 -0.014943475 0.019801928 0.018494962
000090 0f bc 74 bc 52 b5 21 bc 00 34 ef bc 56 6c c2 bc
       -0.014937415 -0.00986989 -0.0291996 -0.0237333
0000a0 c8 f7 11 3c 3e 9d e6 bb a5 3f 89 bb 51 a1 9f b8
       0.008909173 -0.0070377877 -0.004188495 -7.611758e-05
0000b0 51 db e2 3b 86 fb b7 ba 56 1b 93 3b db c2 a6 bb
       0.006923117 -0.0014036752 0.0044893427 -0.0050891466
0000c0 ef d5 97 3b 50 f5 8d 3c 85 9c 72 3b 0d 69 ca bc
       0.004633657 0.017328888 0.0037019562 -0.024708295
0000d0 18 df a0 3c b8 46 93 3b 6e d3 e1 bb ca 73 9c 3c
       0.01963763 0.0044945143 -0.0068916595 0.019098181
0000e0 42 e4 05 3c 42 68 f9 3a b9 1d 3b bd e0 67 18 3b
       0.008172097 0.0019028264 -0.045682643 0.0023255274
0000f0 4b 05 3b bc 45 0f 8f 3c f5 1e ef ba 7f 74 b8 3c
       -0.011414836 0.017463336 -0.0018243479 0.022516487
000100 02 14 3a 3c c5 1c 08 3c d6 c4 a0 bb 31 c8 7e bb
       0.011357309 0.00830764 -0.004906277 -0.0038876648
000110 bc 96 73 3b 58 d0 fb ba 4d 3e 5a 3c b2 91 1a ba
       0.0037168702 -0.0019211872 0.013320518 -0.0005896344
000120 11 dd 5e 3a 9b 8e 16 bb 06 68 ec bb 89 d2 1f bc
       0.00085015694 -0.0022973183 -0.007214549 -0.009754785
000130 7b 19 4c 3b 77 b2 6c bc a8 15 2a bb c5 38 83 ba
       0.0031143117 -0.014446846 -0.002595285 -0.0010011425
000140 16 1c 5c 3c 07 d4 d1 3b 24 3a e3 3a df 9d 01 3c
       0.013434431 0.0064034495 0.0017336053 0.007911175
000150 e3 44 0a bb ac 3a 96 bb 81 49 3d 3a 8a 1f a7 bb
       -0.0021098189 -0.004584631 0.0007220731 -0.0051001953
000160 49 a2 f7 ba 9f b0 a1 ba 22 3c cc bb 5a 32 a3 3b
       -0.0018892969 -0.0012335962 -0.0062327543 0.0049803676
000170 90 bc e9 3b 29 ca e5 3b c4 32 83 bc e5 95 89 3c
       0.007133074 0.0070126248 -0.016015418 0.016795108
000180 23 62 38 3c d1 95 91 ba e9 49 05 bb 2d b9 81 bc
       0.011253866 -0.0011107271 -0.0020338243 -0.015835369
000190 e9 83 2f bc 55 c3 60 bd 7c 72 92 bc ca af 8e 3c
       -0.010712602 -0.054873783 -0.017876856 0.017417807
0001a0 c0 0b c7 bc 56 65 09 3c 96 9d 55 3c 40 5d e6 3b
       -0.024297595 0.008385977 0.01303806 0.0070301592
0001b0 2b ca 5a 3c 64 5f d4 3c a0 47 6c 3c 71 a1 53 3b
       0.013353865 0.025924392 0.014421374 0.0032292271
0001c0 6f 9a 6e 38 c4 f9 f5 b9 10 62 b3 bb dc c9 fb 3b
       5.688745e-05 -0.0004691613 -0.0054743364 0.0076839756
0001d0 c7 c9 9b bb 14 01 8a 3b 7f 25 94 bb 66 bb 81 3c
       -0.0047542783 0.0042115543 -0.0045210714 0.015836429
0001e0 5c 42 8b 3b d9 3f 6a bb 80 d1 23 bb 44 59 b0 b9
       0.004249854 -0.0035743623 -0.0024996698 -0.00033635844
0001f0 26 3b bd 39 a3 35 45 bc d5 b9 3f bb 78 96 8b bc
       0.00036092958 -0.012036714 -0.0029255052 -0.017039523
000200 9d 7f 53 bc 5d 1c 10 bc c6 04 ba bb 06 83 30 bc
       -0.012908843 -0.008795825 -0.0056768386 -0.010773426
000210 1f 32 77 3b 5e 2e 8b 3b 70 71 d5 39 fe b2 21 3c
       0.0037719083 0.0042474708 0.00040711043 0.009869335
000220 35 73 4f 3b 3a 76 46 b9 f1 d5 e4 3b 78 e5 e2 3c
       0.0031654362 -0.00018926794 0.0069835116 0.02769731
000230 1e d1 12 bc 26 f2 3d bc e8 b2 85 3b 26 ec 17 3c
       -0.00896099 -0.011593377 0.004080165 0.009272611
000240 df 65 68 bb f7 58 13 3c e4 66 50 3c 88 87 c0 bb
       -0.003546111 0.008993379 0.012719844 -0.0058755316
000250 f3 00 de bb 90 82 e1 3b 46 b4 cd 3a 83 b7 1e bd
       -0.0067750155 0.0068820193 0.0015693984 -0.03874923
000260 6c 84 3c bc 17 b5 e1 3b a8 aa 40 3b b7 25 2e bc
       -0.011506181 0.0068880427 0.0029398594 -0.010629109
000270 a7 90 34 bb 1a 21 18 3c 54 e9 c2 3c 26 f3 29 bc
       -0.002755204 0.009285236 0.0237929 -0.0103729125
000280 03 b8 1b 3d 61 80 0a 3c 16 c0 4a bc 17 28 ae 3b
       0.038017284 0.0084534595 -0.012374898 0.0053148377
000290 27 ec 30 3c 70 40 99 bc 1d 73 c0 bb 84 51 92 bc
       0.010798491 -0.018707484 -0.0058730976 -0.017861135
0002a0 3b 4c 1f bb 97 20 6c ba 19 f1 50 ba de a8 7a bc
       -0.0024306912 -0.0009007542 -0.00079704967 -0.01529905
0002b0 82 b7 93 3b 7c 41 95 3c 14 38 72 bb f5 31 25 bd
       0.00450796 0.018219702 -0.0036959695 -0.040330846
0002c0 a7 4c 3f 3c 56 fa 5b 3c 4d e8 ba bd 8c e4 0f 3b
       0.01167599 0.013426384 -0.09126339 0.0021956293
0002d0 3f ad 04 bc e4 74 6e bc fc f0 ac 3b d5 ae ef bc
       -0.008097946 -0.014554236 0.005277751 -0.029258171
0002e0 fc de 68 bc 88 ec c1 3b 18 ec 2b 3b 1a 7a 47 3c
       -0.01421332 0.0059180893 0.0026233252 0.012175107
0002f0 be 9a f1 3b 6e 35 b8 3b 1f c4 e3 3c 2a b6 6c bb
       0.007373183 0.0056216037 0.027803479 -0.003611932
000300 fa 12 e6 bc 95 aa 93 3a 76 84 59 3b db 94 b8 bc
       -0.02808522 0.0011266047 0.0033190525 -0.022531917
000310 83 9e cc 3c be fe 91 3b 1f 3e 4d 3b b4 23 45 3b
       0.024977928 0.0044554165 0.0031317545 0.0030081095
000320 ba 7e 9a 3b d5 0c 09 3c d6 da 0a bd b5 40 b7 3b
       0.004714814 0.008364876 -0.033900104 0.0055924305
000330 9e 67 fe ba 75 e1 ab bc ff 1c 0d 3a 42 37 a6 39
       -0.0019409542 -0.02098153 0.0005383044 0.00031703158
000340 75 14 c2 bb 96 c3 15 bb 0b e4 59 39 83 f6 94 bb
       -0.005922849 -0.0022852174 0.00020779685 -0.004545988
000350 cb 2b 2b bd 66 6c 31 3c 3f 74 6b 3b d0 5d 00 bd
       -0.04178981 0.010829067 0.0035927442 -0.031339467
000360 68 2f 1f 3c dc 26 ce 3b ab aa 0c 3c 84 9b a0 33
       0.009715892 0.0062912535 0.008585612 7.478869e-08
000370 6f ef dc bb 8a 47 1b bc 7e 9e 8e bc 7d 77 dc 3b
       -0.00674241 -0.009477505 -0.01740956 0.0067281113
000380 63 ec b7 bc 79 74 9a bb 6d 6a 1d bd ed ba 39 3d
       -0.022451585 -0.0047135917 -0.038431574 0.045344282
000390 eb a0 87 3c 18 55 00 bc 2c b7 45 3b 71 25 a5 bb
       0.016556224 -0.007832788 0.0030168993 -0.0050398638
0003a0 1a 1e 2c 3a 6d d4 0c 3d ad 96 ed 3a d7 b4 ab bb
       0.0006565765 0.034382273 0.001812657 -0.0052400636
0003b0 63 fb 8e bc 51 3d 9a 3b 27 40 c2 bb 25 39 93 ba
       -0.017453855 0.0047070165 -0.0059280577 -0.001123224
0003c0 d4 90 16 bb 18 00 33 3b 78 93 00 bc 00 c7 35 bd
       -0.0022974508 0.0027313288 -0.007847659 -0.044379234
0003d0 c7 f6 25 3a 9d 03 85 bc 76 4e 83 3c 22 0b 79 3c
       0.0006331023 -0.016237075 0.016028624 0.015200408
0003e0 07 59 3a bb d4 92 ee bc 9f c8 29 bc e7 38 99 3b
       -0.0028434412 -0.029122747 -0.010362773 0.0046759727
0003f0 60 77 6b bb 9e 77 b2 bb c8 c0 3b bd 53 f0 d5 3b
       -0.0035929307 -0.0054463884 -0.045838147 0.006528893

fc2.weight f4 [128, 256]
000000 22 db 37 3e 62 d6 14 3e 4c 19 38 bd f0 35 14 bd
       0.17954686 0.14534906 -0.044946 -0.03618425
000010 4c fa 68 3d 7f 8e d8 bd eb d1 ef bd ea 5f 2a be
       0.056879327 -0.10574054 -0.117099606 -0.16638151
000020 d5 7c 08 3e 01 51 8a 3e a4 b8 a1 3d 8c 30 14 be
       0.1332887 0.27014926 0.078965455 -0.14471644
000030 47 4b b3 bc 5e bc bf 3d ea 1a 22 be c5 99 9e 3c
       -0.021886481 0.093621 -0.1583058 0.019360432
000040 91 b6 6e bd 64 0f 1a 3d cc 24 0b be d2 1f c8 3c
       -0.058279578 0.037612334 -0.13588256 0.024429236
000050 84 68 11 3d 01 ad 86 bd ba 34 08 3e 6e f6 f5 bd
       0.035500064 -0.065759666 0.13301364 -0.12009893
000060 13 87 8c 3d 65 46 1a 3e e1 1d 13 3e a4 2d 8b 3e
       0.06861701 0.15065916 0.14366867 0.2718326
000070 ef c5 1b 3d 5c 5d f5 3c a2 e3 18 bb f0 e2 ad 3d
       0.03803056 0.029951744 -0.002332904 0.084905505
000080 1c 44 48 3d a7 98 3a be 33 52 84 bd e1 4e 9f bd
       0.04889308 -0.18222295 -0.06460991 -0.07778717
000090 66 61 37 3e 5a e3 ad 3d 0c 13 8c bd 56 b0 16 3e
       0.17908248 0.084906295 -0.068395704 0.14715704
0000a0 13 25 d8 bd a7 e9 3b be 5b 3e b2 bd 4a 0e b0 bd
       -0.10553946 -0.1835085 -0.087032996 -0.085964754
0000b0 40 58 e8 3d e9 03 30 be 2c 92 55 be ff 50 40 be
       0.11344957 -0.17188992 -0.20856541 -0.18780898
0000c0 40 86 24 3e fb a2 69 3d 07 83 57 bd 52 14 39 bd
       0.16066837 0.057040196 -0.05261519 -0.045185395
0000d0 c8 3d cc 3d d0 47 8a 3c 4d 3b 73 be 04 74 95 3c
       0.09972721 0.016879946 -0.2375309 0.018243797
0000e0 91 3b c0 3c 06 02 cc bd 8f 37 00 be 3f b7 e4 bd
       0.023465903 -0.099613234 -0.12521194 -0.11167764
0000f0 be f5 cb 3c 7b d9 a0 3c 72 4c d7 bd f6 e0 60 be
       0.024897452 0.019634953 -0.10512628 -0.21960816
000100 cc ef 6c 3e eb 85 ae 3d 00 bc 4a be 40 fa ee 3d
       0.2313835 0.085216366 -0.19798279 0.11668825
000110 15 95 45 3e fa 9a ac 3d 16 ca 0a 3e 5e 4e 53 3e
       0.19295152 0.08427997 0.13553652 0.20635363
000120 df 14 13 be a1 73 13 3d 2e ca 60 3e e3 f8 38 3d
       -0.1436343 0.035998944 0.21952125 0.045159232
000130 ba d8 ae 3d a6 ab 8e bd f1 ee 99 bd 88 77 3f bd
       0.08537431 -0.06966333 -0.075162776 -0.046744853
000140 10 98 d7 bd f2 e8 96 3c ec 44 2c 3d 29 e5 53 bc
       -0.105270505 0.018421624 0.042057917 -0.012933054
000150 90 9e 42 bd bb ff dc 3d e9 9c 33 bc 41 e1 c8 bd
       -0.0475145 0.10790964 -0.010962703 -0.09808589
000160 21 45 35 3c 3e 6f c7 3d 15 27 59 3e 8e 50 cd bd
       0.011063845 0.09738015 0.21206315 -0.1002513
000170 7c 8d de bc e8 f3 ad 3c d4 0c ef bd 05 64 11 bc
       -0.027167074 0.021234468 -0.11672369 -0.008873944
000180 5b b4 a6 bd e4 02 87 be d5 b0 90 bd fe 52 d4 bc
       -0.08139869 -0.26369393 -0.07064978 -0.02591848
000190 0c 81 97 3d 26 52 d4 bc 39 e9 68 3d 04 b6 2b be
       0.073976606 -0.025918078 0.056863043 -0.16768652
0001a0 1f 38 b9 3c 3c c5 de bd 6a ef f0 3c fe a8 50 bd
       0.022609768 -0.10877463 0.029411037 -0.050942414
0001b0 88 2b 1b 3d ef f5 26 bd ec fa 0b be 01 de bd bd
       0.03788331 -0.040761884 -0.13669938 -0.092708595
0001c0 9b 69 aa bc 86 e6 56 3e dc 06 40 3e 4a 40 b8 bd
       -0.02080231 0.20986375 0.18752617 -0.08996637
0001d0 f0 ec bf 3a 7f 18 6d bd ef 38 03 be ba 01 46 3e
       0.0014642756 -0.05788469 -0.12814687 0.19336596
0001e0 a2 9a 7a bd 7c eb c5 bc 36 ba 08 be ff 07 18 3e
       -0.061182626 -0.02416014 -0.13352284 0.148468
0001f0 71 6e 02 be a3 86 b7 bb 37 9e c8 bc 48 8c 45 3e
       -0.12737443 -0.0056007667 -0.024489505 0.19291794
000200 38 23 f9 bc a6 90 8e be 50 8d 58 bd fe db eb bd
       -0.030412301 -0.27844733 -0.05286914 -0.115165696
000210 c8 35 77 be dd 53 13 bd 11 71 f8 bd 3d 66 e3 bd
       -0.2414161 -0.03596865 -0.12130941 -0.11103485
000220 4a 5d 38 3d e1 c1 15 bd 55 c9 1d 3d 68 ff d7 bd
       0.045010842 -0.03656185 0.038522083 -0.10546762
000230 e7 fd a1 3b ba 4d a8 bd 99 8c ab bd 98 d6 b8 bd
       0.0049435976 -0.0821795 -0.08376426 -0.090253055
000240 b3 02 6f bb 10 39 08 be 7e 79 f6 3c 59 a1 9d 3c
       -0.0036470115 -0.13303018 0.030087229 0.019241976
000250 a6 65 71 bc 30 32 2a bc 26 c0 92 bd 2f 0e df 3d
       -0.0147337075 -0.010387942 -0.07165556 0.10891377
000260 79 e3 a1 bd 96 f2 68 3d 38 d2 34 bd b9 8a 15 bd
       -0.07904715 0.056871973 -0.044145793 -0.03650925
000270 49 e1 69 bb 39 80 cb bd 55 b2 aa 3d 37 6b ed 3d
       -0.003568726 -0.09936566 0.083347954 0.11592715
000280 15 bb 87 bd 78 8e fe 3d c5 5d 3a be 27 22 6a bd
       -0.0662748 0.124295175 -0.18199833 -0.057161476
000290 d6 b2 d1 3d c3 22 51 be 8b 59 3e be f0 a1 ee 3c
       0.102391884 -0.20423417 -0.18588845 0.029129952
0002a0 84 c8 fe 3d 12 fd a3 3d 2f 3d 39 bd 06 d3 20 be
       0.12440589 0.08007254 -0.045224365 -0.15705499
0002b0 93 e1 2e bd b1 f0 a0 3d 07 84 21 bd 9c 27 31 be
       -0.042695593 0.07858408 -0.03943255 -0.17300266
0002c0 53 65 af bd fa c2 81 3e 45 8a 28 3e de 32 bd bb
       -0.08564248 0.25344068 0.16458996 -0.005773886
0002d0 78 d4 8f bd 4d 9a 9b 3d 30 c8 b4 3d 38 51 08 be
       -0.07022947 0.0759779 0.08827245 -0.13312232
0002e0 a7 c3 1d 3b 79 3f 13 bc 5b f5 13 be 40 75 36 3d
       0.0024072917 -0.008987301 -0.14449064 0.044545412
0002f0 b1 57 cf 3a a1 a5 e1 bc 9d 6f a3 bd a9 9d f4 bd
       0.0015818981 -0.027544798 -0.07980273 -0.11944134
000300 bf bd 28 3d 7b 03 07 be 34 a3 ee 3d 95 db 94 be
       0.04119658 -0.13184921 0.11652222 -0.29073778
000310 7a 2e d9 3d 58 5b 88 3c b9 59 35 3d 04 19 bb bd
       0.10604568 0.016645119 0.04427502 -0.09135631
000320 03 6b 02 3d ba f4 e3 bd a1 02 a6 be e8 be bb 3d
       0.031840336 -0.11130662 -0.3242388 0.09167272
000330 84 b6 41 bc 25 bd 63 3e e2 07 ab bc 2f 5b c2 ba
       -0.0118233 0.22240122 -0.020877782 -0.00148282
000340 e2 66 d4 3d 1f c5 39 be 56 6f 53 3c 25 05 37 bc
       0.10371186 -0.18141602 0.0129049625 -0.01117066
000350 0d f5 08 3d a8 18 e7 bd c5 30 1b be 78 f5 6d be
       0.033436824 -0.11284 -0.15155323 -0.2323817
000360 28 f2 d9 bd d5 97 5f 3d d0 3a 64 3e ba 25 6f 3c
       -0.10641891 0.054588158 0.2228806 0.014596397
000370 aa 30 61 be 67 62 2b be 34 34 cd bd d9 80 a8 bc
       -0.2199122 -0.16736756 -0.100197226 -0.020569252
000380 78 c3 c1 3c 16 05 92 3d a5 96 1a 3e 9e 38 02 3d
       0.023652777 0.07129876 0.15096529 0.031792276
000390 18 70 61 bd 8e de 57 be 86 e7 03 3d df f9 0b 3e
       -0.05503854 -0.21080992 0.03220322 0.13669537
0003a0 47 ae b8 bc 11 5c e7 bd 2e 50 0c be db 55 1e be
       -0.02254404 -0.11296857 -0.13702461 -0.15462439
0003b0 24 08 d2 3d 3b 70 a8 bd d6 a9 b3 3e eb ba d0 3c
       0.10255459 -0.08224531 0.35090512 0.025479754
0003c0 e4 d7 be bd 70 2b ba bd a0 90 68 be a8 e4 1a 3d
       -0.093185216 -0.09090316 -0.2271142 0.03781572
0003d0 09 28 89 bc ba 2d 27 bd 8d 64 1f 3d 5c 98 f1 bc
       -0.016742723 -0.040815093 0.038914252 -0.029491596
0003e0 fe be 7b bd 75 ee a9 bd f6 ca 73 be 83 83 ef 3d
       -0.06146144 -0.08297435 -0.23807892 0.11695006
0003f0 64 d0 42 bc 7a 7a 76 bd 0e b3 c1 bc ad ac b0 bd
       -0.0118905045 -0.060175397 -0.02364495 -0.08626685

fc2.bias f4 [128]
000000 b2 71 48 3c e0 f8 3a 3c 2b bc 25 bc 67 17 aa bc
       0.012234138 0.0114118755 -0.0101156635 -0.020763112
000010 e5 a0 b2 bc a0 b6 a6 bc cb b4 ba bc 3a 2f 17 bc
       -0.021805236 -0.020350754 -0.022791287 -0.009227568
000020 e7 59 c1 3c 0a 33 3b bc 12 80 70 3b b9 d7 a1 3b
       0.02360244 -0.011425743 0.003669743 0.004939046
000030 7b 1c 54 3c 5a b7 99 3d 64 9a 30 3c cd 58 1e bc
       0.012946243 0.07505675 0.010778997 -0.009664726
000040 26 bf 12 3b ea 0f 5f 3b f0 b9 b1 3b 0c e6 a2 bc
       0.0022391765 0.0034036585 0.005423777 -0.019885086
000050 01 5e 05 bd bb d4 6c bb 8a a7 05 bd 79 cc 41 3b
       -0.032560352 -0.003613754 -0.03263048 0.0029571338
000060 e8 df dd bc 9f bd d9 bb ca 63 27 3c b5 32 59 3c
       -0.027084306 -0.006644919 0.010216663 0.013256718
000070 a2 6a 4a bc 5e 3c 8a 3c c8 af db b9 22 4d d7 bc
       -0.012354525 0.016874488 -0.00041901902 -0.026281897
000080 f5 03 ab 3c 22 ca cd bc dd 97 2a 3b d9 b8 8c ba
       0.02087591 -0.025120798 0.002603046 -0.0010736241
000090 91 1f bb 3c ad ad bf 3b 02 42 9f bb 85 a0 48 bd
       0.0228422 0.005849561 -0.0048601637 -0.04898121
0000a0 3d 3a a9 bc fa bc 92 bc f2 80 b3 3b 3a b5 5c bb
       -0.020657653 -0.017912377 0.005478018 -0.0033677355
0000b0 1e 9b 44 bc a9 fe 00 bd 55 55 e9 bc 5a 14 bc bb
       -0.011999873 -0.031492863 -0.028483072 -0.005739731
0000c0 c7 2e 16 3d c8 99 a8 bb fc 02 bb bb 5e ea f8 bb
       0.036665704 -0.0051452853 -0.005707143 -0.007596298
0000d0 cb 77 e0 bb 47 33 f4 ba c1 35 a9 bd cb 09 22 bc
       -0.006850218 -0.0018631004 -0.08262206 -0.00989003
0000e0 eb d9 44 3c 96 2b 01 bc a8 60 b4 3c 14 16 73 bc
       0.012014846 -0.007883927 0.022018746 -0.014836807
0000f0 e8 44 bf 3c a7 d6 15 bc aa a2 9a ba a6 6d 06 bd
       0.023348287 -0.009145415 -0.0011797745 -0.032819413
000100 fb 05 b7 bc 8b 7c 2c bc d1 60 66 bb f0 eb 2c bd
       -0.022341719 -0.01052774 -0.0035152922 -0.042217195
000110 4f 99 6a bb be 35 14 bd 9e 6b 58 3c db 0b 57 bc
       -0.0035796945 -0.036184065 0.013209252 -0.013125385
000120 4a 9d 0d 3b 4e 45 ae 3c 3a d8 a8 3b e4 4f f3 bb
       0.0021608644 0.021273281 0.0051527293 -0.007425295
000130 ce 8f cb bb 01 de 01 bb c1 d8 f4 3b 4d cf 0e bc
       -0.006212211 -0.0019816163 0.007472128 -0.008716417
000140 2a 39 ce ba 2d ed ed 3c 24 07 a5 bc ab 99 1d bd
       -0.0015733589 0.029043758 -0.020145006 -0.038476627
000150 db 8c 33 ba 43 65 b1 bc 07 c9 26 bb cf 5c 9b 3c
       -0.0006849297 -0.02165473 -0.0025449411 0.018965153
000160 fc 37 a0 bc 2f 65 3d 3c 6d 95 d3 bc 12 35 09 3c
       -0.019557945 0.011559769 -0.025828088 0.008374469
000170 e8 4f 1b 3c 65 00 fc bb 02 e9 44 bc 1c e0 0a bc
       0.0094795 -0.0076904767 -0.012018444 -0.008476283
000180 af 9d e6 bb c5 49 b9 bc 9c 9f 0c bc eb 3d 43 3c
       -0.0070378403 -0.022618184 -0.008582976 0.011916618
000190 ed bf 9e 3b 98 64 4c 39 96 83 fd bb 86 47 ae 3c
       0.0048446567 0.0001949243 -0.0077366335 0.02127434
0001a0 a4 1f 0c bc 4f b0 2b bc d7 a6 01 bd b8 d0 36 bc
       -0.008552466 -0.010479047 -0.03165325 -0.011158161
0001b0 6a ed b2 bc c5 0f ea 3b b1 33 bb 3b c1 d1 60 bc
       -0.021841723 0.007142993 0.005712949 -0.013721884
0001c0 87 ae b4 bc 0f f2 95 bc ea b7 af 3c 2d 1c 03 bd
       -0.022055877 -0.0183039 0.021450002 -0.032009292
0001d0 85 5a 2f bc 29 59 a1 3c 87 00 44 bb da 4e 18 bc
       -0.010702734 0.019695835 -0.002990754 -0.009296143
0001e0 b5 e0 48 3c e4 f4 12 3c 7b 04 f6 3b 3d c9 da bc
       0.012260606 0.008969519 0.0075078583 -0.026707286
0001f0 3d da e8 3c 74 11 0b bc 56 74 ec bc cb 00 1d bd
       0.028424377 -0.008488048 -0.028864067 -0.038330834

fc3.weight f4 [64, 128]
000000 ce 60 c6 3d d6 d8 23 3d 21 8a 6b be 24 16 7e 3d
       0.09686433 0.040001713 -0.23001911 0.062032834
000010 72 64 dc bd e8 a0 61 3a 24 f8 ba bc 96 7e 4d bd
       -0.10761346 0.0008607046 -0.0228234 -0.05016955
000020 61 3a 67 be 7b ce 4a bb 48 58 40 3e 58 08 80 be
       -0.22580864 -0.0030945826 0.18783677 -0.25006366
000030 61 4c 1a be 2c e6 30 be bb f9 ca 3c 21 18 41 be
       -0.15068199 -0.17275304 0.024777284 -0.1885686
000040 53 b2 51 3d bb 03 06 be 2a d2 11 be 94 dd 13 bc
       0.051195454 -0.1308736 -0.14240327 -0.009024996
000050 a2 79 70 3e 80 26 86 3d 97 f9 5e bd bb c3 d8 bd
       0.23483899 0.06550312 -0.054437246 -0.105842076
000060 2e 79 e9 bd cb fb 70 3d 5d f7 a3 3e 3a 1f b1 3d
       -0.11400066 0.05883388 0.3202466 0.08648534
000070 f4 d0 3f be ba 5a 80 bd 1d 4f 79 bd 32 88 71 be
       -0.18732053 -0.06267305 -0.060866464 -0.2358711
000080 2e 26 1a 3d 9c 14 4b be ea 22 06 bd 94 9b db 3b
       0.037634067 -0.1983208 -0.03274814 0.006701896
000090 52 1d e1 3c 31 6f 20 be 6f 27 d4 3d 91 88 1d bd
       0.027479801 -0.15667416 0.10359084 -0.038460318
0000a0 50 55 b0 3b 05 fa 99 bd 09 0c 02 bc 5e ca 96 bd
       0.005381264 -0.075183906 -0.00793744 -0.07362817
0000b0 07 ad 7f 3d e9 f1 a0 bd e4 ba 88 bc 14 96 05 3e
       0.06242087 -0.07858641 -0.016690679 0.13045532
0000c0 31 08 2e be 90 a5 a2 3d 0d 7b 86 3d 96 3e 1c 3d
       -0.16995312 0.07941735 0.06566439 0.038145624
0000d0 5b 01 fe bd e5 1f df 3d eb 1f 0a 3e cb e4 15 3e
       -0.12402602 0.10894755 0.13488738 0.14638059
0000e0 c8 4b aa bc 91 b6 d3 3d 9a bd a6 bd b6 19 31 3e
       -0.020788088 0.10337556 -0.081416324 0.17294964
0000f0 83 90 b7 3d a5 77 06 bd 9d 4f 89 bc ef e6 0c 3d
       0.0896311 -0.032828946 -0.016761595 0.034399923
000100 8b 09 c6 bc 92 b4 09 3e 86 e4 01 bd 31 df 3a bc
       -0.024174472 0.13447788 -0.031712078 -0.011405752
000110 0f 57 b5 bd 27 47 a7 3c a1 80 ec 3d 62 b9 b0 3e
       -0.08854496 0.02041967 0.115479715 0.34516436
000120 63 d9 10 bb 9d ac 27 3e 35 03 10 3d ee f0 24 be
       -0.0022102229 0.1637444 0.03515931 -0.16107532
000130 8f cd b9 3e a2 3d c1 bd 95 aa dc 3d ad f5 9b bd
       0.3628964 -0.09435584 0.107747234 -0.07615218
000140 83 14 a0 3e 03 05 30 be 28 b9 91 bd e0 28 99 3c
       0.3126565 -0.17189412 -0.07115394 0.018696249
000150 80 1d 46 be 4c 91 91 3d a6 8d cf 3c 07 01 5e 3e
       -0.19347191 0.07107791 0.025336098 0.2168008
000160 06 9f 42 be db 0c 3e 3e f1 1c 0c be 18 0c c8 bd
       -0.19005975 0.18559591 -0.13682915 -0.09767932
000170 00 60 31 3e 71 5f ab bc c6 06 76 3e 6c 7b f8 bd
       0.17321777 -0.020919533 0.24026021 -0.12132916
000180 80 f8 ad 3c 3c 3a af 3d 53 00 20 3e f7 48 a5 bd
       0.021236658 0.08556029 0.15625124 -0.080705576
000190 2d 02 46 3d 41 86 3e 3e 3c 0a 13 be 6a 58 1c be
       0.04834192 0.18605901 -0.14359373 -0.15268102
0001a0 81 b8 2e be b3 c2 e1 3c 12 b8 45 3e a9 da cf 3d
       -0.1706257 0.02755866 0.19308499 0.10149128
0001b0 36 f7 8c 3c 7b 52 2f 3d 4b ef eb 3d 70 ba a1 bc
       0.017207723 0.04280327 0.11520251 -0.01974222
0001c0 ee 4a ff bd 9b 01 25 3d 50 5f 89 bd b2 85 75 bb
       -0.124654636 0.040284734 -0.067076325 -0.0037463722
0001d0 e5 4f 8a 3d 4d b5 81 ba c7 f8 23 bd f0 3e bf bd
       0.0675352 -0.0009895951 -0.040032174 -0.09338176
0001e0 4e d2 03 be 78 97 c1 bd f8 84 85 be 04 79 96 3c
       -0.12873194 -0.094527185 -0.2607801 0.018368252
0001f0 da 6a 89 3d b7 69 ad 3c a2 8b cb bd 7f c1 50 3e
       0.067098334 0.021168573 -0.09938742 0.20386313
000200 20 b7 a0 bd 2f 8b 14 bd 0e 85 18 be a4 bb b7 bc
       -0.07847428 -0.03626555 -0.14894506 -0.022428341
000210 fb 15 b5 3b 92 02 19 bd 81 e8 96 bd a5 22 16 3e
       0.005526302 -0.037355967 -0.07368565 0.14661653
000220 f2 60 7e 3e 45 c9 a8 3c 4d 62 d5 bd f0 d6 71 be
       0.24841669 0.020603785 -0.1041914 -0.23617148
000230 4e 75 c3 bd 46 7f 85 bc e9 a6 32 3e 1b c2 42 be
       -0.095438585 -0.01629604 0.17446484 -0.19019358
000240 19 5a 26 3e 6d 7d c5 bc ef a7 06 3e 7d d9 29 3e
       0.16245307 -0.02410766 0.13149999 0.16586871
000250 7d 67 a0 bd b8 cd 83 3e 1a a1 18 3e 2b 49 a8 3b
       -0.07832239 0.25742888 0.14905205 0.0051356754
000260 2f e0 6c bd 74 77 03 3e 30 d2 7b be f7 dd 4d be
       -0.057830986 0.12838537 -0.24591899 -0.20104204
000270 09 9c 2e bc 0e 21 00 be 02 ac 6b be 8c 28 a8 3d
       -0.010657319 -0.1251261 -0.23014835 0.08210859
000280 86 b7 dd 3d 81 8a ae 3c e7 a7 25 bc 38 d7 91 be
       0.1082602 0.021306278 -0.010110832 -0.2848451
000290 60 a2 e7 3d 26 67 85 3d 86 10 43 3e f6 3e 3f 3e
       0.113102674 0.06513815 0.19049272 0.18676361
0002a0 f2 74 36 3d 07 b9 e4 bd 96 7f b9 bd 1a 09 2a be
       0.04454512 -0.11168104 -0.09057538 -0.16605034
0002b0 a8 5d 41 3e 53 aa 83 bd 55 fe c5 bc 77 3c e6 3c
       0.18883383 -0.06428971 -0.024169127 0.028105004
0002c0 1a 62 14 bc 21 50 ae bb 61 52 3f 3c 2c b6 57 3e
       -0.009056592 -0.0053196107 0.0116773555 0.21065587
0002d0 b3 34 a0 3b 85 57 fd 3d e9 ae eb ba 53 fd 86 3e
       0.0048890947 0.12370209 -0.0017981204 0.26365146
0002e0 aa cd ee bd f4 ba 16 3e a8 c3 8f bd 3a ae 21 3d
       -0.11660321 0.14719754 -0.0701974 0.039472796
0002f0 e3 0c 8e bd 04 07 47 3d be 53 50 3e b4 d1 b7 3d
       -0.06936052 0.048590675 0.20344445 0.089755446
000300 53 3e c7 3d cd a8 34 be 58 04 29 3d 67 4b b0 3c
       0.09728684 -0.17642517 0.04126391 0.02152033
000310 d5 55 69 be 8c 8d 79 be ac e7 84 bd d2 ff d6 bd
       -0.22786649 -0.24370402 -0.064895004 -0.104980126
000320 80 46 8b 3d 34 97 92 3e 9a 56 29 3e ed 23 2b be
       0.06800556 0.28630984 0.16536942 -0.16712923
000330 91 e3 06 3e eb 9e 3a be fc c7 f9 3c 4c e5 90 3c
       0.13172747 -0.18224685 0.030490868 0.017687462
000340 ac a6 4e 3d 93 7e 78 be 7e 28 02 3e 99 4f 12 be
       0.05045192 -0.24267034 0.12710759 -0.14288177
000350 01 86 46 3d f0 69 bd 3c 56 64 16 be 5b ed 4a be
       0.04846764 0.023121804 -0.14686713 -0.19817106
000360 66 b9 0f 3e c9 58 6c bd 67 85 a7 bd c8 74 f1 3d
       0.14035568 -0.05770186 -0.08179741 0.117898524
000370 3c 71 a2 bd d0 c4 a5 3d 46 53 1a 3e 7e c8 21 be
       -0.07931754 0.0809418 0.15070829 -0.15799138
000380 f8 1e d5 bd 8b d7 55 bc 05 e6 0f 3e 30 8b 59 3d
       -0.104062974 -0.013051878 0.14052589 0.053111255
000390 43 b4 f0 3d 3e 94 6c 3d 00 b5 2e be e6 0e 01 be
       0.11753132 0.057758562 -0.17061234 -0.1260334
0003a0 7c ed 17 bb be f1 27 be d1 ba 30 be 45 b3 1e 3e
       -0.0023182323 -0.16400811 -0.17258765 0.15498073
0003b0 d0 fc 44 3e 7a 4c df 3b df 6c 6d ba ad d5 1c 3e
       0.19237065 0.0068145366 -0.00090570556 0.15315886
0003c0 31 3c 1c be 0f c8 1b 3e 56 8e b8 bd a2 7c 90 3e
       -0.15257336 0.15213035 -0.090115234 0.28220087
0003d0 ab 74 24 3e b5 8b 32 be aa 45 35 3d 3d af 2f 3d
       0.1606013 -0.17436107 0.04425589 0.04289173
0003e0 24 45 24 be b7 5c 5d 3c da bf 21 3e bc e9 8d 3e
       -0.16042 0.0135108745 0.15795842 0.27717388
0003f0 e7 a7 83 bd 0b 46 fa 3d b4 ff 1f 3e 5d 86 cd bc
       -0.06428509 0.12220391 0.15624887 -0.025088483

fc3.bias f4 [64]
000000 f9 75 f8 bc 4e 67 01 38 57 ff 34 bc 40 b5 fd 39
       -0.030329691 3.0852207e-05 -0.011047206 0.00048390962
000010 67 28 54 3b 1c 4f 7f 3c 8e 1e 6e bc db 14 b6 3c
       0.0032372714 0.015582826 -0.014533652 0.022226742
000020 ed d4 3c 3c 18 b1 1f bc 4b 68 d4 bc 95 dd 18 bd
       0.011525375 -0.009746812 -0.025928637 -0.037320692
000030 89 11 34 3d 29 91 be bc 1b c3 65 bc 4f cf e8 bb
       0.043962035 -0.023262577 -0.014023568 -0.0071047912
000040 5b 98 03 bd a9 6b 79 3d 1b 54 59 bc d8 52 a6 3c
       -0.03212772 0.06089369 -0.013264681 0.020303175
000050 ef 97 c9 3c b6 67 d0 bc 9f 70 06 3d 9b bb 9e 3c
       0.02460858 -0.025440078 0.032822248 0.019376567
000060 77 2f b6 bc 0b 18 66 bc c8 7c 44 bc ee 15 52 bc
       -0.02223943 -0.014043818 -0.011992641 -0.012822611
000070 ae 20 f1 3c 68 2b 9a 3d cc 13 42 3b 1c db 23 bc
       0.029434528 0.0752781 0.002961385 -0.01000097
000080 d3 c5 0b 3c 18 50 8b bc 01 4b 28 bd 8b 58 5c bc
       0.008531052 -0.017005965 -0.041087154 -0.013448845
000090 57 fd a4 3b 02 e2 19 3d c9 9a 82 3c 55 c6 4c 3d
       0.0050350833 0.037569053 0.015942948 0.04999383
0000a0 93 47 9e bc 84 95 93 3a 2a a3 84 bc e4 27 0c bc
       -0.019321239 0.0011259769 -0.016191084 -0.008554433
0000b0 10 6b 84 bc 3e 90 53 3c 62 43 64 3c 09 0b 0f 3a
       -0.016164333 0.012912808 0.013932081 0.00054566615
0000c0 ad 17 18 bc 33 3d 6e 3c 4b a8 29 3b 36 db 1a 3c
       -0.0092829885 0.014540958 0.0025887664 0.009451678
0000d0 bd d2 30 bd 0b b4 3b bd e4 90 09 ba 9b 76 13 3d
       -0.043169726 -0.045826 -0.00052477256 0.036001783
0000e0 78 12 e9 3b b3 41 72 3c 25 1e 20 bc a2 66 10 bc
       0.0071127973 0.014786172 -0.009772812 -0.008813532
0000f0 a9 41 f8 bb c3 a0 02 3c a4 f8 4d 3d b0 45 3e bb
       -0.0075761867 0.007972899 0.05028595 -0.0029033236

fc4.weight f4 [23, 64]
000000 5e 12 0d bf 94 e7 11 bf 37 f1 77 be 1c 66 b5 be
       -0.5510615 -0.56993985 -0.2421311 -0.35429466
000010 03 11 19 bf 12 5d 69 be 96 7f 02 bf 08 19 0d 3f
       -0.5979158 -0.2278941 -0.5097593 0.5511632
000020 39 23 58 bf 12 69 db be 6b ab c5 be 29 5a 1b bf
       -0.84428746 -0.428536 -0.38607344 -0.6068445
000030 8f 7c 86 bd 10 f0 24 bf 5d c5 af 3e 64 e2 bd bb
       -0.065667264 -0.64428806 0.34330264 -0.00579481
000040 b5 ab 30 bf 62 50 f5 3e f7 d7 e0 3e a1 66 06 bf
       -0.69012004 0.4791289 0.43914768 -0.5250035
000050 fa b2 cb be 8d 90 83 3e f3 28 1e 3f 13 b6 06 bf
       -0.39784986 0.2569622 0.61781234 -0.52621573
000060 7f 2b 38 bf ab c3 0f bf 7e eb c0 3d 79 8c 2b bc
       -0.7194137 -0.5615794 0.094199166 -0.010470503
000070 0e 52 88 bf c0 23 82 3e ee ee 37 be fb d0 70 bf
       -1.0650041 0.254179 -0.17962238 -0.9406888
000080 7e 46 19 bf a2 a9 ec be 6e 32 ec be ec 36 c1 3e
       -0.5987319 -0.4622317 -0.46132225 0.37737215
000090 7c 22 bd be fc bb 47 bd ee 54 01 3e df 88 4a be
       -0.36940372 -0.04876326 0.12630054 -0.19778775
0000a0 6d a7 2f bf 57 aa 4d bf da 0d 09 bf fb 20 df 3e
       -0.68614846 -0.8033804 -0.5353676 0.4357985
0000b0 97 33 a9 be c6 ab 28 bf d7 73 2e bf 58 d8 3a 3f
       -0.33047172 -0.65887105 -0.6814551 0.72986364
0000c0 de d3 44 bf a4 8e fa be 38 dd ff be dd ab 09 3e
       -0.76885784 -0.4893695 -0.49973464 0.13444467
0000d0 19 aa c4 3e 70 13 1f bd 83 bd e1 3e 65 d3 39 3e
       0.38411024 -0.038836896 0.44089898 0.18147047
0000e0 69 e8 09 bf 7b 50 26 3f 95 2f b9 bd 78 aa 88 3d
       -0.53870255 0.64966553 -0.09042279 0.06673139
0000f0 e6 85 e5 be fd 11 8e be c8 a8 fc 3e 16 e2 17 be
       -0.4482872 -0.277481 0.4934752 -0.14832339
000100 12 1e a5 be 74 b0 3a bc 6a 6c 35 3d 1b 78 71 be
       -0.32249504 -0.011394609 0.044292845 -0.23580973
000110 43 e9 13 bf 9b 5f 27 3e 85 44 bb be fc b6 5b 3c
       -0.57777804 0.16345064 -0.36575714 0.013410326
000120 a6 de d6 bd 93 5f e6 3d 95 b6 5f be 7c f0 41 be
       -0.104916856 0.11248698 -0.21846993 -0.18939394
000130 25 b0 8d 3c b8 d9 aa bd 64 6a 8c be 18 8d d7 be
       0.017295906 -0.08342308 -0.2742492 -0.42099833
000140 fb 8a c6 3c ee 0a aa bd bf 4e 86 3d cc 73 3d 3e
       0.024236193 -0.08302866 0.065579884 0.18501204
000150 a2 45 22 3e 69 ce 68 be 25 ba 9c be 16 60 dc be
       0.15846875 -0.22734989 -0.30610767 -0.43042058
000160 dd 29 d1 be 36 70 0b be e3 fa 01 3e ab c4 35 3e
       -0.40852252 -0.13617024 0.12693362 0.17750804
000170 2f 37 88 be 1d 39 d1 be 00 51 ee bc d4 38 e5 3d
       -0.26604602 -0.40863886 -0.029091358 0.1119248
000180 00 d8 e3 bd 6c f0 2b 3d 31 5f e2 be f7 0f 3c 3e
       -0.11125183 0.04197733 -0.4421325 0.18365465
000190 99 c0 61 be 4f e8 b8 bb 17 8c 34 3e 10 b4 cf bd
       -0.22046126 -0.0056429277 0.17631565 -0.10141766
0001a0 76 35 14 3d 79 01 10 be d6 62 47 3e b1 2a fa bd
       0.036183797 -0.14063062 0.19471297 -0.12215174
0001b0 7b fe 18 3e 58 97 6f be d0 78 b6 3d 9e 66 d8 3d
       0.14940827 -0.23397577 0.08909762 0.10566448
0001c0 35 34 26 3e 01 0c 6a be 0e e4 76 3e d8 3e 85 3d
       0.16230853 -0.22856142 0.24110433 0.06506127
0001d0 e5 1c 1a be 24 00 b3 be e7 6b d1 3d 2c 45 b4 be
       -0.15050085 -0.34961045 0.10225659 -0.35209024
0001e0 78 a3 3f be 5f aa 9c be 59 ae 28 3e e7 9a af bd
       -0.18714702 -0.30598733 0.16472758 -0.08574467
0001f0 5c df 5b be 5f a1 fd bd 6f 66 57 3e 95 3f 13 bf
       -0.21471924 -0.12384295 0.21035169 -0.57518893
000200 b4 65 98 be 1d b4 85 3e ba 33 ff 3d 57 37 d6 bd
       -0.29765093 0.26113978 0.12461038 -0.10459774
000210 18 1a c9 3e 48 13 27 bf 7a 5b 10 bd f2 a1 8f 3e
       0.3927772 -0.65263796 -0.03524349 0.28053242
000220 ac 78 92 3e 6f 1a b3 be c8 c0 b3 3e 37 f5 5a be
       0.2860769 -0.34981105 0.35108018 -0.21382605
000230 bc 4e b7 3d b2 9b 79 be f3 69 1b bd d9 86 b4 3e
       0.08950564 -0.243758 -0.037942838 0.3525913
000240 a6 ca f1 3d 63 16 bb be be 61 17 bf 97 d2 77 3e
       0.1180623 -0.36540517 -0.5913352 0.24201427
000250 36 c5 79 be 8c b4 bd ba df 3e 9a be 84 ed cf be
       -0.24391636 -0.0014473363 -0.30126092 -0.40610898
000260 b2 f3 58 3e 98 2e f0 be 3a a8 e8 be a1 e6 0a 3a
       0.21186712 -0.46910548 -0.45440847 0.00052986486
000270 70 5a 85 3e 4d f7 4c 3d ee 71 2a 3e 2d 77 6c 3e
       0.2604556 0.050040532 0.16645023 0.23092337
000280 41 db f9 be 17 74 4b be 65 d2 6b 3d 57 90 b4 be
       -0.4880009 -0.19868504 0.057573695 -0.35266373
000290 84 1f 82 be 1f 45 77 be 07 64 41 be ec 9a cc 3d
       -0.2541467 -0.24147461 -0.18885814 0.099904865
0002a0 ad 3b 28 3e 96 69 88 3e c9 33 cc be 5a ee 5c be
       0.16429015 0.26643056 -0.3988326 -0.21575299
0002b0 32 f1 ba be b7 82 3f 3e 7c ae 20 bd 0e 27 97 3e
       -0.36512142 0.18702208 -0.0392289 0.29521984
0002c0 40 cb d2 3d 3b 0c 96 3e 2c d8 5e be c5 69 6d be
       0.10292673 0.29306206 -0.2176215 -0.23184879
0002d0 16 f7 2d bf de 65 9c 3d 21 cb a2 3e cf e9 b1 3b
       -0.6795515 0.07636617 0.317956 0.0054294835
0002e0 e4 10 04 3e e8 7a f8 3d 8a c8 03 bf 6f f5 eb be
       0.12897068 0.121328175 -0.51477873 -0.46085688
0002f0 d4 d3 61 3d b0 3d 82 be bd e1 25 3e b3 d5 c8 bb
       0.055133656 -0.2543769 0.16199394 -0.0061289906
000300 99 8d 3e be 07 84 a6 be 9f a5 a0 bc 7f 76 d6 bd
       -0.18608703 -0.32522604 -0.019610224 -0.1047182
000310 c1 b8 f4 3d cc 99 80 3d 36 6b 73 3e 04 c1 5c 3e
       0.119493015 0.062793344 0.23771366 0.21558005
000320 95 1c a1 bd 34 4f 92 3e 3c 2c 68 3e 9a 03 1d bd
       -0.0786678 0.28576052 0.22673124 -0.038333513
000330 46 e2 34 be a0 ce 09 bf a7 2f 3d 3d 99 7c b0 3d
       -0.17664441 -0.5383091 0.046188023 0.08617515
000340 8c bc 0d 3f 5b ff 89 3e be 51 39 3d a1 c6 8d 3d
       0.55365825 0.26952633 0.04524397 0.06922651
000350 c2 41 9e be 0b 3f c4 bd 58 a7 eb 3e f5 0a d0 3a
       -0.30909544 -0.09582337 0.4602611 0.0015872406
000360 a3 75 d0 3c b7 c7 19 3e 7d 3e 86 be 17 9f 25 3d
       0.025446719 0.15017591 -0.2621955 0.040434923
000370 72 e8 82 be e3 d9 47 3f aa 95 ad be 74 15 fe 3b
       -0.25567967 0.78066844 -0.33903247 0.0077540223
000380 ab 65 87 bd a5 e9 0e bf f7 f1 89 3e 66 29 73 3e
       -0.066111885 -0.55825263 0.26942417 0.23746261
000390 c5 d1 ca 3c 1d 85 e3 bd be 73 88 bd be 43 80 3f
       0.024758229 -0.11109374 -0.06662701 1.0020673
0003a0 4a 2c a1 be ba 87 2b 3e 3d a3 73 3d 66 ed 95 bc
       -0.31479102 0.16750994 0.059481848 -0.018301677
0003b0 e3 11 31 be 51 f0 28 bd d5 99 c8 bd c5 80 fa 3e
       -0.1729198 -0.04124481 -0.09794966 0.48926368
0003c0 40 19 e4 be 8e 13 96 be 96 58 34 be d4 16 f0 bc
       -0.44550514 -0.29311794 -0.17611918 -0.02930776
0003d0 f5 b9 13 3d e5 c1 06 3e de 97 56 3e 86 ed 56 3e
       0.036066014 0.13159902 0.2095637 0.20989046
0003e0 b6 a4 f1 bd 80 56 de 3e 3f c4 0b bd 6c 42 d9 3e
       -0.11798994 0.4342537 -0.0341227 0.42433488
0003f0 94 7c 0c 3e 93 31 25 3c 93 ef 34 be e7 d4 41 be
       0.13719398 0.01008262 -0.17669515 -0.18928872

fc4.bias f4 [23]
000000 ef 29 28 bc 10 eb ce bc 19 f6 bb 3d 7c 79 5c 3e
       -0.010263904 -0.02525857 0.09177799 0.21530718
000010 70 fc 1f 3e 1f 34 3c bd ee 2a 87 bd 16 c6 d5 bc
       0.15623641 -0.045948144 -0.06599985 -0.026095431
000020 1b a6 8f 3d a5 cd c8 bc 7c fb d1 be 33 81 61 3e
       0.07014104 -0.024512121 -0.4101218 0.22021942
000030 61 4d 1b bd ad 92 d0 be ca 15 aa bd e5 fd 82 be
       -0.03791559 -0.40736905 -0.08304937 -0.2558433
000040 bb 07 47 be 63 5a 1f be 88 bf cd bd a4 9c cd be
       -0.19436543 -0.15561824 -0.10046297 -0.4015857
000050 40 55 0f 3e f7 ae d2 3d 58 e7 6c 3e
       0.13997364 0.10287278 0.23135126

bn1.weight f4 [256]
000000 d4 6e 8e 3f 29 12 7c 3f f4 03 66 3f d7 fa 63 3f
       1.1127572 0.9846521 0.8984978 0.89054626
000010 24 5a 4d 3f 2f 37 48 3f 4b d4 68 3f 1c 41 7c 3f
       0.8021567 0.78209203 0.90948933 0.9853685
000020 ff d7 57 3f f4 c1 7f 3f 2c 45 54 3f 9c 69 62 3f
       0.8431396 0.99905324 0.8291805 0.884424
000030 06 e5 84 3f ab 9e 69 3f 73 ea 5a 3f bd 69 6d 3f
       1.0382392 0.91257733 0.8551399 0.9273947
000040 ed 83 6b 3f 41 e5 5b 3f 88 70 6f 3f ab 18 5f 3f
       0.9199818 0.8589669 0.93531084 0.87147015
000050 6e fe 4d 3f c8 28 5b 3f 96 64 57 3f 87 be 5d 3f
       0.80466354 0.856091 0.84137857 0.86618847
000060 3e 27 7b 3f b0 19 77 3f 8d a4 31 3f 29 d0 85 3f
       0.98106754 0.9652357 0.6939171 1.045415
000070 f4 96 89 3f ae 10 7b 3f 1e 1e 5a 3f 42 d3 41 3f
       1.0749192 0.98072326 0.85202205 0.7571298
000080 3a cd 6e 3f 78 8b 91 3f 03 a7 6f 3f 85 4f 66 3f
       0.932819 1.1370687 0.93614215 0.8996509
000090 d3 6e 6a 3f a9 45 72 3f 1c 83 9b 3f 07 af 6c 3f
       0.91575354 0.9463754 1.2149386 0.9245457
0000a0 e6 79 58 3f a9 d9 70 3f 99 ad 4d 3f 52 94 47 3f
       0.84561 0.94082123 0.80343014 0.77960694
0000b0 14 78 58 3f 45 d8 3a 3f fc 4b 90 3f 34 d4 61 3f
       0.84558225 0.7298625 1.1273189 0.8821442
0000c0 19 e5 82 3f 37 c8 76 3f f6 7b 72 3f d5 8a 8e 3f
       1.0226165 0.96399254 0.947204 1.1136118
0000d0 45 91 53 3f 1f 00 86 3f 8b 39 6a 3f 4c e0 6b 3f
       0.8264354 1.0468787 0.91494054 0.92139125
0000e0 81 2d 8f 3f 01 70 54 3f 08 18 7f 3f 9b 1d 67 3f
       1.1185762 0.82983404 0.99646044 0.9027955
0000f0 6a e2 92 3f 7c bd 6b 3f c9 15 66 3f 89 6a 67 3f
       1.1475346 0.92086005 0.8987699 0.90396935
000100 39 3d 62 3f a7 b0 82 3f ac 21 50 3f b0 34 89 3f
       0.8837467 1.021016 0.8130138 1.0719204
000110 14 67 76 3f 09 3a 66 3f 17 b9 75 3f 10 fe 86 3f
       0.96251035 0.89932305 0.9598555 1.0546284
000120 67 d7 64 3f 6d 21 54 3f 7b 0a 64 3f 1a 54 56 3f
       0.8939118 0.82863504 0.8907849 0.8372208
000130 93 f9 44 3f 09 14 69 3f 6f ac 53 3f bd 3e 41 3f
       0.7694332 0.91046196 0.8268499 0.75486356
000140 ad 15 7e 3f bd 74 5e 3f 0e 33 6c 3f 29 d7 61 3f
       0.99251825 0.8689688 0.92265403 0.88218933
000150 12 d8 79 3f 96 00 6b 3f 65 91 7f 3f 2d e3 8b 3f
       0.9759532 0.9179777 0.9983123 1.0928704
000160 bf 94 4c 3f 90 ca 5b 3f e0 0e 80 3f e1 2d 62 3f
       0.7991447 0.8585596 1.000454 0.88351256
000170 2b 1b 4a 3f a2 48 4d 3f 22 db 69 3f 94 ad 64 3f
       0.78947705 0.80188954 0.91349995 0.8932736
000180 91 e1 7c 3f d2 d7 69 3f 28 00 5c 3f fa 1e 4f 3f
       0.9878169 0.9134494 0.8593774 0.8090664
000190 c7 1d 85 3f 38 a6 92 3f 22 b7 4c 3f 92 c2 6b 3f
       1.0399712 1.1456976 0.7996694 0.92093766
0001a0 cb a8 56 3f 5e 67 83 3f 4a 59 5c 3f 9c 1e 58 3f
       0.8385131 1.026592 0.86073744 0.84421706
0001b0 c1 74 63 3f bf d1 5d 3f ac 46 81 3f 7a 65 83 3f
       0.8885003 0.8664817 1.0099692 1.0265343
0001c0 7a cd 54 3f 74 be 68 3f 0c f1 89 3f 65 38 85 3f
       0.8312603 0.9091561 1.0776687 1.0407835
0001d0 64 29 41 3f ea 27 47 3f 44 54 5e 3f bf 48 78 3f
       0.7545378 0.7779528 0.8684733 0.96986
0001e0 9d ef 57 3f 47 04 59 3f 82 80 7f 3f c4 93 6a 3f
       0.84349996 0.8477215 0.9980546 0.9163172
0001f0 11 cd 69 3f 8d ef 43 3f c1 9e 28 3f 94 6b 88 3f
       0.9132853 0.765374 0.6586724 1.065783
000200 21 25 67 3f 2d d2 74 3f 4c ce 6a 3f d7 0e 71 3f
       0.9029103 0.956332 0.91721034 0.9416327
000210 ae 5d 88 3f 6e 01 70 3f db 6a 47 3f 0a 0f 6f 3f
       1.0653589 0.9375218 0.77897424 0.9338232
000220 f0 dc 58 3f d2 98 80 3f dc da 75 3f 39 4c 7c 3f
       0.84712124 1.0046637 0.9603708 0.98553807
000230 4a db 5e 3f 3f 4e 51 3f 04 3c 81 3f 24 71 3d 3f
       0.8705336 0.8176002 1.009644 0.74000764
000240 c5 b0 31 3f 3e 0f 52 3f 9b 22 5b 3f c6 e6 53 3f
       0.69410354 0.8205451 0.8559968 0.8277401
000250 15 e1 72 3f 13 c6 6e 3f ad 24 58 3f 0d 1d 87 3f
       0.948747 0.9327099 0.8443096 1.055574
000260 a7 0b 72 3f cf 40 68 3f 02 45 69 3f 0b 2c 7f 3f
       0.9454903 0.9072389 0.9112092 0.9967658
000270 92 3d 5c 3f 43 34 55 3f cd 65 83 3f 14 ac 60 3f
       0.8603145 0.8328287 1.0265442 0.8776257
000280 b0 7e 8e 3f 45 f1 6d 3f 81 92 80 3f 12 48 59 3f
       1.1132412 0.92946273 1.004471 0.84875596
000290 71 59 88 3f 3b d3 76 3f bb a4 4e 3f 25 a0 7e 3f
       1.0652295 0.9641606 0.8072011 0.9946311
0002a0 18 63 5a 3f 3b 5d 8d 3f ce ab 66 3f 42 25 63 3f
       0.85307455 1.1044077 0.90105903 0.88728726
0002b0 d9 a1 64 3f 15 55 7e 3f b7 83 60 3f 3f 9f 80 3f
       0.8930946 0.99348575 0.8770098 1.0048598
0002c0 3a ec 58 3f a5 9b 86 3f 08 48 91 3f 17 79 67 3f
       0.84735453 1.0516249 1.1350107 0.90419143
0002d0 2c 49 68 3f bf 2a 8d 3f 7c 61 5f 3f 3d 3d 67 3f
       0.9073665 1.102867 0.87258124 0.9032782
0002e0 c6 38 3e 3f 4c 04 51 3f 61 4e 55 3f 6d bb 6f 3f
       0.7430538 0.8164718 0.8332272 0.93645364
0002f0 db ed 5e 3f c1 0f 56 3f 74 85 7a 3f b8 b8 75 3f
       0.8708169 0.8361779 0.97859883 0.95984983
000300 ae f8 50 3f 76 6a 7d 3f 09 2e 82 3f 1d 6a 87 3f
       0.81629455 0.9899057 1.0170299 1.0579258
000310 6e 95 6a 3f 19 72 62 3f 82 5d 66 3f 6f aa 51 3f
       0.9163426 0.8845535 0.8998643 0.81900686
000320 b3 71 50 3f c3 e3 5c 3f bc 66 9b 3f 91 3e 56 3f
       0.8142349 0.86285037 1.2140727 0.8368922
000330 68 97 77 3f 13 b9 7d 3f 45 96 7a 3f 0b 95 77 3f
       0.967154 0.99110526 0.97885543 0.96711797
000340 20 f3 56 3f e6 8d 57 3f af ff 7c 3f 5d 90 6f 3f
       0.8396473 0.84200895 0.9882764 0.93579656
000350 f3 1e 7b 3f b3 8d 57 3f 8d 6e 5d 3f 80 5e 69 3f
       0.980941 0.8420059 0.8649681 0.9115982
000360 4f 5c 7f 3f 2f fb 7d 3f e4 2a 57 3f 61 e2 7c 3f
       0.99750227 0.992114 0.8404982 0.98782927
000370 38 d0 50 3f 16 d6 5e 3f 09 91 7c 3f 8c a7 4a 3f
       0.81567717 0.8704542 0.98658806 0.79161906
000380 18 ba 78 3f 4c d1 62 3f 9f 87 a8 3f 5a 00 7d 3f
       0.97158957 0.8860061 1.3166388 0.9882866
000390 de 2a 69 3f 1c 84 4e 3f d0 2d 61 3f 0d f3 86 3f
       0.91081035 0.8067033 0.8796053 1.0542923
0003a0 e4 2f 6d 3f 59 d9 61 3f 30 31 76 3f 34 25 3c 3f
       0.926512 0.8822227 0.96168804 0.7349427
0003b0 20 4c 77 3f be 84 4b 3f 45 1a 80 3f e6 1e 4e 3f
       0.9660053 0.79499424 1.0008017 0.805159
0003c0 2b 22 5d 3f ee 66 5d 3f ae bd 58 3f 83 7e 81 3f
       0.8638026 0.86485183 0.8466443 1.0116733
0003d0 ee a7 64 3f 2c 6d 8b 3f cf 81 73 3f 08 d5 6a 3f
       0.8931874 1.0892692 0.9511995 0.9173131
0003e0 21 e1 6b 3f 8f 53 92 3f 74 c9 6a 3f 54 8d 90 3f
       0.92140394 1.143175 0.91713643 1.129313
0003f0 aa 09 5d 3f 87 be 81 3f 1c f9 5c 3f f5 71 81 3f
       0.8634287 1.0136269 0.8631761 1.0112902
