Parte II/TEC_AD_TP2/models/fcn_best_run_10_seed_1234.pt (torch, 229096 bytes, 20 tensors)

fc1.weight f4 [256, 41]
0	0xbe2f40c4	-0.1711455
1	0x3d013b2c	0.03155057
2	0xbe8bdb28	-0.2731564
3	0xbe77b07d	-0.24188419
4	0x3eaea61e	0.34111112
5	0xbea2afae	-0.31774658
6	0xbe65a461	-0.22425987
7	0xbc835883	-0.016033417
8	0x3e23eef3	0.1600912
9	0x3c4ca39d	0.01249018
10	0xbe21e9c3	-0.1581183
11	0xbe725219	-0.2366413
12	0x3e66b494	0.22529823
13	0xbe40b5f0	-0.18819404
14	0xbdc2a9c8	-0.095050395
15	0x3d8d9538	0.06913227
16	0x3e69a836	0.22818074
17	0xbdadb610	-0.08481991
18	0xbd836025	-0.064148225
19	0x3e966fdb	0.29382214
20	0x3f00001f	0.50000185
21	0xbf09a404	-0.53765893
22	0xbeee6387	-0.46560308
23	0xbe73ba8e	-0.23801634
24	0xbe96540f	-0.29361007
25	0x3e964969	0.29352883
26	0xbe8b73fa	-0.2723692
27	0xbe885087	-0.26623937
28	0x3da9b5e8	0.08286649
29	0x3d360605	0.044439334
30	0x3e20d132	0.15704802
31	0x3d5bf014	0.053695753
32	0x3debe9ab	0.11519178
33	0xbe308d46	-0.17241392
34	0x3e34467e	0.17605016
35	0xbe1af8d8	-0.15133989
36	0xbe4b231d	-0.19837613
37	0xbd87ffa5	-0.06640557
38	0xbd95723e	-0.072971806
39	0xbea65a14	-0.324906
40	0xbe1f2625	-0.15541895
41	0x3e9b27f6	0.30303925
42	0xbe8453ab	-0.25845084
43	0x3d3647cc	0.044502065
44	0x397f659b	0.00024356546
45	0xbf091c20	-0.5355854
46	0xbc8ac6b8	-0.01694046
47	0xbe74893d	-0.23880477
48	0xbdd37a02	-0.103260055
49	0x3ecbb6e1	0.39787963
50	0x3bd11198	0.006380271
51	0x3da5ef84	0.081023246
52	0x3e1dac47	0.1539775
53	0x3e246620	0.16054583
54	0x3d326ca4	0.04356064
55	0xbe5b2099	-0.21399154
56	0xbe393bab	-0.18089168
57	0xbeb66df9	-0.35630777
58	0x3e1500d3	0.14551096
59	0x3e81fcd6	0.2538821
60	0x3db26138	0.08709949
61	0xbbb52bec	-0.0055289175
62	0xbdcf57e7	-0.10124188
63	0xbe9f6023	-0.31128034
64	0xbdab7b7d	-0.08373163
65	0x3daa92a4	0.08328751
66	0x3d26beff	0.04070949
67	0x3e29bfc2	0.16577056
68	0x3ebc842b	0.36819586
69	0x3ebb1825	0.36541858
70	0xbe889ffe	-0.26684564
71	0xbe054012	-0.13012722
72	0x3efc52de	0.49281973
73	0x3de34c1b	0.110985
74	0xbe124034	-0.14282304
75	0xbeeaff89	-0.45898083
76	0x3ccff02a	0.025383074
77	0xbe5b684d	-0.21426506
78	0xbd047a3b	-0.03234313
79	0x3d77f55a	0.06053672
80	0x3dc0a979	0.09407324
81	0xbe5d80ca	-0.2163116
82	0x3de0b1e6	0.109714314
83	0xbe9c17cd	-0.3048691
84	0x3da6bfb8	0.08142036
85	0xbe6be00e	-0.23034689
86	0x3f38eba2	0.7223455
87	0x3dad142b	0.08451112
88	0x3ea0e898	0.31427455
89	0xbdc2412b	-0.09485086
90	0xbdddcabf	-0.108296864
91	0x3c20ef22	0.009822639
92	0xbe4bdc28	-0.19908202
93	0xbca99ec9	-0.020705597
94	0x3e88cbfd	0.2671813
95	0xbe98b4a3	-0.29825315
96	0xbd0ec8c6	-0.03485944
97	0x3e9cbd2e	0.30613083
98	0x3e9c96f5	0.3058392
99	0x3e140692	0.14455631
100	0x3e033132	0.12811735
101	0xbe9ca634	-0.30595553
102	0x3e02c7e5	0.12771566
103	0x3eb76bc1	0.35824397
104	0x3e241d27	0.16026746
105	0xbdd50f11	-0.10403264
106	0xbc43c031	-0.0119476775
107	0x3e8dc750	0.27691126
108	0xbdc0fa05	-0.094226874
109	0x3db7e554	0.08979288
110	0xbb8751f8	-0.0041296445
111	0xbe84174b	-0.2579902
112	0xbe7b482c	-0.2453925
113	0x3ed06ab1	0.407064
114	0xbe7451ae	-0.23859283
115	0x3d24da6b	0.040247362
116	0x3ea35095	0.31897417
117	0x3b435233	0.0029803633
118	0xbe78b8a3	-0.24289183
119	0x3d769038	0.06019613
120	0xbf2d802d	-0.67773706
121	0xbd609795	-0.05483206
122	0xbd8e11a1	-0.06936956
123	0xbed16d91	-0.40903905
124	0xbcf4f638	-0.029902562
125	0x3e0d23d5	0.137832
126	0x3e9281aa	0.2861455
127	0x3eacffb5	0.3378884
128	0x3e919911	0.28437093
129	0x3e2bce4b	0.16777913
130	0x3e5dbd84	0.21654326
131	0xbe55ac74	-0.20866567
132	0x3e70fe47	0.23534499
133	0x3e0e5ac4	0.13901812
134	0xbe5049a3	-0.2034059
135	0xbdf0d536	-0.11759417
136	0xbd2151fd	-0.03938483
137	0xbdd27240	-0.10275698
138	0xbe840572	-0.25785404
139	0x3da5b4b4	0.08091107
140	0x3e2089fd	0.15677638
141	0xbe4dc926	-0.20096263
142	0x3cf61b79	0.030042397
143	0x3c323391	0.010876552
144	0x3ea53d68	0.32273412
145	0x3e4aceff	0.19805525
146	0xbd82e249	-0.06390817
147	0xbcf8ffba	-0.030395377
148	0x3e94ad5d	0.29038516
149	0xbef00317	-0.46877357
150	0x3e8eee9d	0.27916422
151	0x3c181c84	0.009284142
152	0xbdbc8060	-0.09204173
153	0x3de80f6d	0.11331067
154	0xbe475e2b	-0.19469516
155	0x3e65a354	0.22425586
156	0xbc454a72	-0.012041675
157	0x3e9a9cad	0.3019766
158	0x3d7f8228	0.062379986
159	0xbec5e074	-0.38647807
160	0xbebcc003	-0.36865243
161	0x3e939572	0.28824955
162	0x3d91eb34	0.071249396
163	0x3e8e0f70	0.27746153
164	0xbe2e07d2	-0.1699517
165	0xbd80eddb	-0.06295367
166	0xbe18ac9d	-0.14909597
167	0xbd87b6a9	-0.066266365
168	0xbeb5e157	-0.35523483
169	0x3df1fc8c	0.118157476
170	0x3ea9fe3b	0.33201775
171	0xbcf2a8a8	-0.029621437
172	0x3f0a3738	0.5399051
173	0x3c0b3e42	0.00849873
174	0xbe49d8ec	-0.19711655
175	0xbe9d07b4	-0.3066994
176	0xbe85a328	-0.2610104
177	0x3eccba2d	0.3998579
178	0xbde06807	-0.10957342
179	0x3e7599d0	0.23984456
180	0x3da7ede6	0.081996724
181	0x3e75f558	0.24019372
182	0xbdc02f47	-0.093840174
183	0x3dd5371f	0.10410904
184	0xbe28c1a6	-0.16480121
185	0xbe512c9d	-0.20427175
186	0xbdc48753	-0.095961235
187	0x3e6a060f	0.22853874
188	0xbda3f855	-0.0800635
189	0xbec19509	-0.37809017
190	0x3dd6ac5b	0.10482093
191	0xbd2b50dd	-0.041825164
192	0xbe9c2a69	-0.30501106
193	0x3e07df7c	0.13268846
194	0xbe13d218	-0.14435613
195	0x3e2329cd	0.15933914
196	0x3c634887	0.013872272
197	0x3eb3cc33	0.3511673
198	0x3e6e90ed	0.23297472
199	0x3e019cf0	0.12657523
200	0xbdc6ca3e	-0.097065434
201	0xbe4debd7	-0.20109497
202	0x3e8cc098	0.27490687
203	0x3c7a3acb	0.015272806
204	0xbd0a1703	-0.033713352
205	0xbe2271f9	-0.1586379
206	0x3ec2b50d	0.38028756
207	0x3e782afc	0.24235147
208	0xbe855c6e	-0.2604708
209	0x3effdaa8	0.4997151
210	0xbe0292fd	-0.12751384
211	0x3db1d8c4	0.08683923
212	0x3a19a944	0.00058617094
213	0x3e969fa2	0.29418665
214	0xbe38234a	-0.17982212
215	0xbcefc4ac	-0.029268585
216	0xbe3e2d5e	-0.18571994
217	0xbe75eb7f	-0.24015616
218	0x3e7ac033	0.2448738
219	0x3e3594f4	0.17732602
220	0xbe4f7be3	-0.20262103
221	0x3d6804b1	0.0566451
222	0x3d04beb1	0.03240842
223	0xbe7bd663	-0.24593501
224	0x3db35980	0.08757305
225	0xbdaebb85	-0.0853186
226	0xbd86d14e	-0.065828905
227	0x3e6184a9	0.22023262
228	0xbe456009	-0.19274916
229	0x3e5987a6	0.21243152
230	0xbe3aa73d	-0.18227859
231	0x3e9ca5cb	0.3059524
232	0xbe2bf6f6	-0.16793427
233	0x3e6413a3	0.22273116
234	0xbd750ba7	-0.059825566
235	0x3df7555f	0.1207683
236	0x3ee24ca9	0.44199112
237	0x3d34433f	0.044009443
238	0x3e94dc18	0.29074168
239	0x3dd40654	0.103527695
240	0x3eaf969a	0.34294587
241	0xbe9f6822	-0.31134135
242	0xbe1ad393	-0.15119772
243	0xbed5d9c1	-0.41767696
244	0xbe9a0515	-0.30082002
245	0xbc86e6d9	-0.016467499
246	0xbd99e3a9	-0.07514126
247	0xbe238657	-0.15969215
248	0xbdcd9967	-0.10039025
249	0x3e7e5e13	0.24840574
250	0x3ed5a442	0.4172688
251	0xbe8b5bc7	-0.27218458
252	0xbdb320e5	-0.087465085
253	0x3dbef29c	0.09323618
254	0xbea2b1cf	-0.31776282
255	0x3e85850c	0.2607807

fc1.bias f4 [256]
0	0x3b972a3e	0.00461319
1	0x3bf50b65	0.007478165
2	0x3c1f28ff	0.009714364
3	0xb8bf8e5f	-9.1341084e-05
4	0x3ba47b08	0.0050195493
5	0x3c154710	0.009111181
6	0xbd5136ec	-0.05107777
7	0x3b98f60a	0.004668002
8	0xbc859824	-0.016307898
9	0xbb219499	-0.0024655221
10	0x3d29eb13	0.04148395
11	0x3c54d86d	0.012991053
12	0xbc9d93d2	-0.019235525
13	0x3c053fda	0.008132899
14	0xbbe89661	-0.0070980047
15	0xba9b9e56	-0.0011872749
16	0xbb257ccc	-0.0025251387
17	0x3bc7bc2f	0.0060954313
18	0xbd6341bd	-0.055482615
19	0xbd40d0c3	-0.04707409
20	0xbbe51996	-0.0069915755
21	0xbc88a436	-0.016679864
22	0x3c1a29e7	0.009409404
23	0x3c4a8609	0.012361058
24	0x3b9d1bb0	0.0047945604
25	0xbceb32e6	-0.028710794
26	0xbbebcad0	-0.007195808
27	0xbbf77948	-0.0075522996
28	0x3c2cf49b	0.010556365
29	0x3b869dec	0.004108181
30	0xbb2cf817	-0.002639299
31	0xbb18c800	-0.0023312569
32	0x3bc4fe3b	0.006011752
33	0x3b8f6fea	0.004377355
34	0xbc9aae5c	-0.01888197
35	0xbc77ab8b	-0.015116583
36	0xbb23f1e0	-0.0025015995
37	0xbb9eafd1	-0.0048427363
38	0xbb30a92f	-0.002695631
39	0xbb339c2a	-0.0027406313
40	0xb8f0b562	-0.00011477877
41	0xbbabf27f	-0.0052474136
42	0xbc3348ec	-0.010942679
43	0xbb170c9b	-0.0023048285
44	0xbacb221b	-0.0015497835
45	0xbbc02c79	-0.0058646766
46	0x3bb525f9	0.0055282083
47	0x3bb6ea1f	0.0055821086
48	0x3b92e3f8	0.0044827424
49	0x3ce064b6	0.027391773
50	0x3bd4a195	0.0064889886
51	0xbc37458a	-0.011186013
52	0xbb0d644a	-0.002157467
53	0x3b9150cf	0.004434682
54	0x3b1360c0	0.0022488087
55	0x3c505147	0.0127146905
56	0x3caeb700	0.021327496
57	0xbb37072b	-0.0027927856
58	0x3bb2f6ae	0.0054615354
59	0xbb8ae8cf	-0.0042391787
60	0x3b851030	0.0040607676
61	0xbc1f4592	-0.009721177
62	0xbbf5392e	-0.007483623
63	0xbaca8f95	-0.0015454168
64	0x3b70b4a2	0.003672876
65	0x3af3ecb9	0.0018609978
66	0xbcbe3d6f	-0.023222653
67	0xbbc66760	-0.0060548037
68	0x3d15bb0f	0.036555346
69	0x3c8ef0a0	0.017448723
70	0x3b5ee0e7	0.0034008564
71	0xbaa28ca4	-0.0012401533
72	0xbc8d21f8	-0.017228112
73	0xbc0c1d02	-0.008551838
74	0xbc20191c	-0.009771612
75	0x3cb3c873	0.021946168
76	0xbc04b9b4	-0.008100916
77	0xba97b7a1	-0.0011575111
78	0x3ba9324d	0.005163467
79	0xba63de30	-0.00086924713
80	0x38257197	3.9444854e-05
81	0xbbd51612	-0.006502875
82	0xba959b4e	-0.0011414082
83	0x3cd09988	0.025463834
84	0xbaa7a520	-0.00127903
85	0x3bdb52d1	0.006693222
86	0x3b88efd6	0.0041789813
87	0x3b954416	0.0045552356
88	0xbcd1ba4d	-0.02560153
89	0x3d05dad2	0.032679386
90	0x39b70805	0.00034910455
91	0xbb992dfb	-0.0046746708
92	0xbb1e7821	-0.002418049
93	0xbaabadef	-0.0013098101
94	0x3900664f	0.00012245144
95	0x3c1b8568	0.009492256
96	0x3bb38bbf	0.0054793055
97	0xbc32a974	-0.010904659
98	0x3c2c2db9	0.010508948
99	0xbc1dd7c9	-0.009633967
100	0xbc16688a	-0.0091801975
101	0x3acdba66	0.001569581
102	0xbc7c1d29	-0.015387812
103	0xb922a1d3	-0.00015509808
104	0xbbd1d674	-0.0064037386
105	0x3beb955f	0.0071894373
106	0x3c0f8543	0.008759799
107	0x3a82656f	0.0009948442
108	0x3c80aea4	0.015708275
109	0xbcdbeae2	-0.0268454
110	0xbbd027fc	-0.0063524228
111	0x3b80d935	0.003932143
112	0x3c977c23	0.01849181
113	0xb8b27374	-8.509206e-05
114	0x3c393101	0.011303187
115	0x3c5957a7	0.013265527
116	0xbcbe1b4b	-0.023206374
117	0xbafb7094	-0.0019183331
118	0x3a38ee9c	0.00070545985
119	0x3b3f2b78	0.0029170197
120	0xbbf12f21	-0.0073603545
121	0x3bf8d868	0.007594157
122	0xbbaea169	-0.0053293
123	0x3b79b108	0.0038099904
124	0x3c2858be	0.010275064
125	0xbba97b61	-0.0051721786
126	0xbb320745	-0.0027164978
127	0xbc84e570	-0.016222686
128	0xbc8d8070	-0.017273158
129	0x3c2b8c62	0.010470482
130	0xbb6888c4	-0.003548191
131	0xbc677a9b	-0.0141283525
132	0x3a449ba9	0.0007500002
133	0x3be0cedd	0.0068605975
134	0xbc498911	-0.012300746
135	0xbca75828	-0.020427778
136	0xba33a4d8	-0.0006852872
137	0x39de2893	0.0004237337
138	0xba475202	-0.00076034677
139	0x399102fe	0.00027658785
140	0x3c34d6bc	0.011037525
141	0xbb2410e2	-0.0025034477
142	0x3b6811ee	0.0035411078
143	0x3bd4f241	0.0064986055
144	0xbc0b67e2	-0.008508654
145	0x3d7b2082	0.0613103
146	0x3cd82b49	0.026387827
147	0xbaca85a5	-0.0015451206
148	0x3cb9254a	0.022600789
149	0x3bbbccae	0.005731187
150	0xbc380d22	-0.0112336
151	0x3d1ccf6f	0.03828376
152	0x3bd7d6d9	0.006586891
153	0xbc716cd3	-0.014735418
154	0xbcc8869b	-0.024478247
155	0x3c299790	0.010351077
156	0x3bb375e3	0.0054766997
157	0x399d2273	0.0002997104
158	0x3d3a6dfa	0.045515038
159	0xbbf07896	-0.0073385937
160	0x39b5aa0a	0.000346497
161	0xba684fd9	-0.0008861996
162	0xbb9e4073	-0.0048294603
163	0xbb803e60	-0.0039136857
164	0xbc91d40b	-0.017801305
165	0xbc838b53	-0.016057646
166	0x3a2e0602	0.00066384685
167	0xbb91b85d	-0.0044470266
168	0xbc85af6f	-0.016319005
169	0xba6554bf	-0.0008748285
170	0x3b52906e	0.0032129544
171	0xba611bcb	-0.00085872103
172	0x3cbc8dc5	0.02301682
173	0x3bb75d35	0.005595828
174	0xbc16651a	-0.009179378
175	0x3bc82fff	0.006109237
176	0x3b9b759b	0.0047442443
177	0xb93509f4	-0.00017265213
178	0x3ca06bc4	0.019582637
179	0x3bacf61a	0.005278361
180	0xb9eb8251	-0.00044919786
181	0xba94f834	-0.0011365474
182	0x3be16b2a	0.00687923
183	0xba8ef553	-0.0010906853
184	0xbbda0d47	-0.006654415
185	0x3b34c907	0.0027585642
186	0xbc916f4c	-0.017753266
187	0x3beadc9d	0.0071674124
188	0x3d00a727	0.03140941
189	0x3bc15f82	0.005901278
190	0x3ce36aa0	0.027760804
191	0xbca4ec77	-0.020132286
192	0x3b61de19	0.0034464656
193	0x3b9c6826	0.0047731576
194	0x3bfda378	0.0077404343
195	0x3b5209b4	0.003204924
196	0xbbccc59b	-0.0062491423
197	0xbb2709e0	-0.0025488064
198	0x3b1d3a5d	0.0023991086
199	0xbb2e5856	-0.0026602945
200	0x3c06bb12	0.008223312
201	0xba10684f	-0.0005508707
202	0x3bc147bc	0.005898444
203	0xbcfb7fe6	-0.030700635
204	0xbcb7ab5d	-0.02242058
205	0x3c2de6c4	0.010614101
206	0xbab3a094	-0.0013704472
207	0xbb638e07	-0.0034722106
208	0xbbb5eded	-0.0055520446
209	0x3c3b45f4	0.011430252
210	0xba67d583	-0.00088437664
211	0xbafedf2b	-0.0019445171
212	0xbc26e65b	-0.010186757
213	0xbcb2c67b	-0.021823158
214	0x3c7d6300	0.015465498
215	0x3bf2e67c	0.00741273
216	0xbc266979	-0.010156983
217	0x3b9c849d	0.004776551
218	0x3be10619	0.006867182
219	0x3be0ca9b	0.00686009
220	0xbcd0d847	-0.025493754
221	0x3b240639	0.0025028123
222	0xbb07d416	-0.0020725778
223	0x3c2b7a88	0.010466225
224	0x3c7244fe	0.014786957
225	0xbc53d855	-0.012929996
226	0x3c7a283e	0.015268384
227	0xbbb254c5	-0.005442234
228	0x3bd1e58e	0.006405539
229	0xbc757061	-0.0149804065
230	0x3bc97af5	0.006148691
231	0xbbec57ac	-0.0072125997
232	0xbd0ab6b9	-0.033865664
233	0x3c002f16	0.007823726
234	0x3c44adcf	0.01200433
235	0x3a17da72	0.0005792744
236	0x3ce436ac	0.0278581
237	0x3c156080	0.009117246
238	0xbc4eefb1	-0.012630389
239	0xbb8337f4	-0.004004473
240	0xbafafa7a	-0.0019148134
241	0x3afc197b	0.0019233668
242	0xbb00c4d0	-0.001964856
243	0x3c137db0	0.009002134
244	0x3c380ad8	0.011233054
245	0xbb64b1a2	-0.0034895916
246	0xbc7936ce	-0.01521082
247	0x3c6e8656	0.014558395
248	0x3cbf86ab	0.023379644
249	0x3b8fe5d6	0.0043914123
250	0xbb4e3e06	-0.0031470074
251	0x3bdf861a	0.006821406
252	0xbc9604b8	-0.018312797
253	0x3c71a467	0.014748669
254	0xbb9093c3	-0.004412146
255	0xbaeed0ab	-0.0018220147

fc2.weight f4 [128, 256]
0	0xbc45d58d	-0.01207484
1	0x3d006baa	0.031352676
2	0x3c315eb5	0.010825803
3	0xbd8b8d2e	-0.06814037
4	0x3d068a8c	0.032846972
5	0xbe067e74	-0.13134176
6	0x3e362cbf	0.17790507
7	0x3d4074c9	0.046986375
8	0xbe026f23	-0.12737708
9	0xbd838608	-0.06422049
10	0xbe72ecb5	-0.23723109
11	0xbdec5aff	-0.11540794
12	0x3e1d22b7	0.15345274
13	0xbdc0980e	-0.09404002
14	0x3e75e22d	0.2401206
15	0xbdbf9628	-0.09354812
16	0x3e527fda	0.20556584
17	0x3d8c5d78	0.06853765
18	0x3e2935d6	0.16524443
19	0x3db12b3e	0.08650826
20	0xbe0e3b30	-0.13889766
21	0x3e41bd30	0.18919826
22	0xbdbeaeca	-0.09310682
23	0x3dac4ff1	0.08413685
24	0x3e296a9b	0.16544573
25	0x3e6ab8bc	0.22922033
26	0xbd523300	-0.05131817
27	0x3e45d21d	0.19318433
28	0x3d506ed8	0.05088696
29	0x3d04302b	0.0322725
30	0xbe0fdb6f	-0.14048551
31	0xbccf0dbb	-0.025275102
32	0x3c00f052	0.007869797
33	0x3d8da92d	0.06917033
34	0x3cd88c20	0.026434004
35	0xbd2faec5	-0.042891283
36	0x3e068538	0.13136756
37	0xbcc9ea78	-0.024647936
38	0xbdd757eb	-0.10514816
39	0xbda24855	-0.079239525
40	0x3d5058cc	0.050865933
41	0xbd8319c5	-0.064013995
42	0xbe258f43	-0.16167931
43	0x3e5fc392	0.21851948
44	0x3d950aee	0.07277475
45	0x3d8975be	0.06711911
46	0x3e1b0241	0.15137579
47	0xbd38c548	-0.045110017
48	0xbd665c98	-0.056240648
49	0x3b9b0631	0.0047309627
50	0xbe7c9cbb	-0.24669163
51	0xbe72140b	-0.23640458
52	0x3d6eab89	0.058269057
53	0xbcd166f6	-0.02556179
54	0x3e706e3f	0.23479556
55	0x3d2dbf15	0.04241856
56	0xbdb8f2aa	-0.090306595
57	0xbe5c02c2	-0.21485427
58	0x3d42398c	0.047418162
59	0x3d5aa888	0.05338338
60	0x3ea0bc6d	0.31393757
61	0xbc5a296a	-0.013315538
62	0x3dfbe224	0.12298992
63	0x3d0741cc	0.033021733
64	0xbd7fa477	-0.062412705
65	0xbcfd93c7	-0.030954255
66	0xbd8e1495	-0.069375195
67	0xbc9d084d	-0.019168997
68	0xbdc6c295	-0.09705082
69	0xbd5f8811	-0.054573122
70	0xbcf3d9df	-0.029766975
71	0x3d81fddf	0.0634725
72	0x3cd8cec7	0.026465787
73	0xbbb0b851	-0.005393066
74	0xbe01a474	-0.1266039
75	0x3d6e833e	0.05823063
76	0xbb015c4c	-0.001973885
77	0x3e5e149c	0.2168755
78	0x3dcfcc23	0.10146358
79	0xbe5cca59	-0.21561565
80	0x3d838252	0.06421341
81	0x3e4c1e3d	0.1993341
82	0x3d601892	0.054710932
83	0x3e45532c	0.19270009
84	0xbc22ee14	-0.009944458
85	0x3e1302a7	0.1435648
86	0xbc1eef8d	-0.009700668
87	0x3e02f8c5	0.1279021
88	0x3c9a924b	0.018868586
89	0x3e6d780c	0.23190325
90	0x3e5d34bb	0.21602146
91	0xbca66843	-0.020313388
92	0x3e2c871d	0.16848417
93	0x3de5fe4a	0.112301424
94	0xbd99d179	-0.07510657
95	0x3cf61715	0.030040303
96	0x3c4355ac	0.011922281
97	0xbe35aaee	-0.17740986
98	0xbd7055e8	-0.058675677
99	0xbd8c385c	-0.06846687
100	0xbd8c5946	-0.06852965
101	0xbdc3cbf5	-0.09560386
102	0x3e0ce389	0.13758673
103	0x3df61cd6	0.12017219
104	0x3e5b3f8d	0.21410961
105	0xbdb6c496	-0.089242145
106	0x3e063502	0.13106158
107	0x3e1fdfa2	0.15612653
108	0x3d276b7e	0.040873997
109	0x3dc4cb85	0.09609131
110	0x3e0c7e7e	0.13720128
111	0x3dd3669b	0.10322305
112	0x3e2337cb	0.15939252
113	0xbdc693c2	-0.09696151
114	0xbc1e7b15	-0.0096729
115	0x3def8d31	0.11696852
116	0xbd906c57	-0.07051914
117	0xbdceee30	-0.101040244
118	0xbbbc8907	-0.0057536396
119	0x3e1cda0e	0.15317556
120	0x3e08e5c2	0.13368896
121	0xbaf3b989	-0.0018594722
122	0x3d49fa33	0.049310874
123	0x3d1dc7f5	0.038520772
124	0x3dd5ec61	0.10445476
125	0x3d74e611	0.05978972
126	0xbdd7919a	-0.10525818
127	0xbd9c0d4b	-0.07619723
128	0xbd353729	-0.044242058
129	0x3d67aa3e	0.05655884
130	0xbcf67839	-0.030086624
131	0x3e4df0d1	0.20111395
132	0x3be1335c	0.0068725776
133	0x3d768a11	0.060190264
134	0x3e20aec7	0.15691672
135	0x3d8dc62b	0.06922563
136	0xbe183744	-0.14864832
137	0xbd97f27a	-0.074192956
138	0x3d3cf2a9	0.046129856
139	0xbe07f8c5	-0.13278492
140	0x3e347630	0.1762321
141	0x3e33733e	0.1752443
142	0xbdf7b5a4	-0.12095192
143	0xbdbf109c	-0.0932934
144	0xbe0ab1ed	-0.13544436
145	0xbd9b89b4	-0.07594624
146	0xbd4d0b93	-0.050059866
147	0xbaaac3b6	-0.0013028297
148	0xbd900479	-0.07032103
149	0xbde545bb	-0.11194941
150	0x3e3c746e	0.1840379
151	0xbe15de63	-0.14635615
152	0x3e1f8306	0.15577325
153	0x3e05ef19	0.1307949
154	0xbde8e408	-0.113716185
155	0xbd13e174	-0.03610368
156	0x3dd51f27	0.104063325
157	0xbdf679ba	-0.12034936
158	0x3e2ae62d	0.16689368
159	0x3cfbdca1	0.030744852
160	0x3db772f4	0.089574724
161	0x3e0392d6	0.12848982
162	0x3d86695f	0.06563067
163	0x3d4a8977	0.049447503
164	0x3e1b386f	0.15158246
165	0xbcd58db0	-0.026068538
166	0xbdd053a7	-0.101722054
167	0xbe085ce1	-0.1331668
168	0xbd6aa400	-0.05728531
169	0x3cafdb0e	0.021466758
170	0x3c8932e2	0.016747896
171	0xbe00fc0b	-0.12596147
172	0xbe1de9e7	-0.15421258
173	0x3e1a03e1	0.15040542
174	0xbd30ac69	-0.043133173
175	0x3ddb616d	0.10711942
176	0xbb065f49	-0.0020503572
177	0x3e22f6d2	0.15914467
178	0xbc1c40cd	-0.009536934
179	0xbc9f2aa8	-0.01942952
180	0x3db70f43	0.08938458
181	0x3d8dbedd	0.0692117
182	0xbdd6c7f4	-0.10487357
183	0x3dc8c19a	0.098025516
184	0xbd20ba79	-0.039240334
185	0x3db6141f	0.088905565
186	0x3d67c8d8	0.056588024
187	0x3dc8ea07	0.09810262
188	0xbbdbf83d	-0.006712942
189	0x3d58ca1c	0.05292712
190	0x3e628224	0.22119957
191	0x3ddd6727	0.108106904
192	0x3da67c27	0.08129149
193	0xbde2bed9	-0.110715576
194	0xbd1b7b37	-0.037959304
195	0x3ddaf0f7	0.10690492
196	0x3902269d	0.0001241215
197	0xbe3281b8	-0.17432296
198	0x3d53534c	0.05159311
199	0xb9a2a3ac	-0.00031020993
200	0xbd49dfba	-0.049285628
201	0x3dd15e76	0.10223095
202	0xbde2e39d	-0.1107857
203	0x3e1dc282	0.1540623
204	0xbd86a678	-0.0657472
205	0x3d5ee78d	0.054420043
206	0x3db8966d	0.090130664
207	0x3d302e1c	0.043012723
208	0xbd9a720c	-0.07541284
209	0x3c6615ec	0.0140433125
210	0x3d1f89e6	0.03894987
211	0x3cb289d1	0.021794232
212	0x3dd5d85f	0.1044166
213	0x3e79a5fc	0.24379724
214	0x3cbdd784	0.023174055
215	0x3e1e7027	0.1547247
216	0x3e026f1f	0.12737702
217	0x3ca41f10	0.020034343
218	0x3cfc9f19	0.030837582
219	0x3e886905	0.26642624
220	0x3df3b551	0.11899818
221	0x3e76cd57	0.24101768
222	0x3e6a3127	0.22870313
223	0xbb68c155	-0.0035515625
224	0xbdc319ca	-0.09526403
225	0x3dc832f8	0.097753465
226	0x3e9c1e74	0.30491984
227	0x3c6a0a66	0.014284706
228	0xbd8ade98	-0.06780738
229	0x3d849991	0.06474603
230	0x3dbb1fc9	0.09136922
231	0x3e1acd24	0.15117317
232	0xbc0e209f	-0.00867477
233	0xbd9ae157	-0.075625114
234	0x3e231307	0.15925227
235	0x3dbed748	0.093184054
236	0x3dd406b8	0.10352844
237	0xbd7c7e34	-0.061643794
238	0x3db258b4	0.08708325
239	0xbd9a0f19	-0.07522411
240	0xbc983b04	-0.018582828
241	0x3e1de15a	0.15417996
242	0x3d24f3ca	0.040271558
243	0xbd09fd55	-0.033688862
244	0x3c8063d5	0.015672604
245	0x3caefbaf	0.021360246
246	0x3d6e6d6e	0.05820983
247	0x3cbc3645	0.022975096
248	0x3d78331b	0.060595613
249	0xbdba7899	-0.091050334
250	0x3ce56568	0.028002456
251	0x3db90dce	0.09035836
252	0xbd00636b	-0.031344812
253	0xbd53c3da	-0.05170045
254	0x3e12add9	0.1432413
255	0xbe049a04	-0.12949377

fc2.bias f4 [128]
0	0x3b82b69a	0.003989053
1	0xbc62ae39	-0.013835483
2	0x3cc8828e	0.024476316
3	0xbbec4b96	-0.007211159
4	0x3c7c47d3	0.015397984
5	0xbcdeca9a	-0.027196217
6	0x3bdca0f6	0.006733055
7	0x3c3bc5ad	0.011460704
8	0x3c297b6e	0.010344369
9	0xbce1257b	-0.027483692
10	0x3bd299c0	0.00642702
11	0xbcb75f5a	-0.022384334
12	0xbce05e81	-0.027388813
13	0x3c6b542a	0.014363328
14	0xbccc0e48	-0.024909154
15	0x3c21f800	0.009885788
16	0x3ce4352e	0.02785739
17	0x3a6868b7	0.00088657014
18	0xbc030cbf	-0.007998644
19	0xbcc26fc0	-0.023734927
20	0xbc3fe6b3	-0.011712718
21	0xbca2bcc9	-0.01986541
22	0x3cf89c0b	0.030347845
23	0xbcf7cafa	-0.030248154
24	0x3b841603	0.0040309443
25	0x3c9c1ffd	0.019058222
26	0x3c944cb8	0.018102989
27	0x3ca1234b	0.01967015
28	0xbbbf442e	-0.005836985
29	0xbbaa689d	-0.005200459
30	0xbbdbfba5	-0.006713348
31	0xbbbbbcd5	-0.0057292976
32	0xbc84362c	-0.016139112
33	0x3c884dd3	0.016638672
34	0x3bed98f9	0.007250902
35	0xbc3d505e	-0.011554806
36	0xbbf2f8c1	-0.0074149077
37	0xbc9e4e1c	-0.019324355
38	0x3a21d886	0.0006173927
39	0x3c6805f6	0.014161577
40	0x3c28dbbd	0.010306296
41	0x3c6ac809	0.014329919
42	0xbcaaa9ed	-0.02083298
43	0xbcf0e6c8	-0.02940692
44	0xbbbc241b	-0.005741609
45	0xbd15cae2	-0.036570437
46	0xbc21dd44	-0.009879414
47	0xbb268abb	-0.002541228
48	0x3cf5a590	0.029986173
49	0xbcb8d22c	-0.022561155
50	0x3c27c902	0.010240795
51	0xbd572efd	-0.052535046
52	0xbc95df36	-0.018294912
53	0xbc704b7b	-0.014666433
54	0xbcc6e6c8	-0.024279967
55	0x3b772e70	0.0037716888
56	0x3bd2d42a	0.0064339833
57	0xbb50d51d	-0.0031865307
58	0x3a55a748	0.0008150232
59	0x3c504bb6	0.012713363
60	0xbb98a3be	-0.0046581915
61	0xbc78e2e3	-0.015190813
62	0xbbce71cf	-0.006300188
63	0xbc23c4e8	-0.009995677
64	0xbc84831e	-0.016175803
65	0x3c1d7e1a	0.0096125845
66	0x3a6eec1b	0.0009114162
67	0x3c96868d	0.018374706
68	0xbbe5e0e4	-0.0070153344
69	0xbd139e2a	-0.03603951
70	0x3c82373f	0.015895484
71	0x3c1ad500	0.009450197
72	0x3c94a2b9	0.018143998
73	0xbbe63822	-0.0070257345
74	0x3c96dcc9	0.018415825
75	0x3b89877d	0.0041970597
76	0x39f9bb72	0.0004763264
77	0x3b3178bc	0.002708002
78	0xbc12b6fb	-0.008954759
79	0x3c03b916	0.008039733
80	0x3c0f88e9	0.008760669
81	0xbbbb0de4	-0.005708443
82	0xbc6c77ea	-0.014432887
83	0x3c9c5083	0.01908136
84	0x3c5694d2	0.013097005
85	0x3cb324e0	0.02186817
86	0xbc429267	-0.011875725
87	0xbd555965	-0.052087206
88	0xbcb2bf56	-0.021819752
89	0x3d6b0645	0.057379026
90	0xbcc67294	-0.024224557
91	0x3b6f518f	0.0036517119
92	0xbb8bfdf9	-0.0042722193
93	0xbc8342cb	-0.01602306
94	0x3caef463	0.021356767
95	0x3c7121d8	0.014717542
96	0xbbdba3ac	-0.006702861
97	0x3d054ffc	0.032546982
98	0xbcd21053	-0.02564255
99	0xba6cb6e2	-0.0009029937
100	0xbc8fbb94	-0.017545499
101	0xbcbeb617	-0.023280187
102	0x3b3ef1a2	0.0029135724
103	0xbac60fe9	-0.0015110943
104	0xbcfa3891	-0.030544551
105	0xbba491cf	-0.0050222646
106	0x3cb9c1a3	0.022675341
107	0xbc61b1ae	-0.013775272
108	0xbc9896ce	-0.018626597
109	0xbc5093ec	-0.01273058
110	0xbbd99d66	-0.006641078
111	0x3cabff42	0.02099574
112	0x3c941c7f	0.018079994
113	0xbcaab7b9	-0.020839559
114	0xbc15b624	-0.009137664
115	0xbca9e587	-0.02073933
116	0xbb639737	-0.0034727582
117	0x3ce6fb04	0.028195865
118	0xbb8cb9dc	-0.004294617
119	0x3cf2aec8	0.029624358
120	0xbc51b9d4	-0.0128006525
121	0xbc0acf01	-0.008472205
122	0xbb0e25a0	-0.0021689907
123	0xbc586f51	-0.013210134
124	0x3b90c227	0.004417676
125	0x3a1a517d	0.00058867765
126	0xb9a7b30f	-0.0003198613
127	0xbc595870	-0.013265714

fc3.weight f4 [64, 128]
0	0x3e456a34	0.19278795
1	0x3d36a10b	0.044587176
2	0xbc7220ae	-0.014778299
3	0xbde5bd7e	-0.112177834
4	0x3e0a12f9	0.134838
5	0x3d90fb97	0.07079237
6	0xbe976f45	-0.2957708
7	0xbe24c492	-0.1609061
8	0x3da65e0d	0.081234075
9	0xbc418c1c	-0.01181319
10	0x3db1b82a	0.08677705
11	0x3dc372de	0.095433936
12	0x3c20fd4c	0.009826016
13	0x3e25fb31	0.16209103
14	0xbe8cc504	-0.2749406
15	0xbdad8982	-0.08473493
16	0xbce75637	-0.028239353
17	0xbdc70b9c	-0.09719011
18	0x3e56fc80	0.20994759
19	0xbd3de98c	-0.046365306
20	0xbd9e2067	-0.07721024
21	0xbea1c60b	-0.31596407
22	0x3bbcba29	0.0057594967
23	0xbe195e9e	-0.149775
24	0x3e337647	0.17525588
25	0x3d6e2173	0.05813737
26	0xbd40e6a6	-0.047094963
27	0xbe5bd589	-0.21468176
28	0x3b7ed18c	0.0038882224
29	0xbd689058	-0.056778282
30	0x3d3aeb1a	0.045634367
31	0x3e229ddb	0.1588053
32	0x3e3b61b5	0.18298991
33	0x3df024b1	0.11725748
34	0x3e1ab4cf	0.15108036
35	0xbc3cd6d7	-0.011525831
36	0xbe5c97e2	-0.21542314
37	0x3e82295f	0.2542219
38	0x3e014333	0.1262329
39	0x3db50d1a	0.088403895
40	0xbdd82336	-0.10553591
41	0xbe4081a8	-0.1879946
42	0xbea8d76e	-0.3297686
43	0x3c7569ec	0.014978867
44	0xbda3a5c7	-0.07990604
45	0x3d0b866a	0.034063734
46	0x3d9139ff	0.0709114
47	0xbe07ab9e	-0.1324906
48	0xbe8f5fce	-0.2800278
49	0xbe2aee3a	-0.16692439
50	0x3e8c2ed1	0.27379468
51	0xbd521fda	-0.051299907
52	0xbe45082e	-0.19241402
53	0x3d212acb	0.03934745
54	0xbcc4fd5e	-0.024046596
55	0x3c5ffd44	0.013671223
56	0x3e16ceb2	0.14727286
57	0xbe1c2387	-0.15247928
58	0xbe663f08	-0.22484982
59	0xbd793695	-0.06084307
60	0x3cc25d48	0.02372612
61	0x3e3c9bd7	0.18418823
62	0xbe1244d6	-0.14284071
63	0xbdf46774	-0.119337946
64	0x3d3b790d	0.04576974
65	0xbdfa6255	-0.122257866
66	0xbd256797	-0.040381994
67	0x3e91c181	0.28467944
68	0x3c68c9ea	0.014208296
69	0xbe3ae2bf	-0.1825056
70	0xbe843c97	-0.25827476
71	0xbdad85b7	-0.0847277
72	0xbda29e64	-0.07940367
73	0x3e158fdd	0.1460566
74	0xbd9a7582	-0.07541944
75	0xbcac8a5e	-0.021062072
76	0xbe17692d	-0.14786215
77	0xbe02340b	-0.12715165
78	0x3dc48749	0.09596116
79	0x3d80bad2	0.06285633
80	0xbdd6d92b	-0.1049064
81	0x3deaba0b	0.11461266
82	0xbdf2197d	-0.11821268
83	0x3d894c9a	0.06704064
84	0x3e391108	0.18072903
85	0xbe32282d	-0.17398138
86	0xbe8e58a8	-0.27802014
87	0x3e58ac4d	0.21159478
88	0x3e14c7e6	0.1452938
89	0x3dc87bc2	0.0978923
90	0x3de9e70b	0.11421021
91	0xbca2e399	-0.019883918
92	0xbdfa3702	-0.12217523
93	0x3e681a23	0.2266622
94	0x3dadd90e	0.084886655
95	0xbe7106d4	-0.23537761
96	0x3dac1c61	0.0840385
97	0x3e556f68	0.2084328
98	0xbe5bb2bb	-0.21454899
99	0x3e201bdf	0.15635632
100	0x3ac4c42b	0.0015012076
101	0xbc02a6c8	-0.007974334
102	0xbcdf95c9	-0.027293103
103	0x3e1c4b44	0.15263087
104	0x3c36e781	0.011163593
105	0xbdc40d40	-0.0957284
106	0x3d41ea13	0.04734237
107	0x3e661315	0.22468217
108	0x3c30fcc2	0.01080245
109	0xbe3f75b5	-0.18697245
110	0x3d801776	0.06254475
111	0x3da506d1	0.08057941
112	0xbd1dd71f	-0.038535234
113	0xbe3f5be6	-0.186874
114	0xbe0270a9	-0.12738289
115	0x3d861ff1	0.06549061
116	0x3e408a68	0.18802798
117	0xbdcfbb81	-0.101431854
118	0xbed380b3	-0.41309127
119	0x3e5d0b3e	0.2158632
120	0xbe435776	-0.19076332
121	0xbe7e8888	-0.2485677
122	0xbcb8a78c	-0.02254083
123	0xbdab85f1	-0.08375157
124	0x3e020b6c	0.1269967
125	0x3cec2408	0.028825775
126	0x3e0cca86	0.13749132
127	0xbc5a4a71	-0.013323412
128	0x3e074863	0.13211207
129	0x3db3a6e7	0.087720685
130	0x3e953766	0.29143828
131	0x3d552238	0.052034587
132	0xbe84c52e	-0.25931686
133	0x3d8f0d6a	0.069849804
134	0x3de1a913	0.110185765
135	0x3d306164	0.04306163
136	0x3d8092a6	0.06277971
137	0xbd722e77	-0.059126344
138	0x3df53fa4	0.11975029
139	0xbe171ade	-0.14756343
140	0x3e65b5b3	0.22432594
141	0x3cebb25c	0.028771572
142	0xbe95cfd1	-0.29260114
143	0xbe66d99e	-0.22543952
144	0x3ed4bc0a	0.41549712
145	0xbe917263	-0.28407583
146	0xbc26b744	-0.01017553
147	0xbd941d8e	-0.072321996
148	0xbe0daacb	-0.13834684
149	0xbe244808	-0.16043103
150	0x3d0d8562	0.034551032
151	0xbdbb8466	-0.091561124
152	0xbe55be9c	-0.20873493
153	0xbd4fe4a2	-0.05075515
154	0xbe8aece8	-0.2713387
155	0x3ceb0f96	0.028693955
156	0x3e095b2f	0.1341369
157	0x3c7957e2	0.015218707
158	0xbe651809	-0.2237245
159	0xbd9058f3	-0.07048216
160	0xbe0c6482	-0.13710216
161	0xbcff1fd0	-0.0311431
162	0xbd9b2de2	-0.07577111
163	0xbd51be93	-0.051207136
164	0xbe87a431	-0.26492456
165	0x3e129c51	0.14317442
166	0xbe39fb07	-0.18162166
167	0x3e0c5775	0.13705237
168	0xbd91a011	-0.07110608
169	0xbe16e9d7	-0.1473764
170	0xbe6de1a5	-0.23230608
171	0xbd1de26d	-0.038546015
172	0x3dd79125	0.10525731
173	0x3dfab8f6	0.1224231
174	0x3db1baea	0.08678229
175	0xbe609861	-0.21933128
176	0x3e1e1e4f	0.1544125
177	0xbde7f4cf	-0.113259904
178	0x3d1f8cb0	0.03895253
179	0xbe3f5dbe	-0.18688104
180	0xbd8bf762	-0.06834294
181	0x3de3bfcd	0.111205675
182	0x3e18b803	0.14913945
183	0xbb3fe6b8	-0.0029281806
184	0x3d6ed8c9	0.05831221
185	0x3cdea151	0.027176531
186	0xbce3f333	-0.027825927
187	0x3d68f7a0	0.05687678
188	0xbe818449	-0.25296238
189	0xbda7e5c4	-0.08198121
190	0x3dc67004	0.09689334
191	0xbe1981ae	-0.14990875
192	0xbdddcd0b	-0.108301245
193	0x3d632f35	0.055464942
194	0xbe464cf0	-0.19365287
195	0xbceaab13	-0.028646028
196	0x3e2cd943	0.16879754
197	0x3d6c4e37	0.05769178
198	0x3df3c8cc	0.11903533
199	0xbe2831e3	-0.1642528
200	0x3e015a44	0.1263209
201	0xbd8ec192	-0.06970514
202	0xbe8b5d0e	-0.27219433
203	0xbc6300e0	-0.013855189
204	0x3e1212ff	0.14265059
205	0x3db2d0df	0.08731245
206	0xbbb4a1d1	-0.005512454
207	0xbe1d223e	-0.15345094
208	0x3eabd942	0.33564192
209	0x3e28c3f1	0.16480996
210	0xbdb29fcf	-0.08721887
211	0xbd2de400	-0.042453766
212	0x3e34dc19	0.17662086
213	0xbe833b04	-0.25630963
214	0xbe187085	-0.14886673
215	0xbcfaef79	-0.030631768
216	0xbda2c866	-0.07948379
217	0x3e78a51d	0.24281736
218	0x3d69d270	0.057085454
219	0xbe61c934	-0.22049409
220	0xbd8afb74	-0.06786242
221	0xbd442a70	-0.047892034
222	0x3d810f77	0.06301778
223	0x3b805bc1	0.003917188
224	0x3c9afe02	0.018919948
225	0xbd8fed51	-0.070276864
226	0x3e28489a	0.16433945
227	0x3dd86665	0.10566405
228	0x3ddbbedd	0.10729764
229	0x3de4a50a	0.11164291
230	0x3d982be9	0.0743025
231	0x3d7ad27c	0.06123589
232	0x3d565308	0.05232528
233	0xbe8d38f6	-0.2758252
234	0x3dde101c	0.10842916
235	0x3dc62317	0.096746616
236	0x3e2238d8	0.15841997
237	0xbd4d1091	-0.050064627
238	0xbe26765b	-0.16256087
239	0xbe19e8e6	-0.1503025
240	0xbb8ae76d	-0.004239014
241	0xbe394158	-0.18091333
242	0x3d2ea142	0.042634256
243	0x3e372b9d	0.17887731
244	0x3e2e38b9	0.17013825
245	0xbea2e8f8	-0.31818366
246	0xbe55ed4a	-0.208913
247	0x3e235b3b	0.1595277
248	0xbd84dc97	-0.06487387
249	0x3cb267c6	0.021777999
250	0x3e34c840	0.17654514
251	0x3e8ca2b2	0.27467877
252	0xbe006c90	-0.12541413
253	0x3e2eb46e	0.17061016
254	0x3c540746	0.012941187
255	0x3db93dc6	0.090449855

fc3.bias f4 [64]
0	0x3bf96493	0.0076108663
1	0x3cdbea8c	0.02684524
2	0x3c4199ab	0.011816422
3	0x3c0f84b0	0.0087596625
4	0xbc484d66	-0.0122254845
5	0xbcb468ee	-0.02202269
6	0xbcbb6e70	-0.02287981
7	0x3d0f8f82	0.03504897
8	0xbaeba589	-0.001797841
9	0xbcae8dd8	-0.02130787
10	0x3ce2047c	0.027590029
11	0xbc0868fe	-0.008325813
12	0x3b0bd036	0.002133382
13	0x3caa17e4	0.020763345
14	0x3b2b9a61	0.0026184546
15	0x3d01ae64	0.031660452
16	0xbc7c1b73	-0.015387404
17	0x3c0285da	0.007966483
18	0x3bdd8bdf	0.0067610587
19	0xbc4f0d92	-0.012637513
20	0x3cfb0a33	0.030644512
21	0x3c049f0c	0.00809456
22	0xbcaf0311	-0.021363767
23	0x3c8dc988	0.017308012
24	0x3b3bce91	0.0028657059
25	0xbc963274	-0.018334605
26	0xbca2a400	-0.019853592
27	0x3d3cb3a5	0.04606976
28	0xbc10481c	-0.008806255
29	0xba2a5480	-0.0006497577
30	0xbc921fbd	-0.0178374
31	0xbc6164a9	-0.013756909
32	0x3d2fb8b5	0.04290076
33	0x3b8571a2	0.004072384
34	0x3b8f0bad	0.0043654055
35	0xbc651372	-0.013981687
36	0xbd454a66	-0.048166655
37	0x3c40aa33	0.011759329
38	0x3ca8d907	0.0206113
39	0x3c8ef5f8	0.017451271
40	0xbcd43433	-0.025903797
41	0x3bf64850	0.0075159445
42	0xbd0ed3f3	-0.0348701
43	0xbc7b7741	-0.015348257
44	0x3c7a8042	0.015289368
45	0xbbb7326d	-0.005590728
46	0x3d02ce19	0.03193483
47	0xbce88b2d	-0.028386677
48	0x3d097430	0.03355807
49	0x3c04c6cd	0.008104038
50	0xbcad5cdc	-0.021162443
51	0xbb877c51	-0.0041346927
52	0xbc396618	-0.011315845
53	0xbcc25e6b	-0.023726663
54	0xb8f51bb6	-0.00011687672
55	0xbb89bb6f	-0.004203252
56	0xbd1ba164	-0.03799571
57	0x3d8d0b54	0.06886926
58	0x3c89ec1c	0.016836219
59	0xbbcba4f0	-0.0062147304
60	0xbb0c24a6	-0.002138415
61	0xbba18bb9	-0.0049299863
62	0x3beb15e1	0.007174239
63	0xbd293828	-0.04131332

fc4.weight f4 [23, 64]
0	0xbf184f16	-0.59495676
1	0x3dea9706	0.11454587
2	0xbf2d2b1e	-0.67643917
3	0xbe133ffe	-0.1437988
4	0x3ee38355	0.44436136
5	0x3f016484	0.50544
6	0xbd691c0c	-0.056911513
7	0xbe1cf51d	-0.15327878
8	0xbf2c5ee7	-0.6733231
9	0x3ede47a3	0.4341403
10	0xbe5b613f	-0.21423815
11	0x3e916a24	0.2840129
12	0xbf21f7a4	-0.63268495
13	0xbf3b8922	-0.73256123
14	0xbe9274d8	-0.2860477
15	0x3e2c36b7	0.16817747
16	0x3ec83e08	0.39109826
17	0xbe9f0eee	-0.31066078
18	0xbe8a3d56	-0.2699992
19	0xbef6dd6a	-0.482158
20	0xbe5b57d8	-0.21420228
21	0x3f1ae7e0	0.60510063
22	0x3de8379f	0.11338734
23	0xbf3e3404	-0.7429812
24	0x3dda79a7	0.106677346
25	0xbddc0395	-0.10742871
26	0xbea159da	-0.31513864
27	0xbe27d5cb	-0.1639015
28	0xbec4528e	-0.38344234
29	0xbf02d758	-0.5110984
30	0xbf284b95	-0.6574033
31	0xbf1c908c	-0.6115806
32	0xbe535370	-0.20637298
33	0xbdb105b3	-0.08643665
34	0xbf46767c	-0.7752454
35	0x3c32032e	0.010865016
36	0xbf2b0158	-0.66798925
37	0x3f112aa2	0.5670568
38	0x3eeb996c	0.4601549
39	0x3d1cf298	0.038317293
40	0x3bacca82	0.0052731642
41	0xbe56c5a9	-0.20973839
42	0xbefbd64d	-0.49186936
43	0xbe9065d5	-0.28202692
44	0x3e6211e0	0.22077131
45	0xbea825e3	-0.32841405
46	0xbea6e5bc	-0.32597148
47	0xbf27c3f5	-0.6553338
48	0x3e814771	0.25249818
49	0x3f200b8a	0.6251761
50	0xbef3c0a4	-0.4760791
51	0xbefa1f00	-0.48851776
52	0xbe4f81eb	-0.20264404
53	0x3e5c8189	0.21533789
54	0xbf2c30f1	-0.6726218
55	0x3e76f322	0.24116185
56	0xbf584c15	-0.8449109
57	0xbf340f9b	-0.7033631
58	0xbf480602	-0.7813417
59	0xbf445f6c	-0.767081
60	0xbf89c2e1	-1.0762597
61	0x3e4eda53	0.20200472
62	0x3d81c183	0.063357376
63	0x3efd5272	0.49476963
64	0x3dbaefb2	0.091277495
65	0x3dfa6232	0.122257605
66	0xbdd874c6	-0.10569148
67	0x3e5731fe	0.21015164
68	0xbe6ea2e5	-0.23304327
69	0x3d63619a	0.055513002
70	0xbd57e3e8	-0.052707583
71	0xbe832cb2	-0.25620037
72	0xbe7c23c5	-0.2462302
73	0xbe0e9481	-0.13923837
74	0x3e524e92	0.20537785
75	0x3e31ee72	0.17376116
76	0xbe3a7469	-0.1820847
77	0x3e3eacd7	0.1862062
78	0xbd0ff97e	-0.035150044
79	0x3d075ff6	0.0330505
80	0xbc916a27	-0.017750813
81	0xbed5cd7c	-0.41758335
82	0x3e2626a6	0.1622568
83	0xbf09f68f	-0.53891844
84	0x3e5711a3	0.21002822
85	0xbcded593	-0.02720145
86	0xbd9e6c4a	-0.07735498
87	0xbb32947b	-0.0027249146
88	0x3e2a4171	0.16626526
89	0xbe5e47cc	-0.21707076
90	0xbde37c1b	-0.111076556
91	0xbdd00f9e	-0.10159229
92	0xbdc03f26	-0.093870446
93	0x3e11726e	0.14203808
94	0x3e416125	0.18884714
95	0xbd690f9f	-0.056899663
96	0xbd74efa2	-0.059798844
97	0xbcb32078	-0.021866068
98	0xbe94e5f3	-0.29081687
99	0x3de86d05	0.11348919
100	0x3e444f85	0.1917096
101	0xbe946638	-0.28984237
102	0x3e157dfd	0.14598842
103	0xbf01feb4	-0.5077927
104	0xbe06947e	-0.13142583
105	0xbe7da7ec	-0.24771088
106	0x3e3aea0f	0.18253349
107	0xbe89dd3a	-0.26926595
108	0xbcd65481	-0.026163341
109	0x3e84c93d	0.25934783
110	0x3e7e9a8b	0.24863641
111	0xbd48fd0a	-0.04906944
112	0xbeb962c2	-0.3620816
113	0xbe3fbb17	-0.18723713
114	0xbc618bd4	-0.013766248
115	0x3d176a6b	0.036966722
116	0xbefd0ed6	-0.4942538
117	0x3eade59b	0.33964238
118	0x3e4445f3	0.19167309
119	0xbe7a02e2	-0.24415162
120	0xbe73b79d	-0.23800512
121	0x3e430256	0.1904386
122	0xbea9497f	-0.33063886
123	0xbe951e00	-0.2912445
124	0x3d85524c	0.065098375
125	0xbf0935cc	-0.5359771
126	0xbd752b89	-0.05985597
127	0x3e63042c	0.2216956
128	0x3df8b6e0	0.12144256
129	0xbd8e7626	-0.06956129
130	0x3e4e1abb	0.20127384
131	0xbd31de6b	-0.043425005
132	0x3e09a037	0.13440023
133	0xbdc29ede	-0.09502958
134	0x3d8186a4	0.06324509
135	0xbb27d9a5	-0.0025611904
136	0xbd5a0965	-0.053231616
137	0xbeff47b3	-0.4985939
138	0xbd982192	-0.07428278
139	0xbed54174	-0.416515
140	0x3eb8aa12	0.36067253
141	0x3e664bc1	0.22489835
142	0x3ce8e166	0.02842779
143	0xbe836465	-0.25662532
144	0xbeda777d	-0.42669287
145	0x3e6bed10	0.23039651
146	0xbeb96099	-0.3620651
147	0x3ea51767	0.32244417
148	0xbceca470	-0.028887004
149	0xbeb6156f	-0.35563228
150	0xbe8f220c	-0.27955663
151	0xbf1a667b	-0.6031262
152	0xbed65c16	-0.4186713
153	0x3ea61245	0.32435814
154	0xbc96957d	-0.018381828
155	0x3e1b4fd2	0.15167168
156	0xbe1372ba	-0.14399233
157	0x3e75c52a	0.24000993
158	0x3e424d71	0.18974854
159	0x3e066dbe	0.13127801
160	0xbec2e1ce	-0.380629
161	0xbea55e12	-0.32298332
162	0x3e922e12	0.28550774
163	0xbee7ea2d	-0.4529585
164	0x3e30c5c1	0.17262937
165	0xbed3b99f	-0.41352555
166	0xbe53c35c	-0.20679992
167	0xbe921ed5	-0.28539148
168	0x3d9ffb08	0.07811552
169	0xbe97e7ff	-0.29669186
170	0xbda2afff	-0.07943725
171	0x3cbb7dd2	0.022887144
172	0x3eb12cbe	0.34604448
173	0xbd2cdefd	-0.042204846
174	0xbda251a5	-0.07925729
175	0x3c3baba4	0.0114544965
176	0x3cd43785	0.02590538
177	0x3c7817c5	0.015142386
178	0xbebf5f0d	-0.37377205
179	0xbe5e603c	-0.21716398
180	0xbeb6faf4	-0.35738337
181	0xbe0c0104	-0.13672262
182	0xbd19f8a8	-0.037590653
183	0xbe944bbc	-0.2896403
184	0x3dea180a	0.11430366
185	0x3d8e33a3	0.06943443
186	0x3e3607a7	0.17776357
187	0x3e42339f	0.18965004
188	0xbc6ee659	-0.014581286
189	0xbf072917	-0.52797073
190	0x3dd8b94a	0.10582216
191	0xbeebf436	-0.46084756
192	0xbeb941a2	-0.36182886
193	0xbe50133d	-0.20319839
194	0xbc33605b	-0.010948266
195	0xbdb0c5a7	-0.08631449
196	0x3eb89183	0.36048517
197	0xbcad5c87	-0.021162285
198	0x3eb4c7e7	0.35308763
199	0x3e0be804	0.13662726
200	0xbe86f299	-0.26356962
201	0x3d0b5d1d	0.034024347
202	0x3e5ed155	0.21759541
203	0x3e171acd	0.14756317
204	0x3d84132d	0.0644897
205	0xbf193e58	-0.59860754
206	0xbd13dce3	-0.036099326
207	0x3f26d8f3	0.6517479
208	0x3e65a294	0.224253
209	0xbf288a38	-0.65835905
210	0xbed24f70	-0.4107623
211	0x3e030054	0.12793094
212	0x3d76d648	0.06026295
213	0x3f0277ce	0.5096406
214	0x3df6b28d	0.120457746
215	0xbe8680ce	-0.26270145
216	0xbe502fcf	-0.20330738
217	0x3dcdaf36	0.100431845
218	0x3c8a4e8f	0.016883163
219	0xbe6fcbe3	-0.2341762
220	0x3c83fc42	0.016111497
221	0xbe3fadaf	-0.18718599
222	0x3e433b1c	0.19065517
223	0x3dccdedf	0.10003447
224	0x3d868324	0.06567982
225	0xbd8f9322	-0.07010485
226	0xbe1437b1	-0.1447437
227	0x3dfbf29f	0.12302136
228	0xbed4a447	-0.41531584
229	0x3ea7ce76	0.32774705
230	0xbe8fc11d	-0.2807702
231	0x3eecf1c7	0.4627821
232	0x3d9a4d7f	0.075343125
233	0x3dd4e812	0.103958264
234	0xbe144fe7	-0.14483605
235	0xbc3ac9fd	-0.011400697
236	0x3c080198	0.008301161
237	0x3da5bd9a	0.08092804
238	0x3e12c610	0.14333367
239	0xbe94b0b1	-0.29041055
240	0x3e046232	0.12928084
241	0xbea818bf	-0.3283138
242	0x3dfed7f5	0.12443534
243	0xbd1dfdbc	-0.038572058
244	0xbe57bf8e	-0.21069166
245	0x3d14e852	0.03635437
246	0xbd8eb023	-0.06967189
247	0x3e01ae09	0.12664045
248	0x3e848918	0.25885844
249	0x3de00920	0.109392405
250	0x3eacffc9	0.337889
251	0x3c9c9419	0.019113587
252	0xbec8f5f2	-0.3925014
253	0x3eb417cf	0.35174415
254	0x3e3b1082	0.18268016
255	0x3eb00aa3	0.34383115

fc4.bias f4 [23]
0	0xbe02cce0	-0.12773466
1	0xbd3d6373	-0.04623742
2	0xbdaf6a5d	-0.08565209
3	0x3e72da5c	0.2371611
4	0x3de2e7d5	0.11079375
5	0x3cb014ff	0.021494387
6	0xbe57fad3	-0.21091776
7	0xbe88c22d	-0.26710644
8	0xbcc1cb07	-0.023656381
9	0xbe098036	-0.13427815
10	0xbf039cc1	-0.5141106
11	0x3de6a361	0.11261631
12	0x3d54b365	0.051928896
13	0xbec71591	-0.3888364
14	0xbdb4aea8	-0.088223755
15	0xbe00e07d	-0.12585635
16	0xbe07d9b1	-0.13266636
17	0x3d92ee12	0.071743146
18	0xbe4cd044	-0.20001322
19	0xbe44b684	-0.19210249
20	0x3e80ebaa	0.25179797
21	0x3df07f7a	0.11743064
22	0x3d4db1dd	0.05021845

bn1.weight f4 [256]
0	0x3f5b0bee	0.8556508
1	0x3f577ad8	0.8417182
2	0x3f8034f2	1.0016158
3	0x3f7208e1	0.945448
4	0x3f98cae5	1.1936918
5	0x3f506986	0.81411016
6	0x3f78b2e5	0.9714797
7	0x3f809099	1.0044128
8	0x3f5fa0fb	0.8735501
9	0x3f635b3a	0.88811076
10	0x3f8399ce	1.0281312
11	0x3f67f42d	0.9060696
12	0x3f853b42	1.0408709
13	0x3f79b402	0.97540295
14	0x3f7017ee	0.93786514
15	0x3f8ca6c4	1.0988393
16	0x3f82c7ab	1.0217184
17	0x3f739302	0.9514619
18	0x3f69f84e	0.9139451
19	0x3f8638c7	1.0486077
20	0x3f69de47	0.91354793
21	0x3f587088	0.8454671
22	0x3f6fa874	0.93616414
23	0x3f836639	1.0265571
24	0x3f8843ae	1.0645654
25	0x3f68291b	0.9068772
26	0x3f79631b	0.9741685
27	0x3f7a7899	0.9784027
28	0x3f710d15	0.94160587
29	0x3f5f1c83	0.8715288
30	0x3f64f86f	0.8944158
31	0x3f666869	0.9000307
32	0x3f78b824	0.97155976
33	0x3f732aad	0.94986993
34	0x3f761189	0.96120507
35	0x3f9328f3	1.1496872
36	0x3f6380be	0.8886832
37	0x3f542518	0.828691
38	0x3f5344fa	0.82527125
39	0x3f6c8317	0.9238753
40	0x3f614238	0.87991667
41	0x3f6b2f3f	0.91868967
42	0x3f868273	1.050856
43	0x3f8ebb26	1.1150863
44	0x3f612e36	0.8796114
45	0x3f80ebfe	1.0072019
46	0x3f63daa7	0.8900551
47	0x3f76ff0f	0.9648294
48	0x3f64c1ba	0.89358103
49	0x3f87dcff	1.0614318
50	0x3f75bfe3	0.9599592
51	0x3f70cfbc	0.9406698
52	0x3f79e0ac	0.9760845
53	0x3f82c467	1.0216187
54	0x3f6ca633	0.924411
55	0x3f7ddd20	0.99165535
56	0x3f834e72	1.0258315
57	0x3f679288	0.90457964
58	0x3f5e1db6	0.86764085
59	0x3f778c07	0.9669804
60	0x3f7a37be	0.97741306
61	0x3fa6358d	1.2985092
62	0x3f83c46f	1.0294322
63	0x3f6ce8dc	0.92542815
64	0x3f6add60	0.9174404
65	0x3f69c165	0.9131072
66	0x3f5b42ae	0.8564862
67	0x3f824f20	1.0180397
68	0x3f716d71	0.9430762
69	0x3fabdc2e	1.3426569
70	0x3f82a6c7	1.0207146
71	0x3f6893ca	0.9085051
72	0x3f780672	0.96884835
73	0x3f7634ed	0.9617451
74	0x3f8fb114	1.1225915
75	0x3f6237c8	0.88366365
76	0x3f71fb57	0.9452414
77	0x3f57ea74	0.8434212
78	0x3f58c715	0.84678775
79	0x3f6fc28e	0.9365624
80	0x3f5dc62c	0.8663051
81	0x3f66fa07	0.9022526
82	0x3f619deb	0.8813159
83	0x3f7dcd0c	0.99141
84	0x3f4ac385	0.7920459
85	0x3f6a23a5	0.9146064
86	0x3f78fb13	0.9725811
87	0x3f692b57	0.91081756
88	0x3f5adc39	0.85492283
89	0x3f96cbe1	1.1780969
90	0x3f6fe27a	0.9370495
91	0x3f5bd509	0.8587194
92	0x3f70e58c	0.9410026
93	0x3f85d8e3	1.0456814
94	0x3f849473	1.0357803
95	0x3f87fe1f	1.0624427
96	0x3f630799	0.8868347
97	0x3f6122ec	0.8794391
98	0x3f652075	0.8950265
99	0x3f7d2611	0.9888621
100	0x3f70f991	0.9413081
101	0x3f778572	0.96687996
102	0x3f6ea664	0.9322264
103	0x3f76416a	0.96193564
104	0x3f81ea4f	1.014963
105	0x3f5e755a	0.86897814
106	0x3f7040a6	0.93848646
107	0x3f75d2c5	0.96024734
108	0x3f83d9e0	1.0300865
109	0x3f84dee7	1.0380524
110	0x3f84c39a	1.0372193
111	0x3f6b7b0f	0.9198465
112	0x3f5b9d28	0.85786676
113	0x3f7ccc32	0.9874908
114	0x3f7af11a	0.9802414
115	0x3f6782d9	0.9043403
116	0x3f9c7522	1.2223246
117	0x3f81f0d5	1.0151621
118	0x3f646c3b	0.89227647
119	0x3f77b533	0.96760863
120	0x3f748b35	0.95524913
121	0x3f8191b3	1.0122589
122	0x3f738c61	0.95136076
123	0x3f8000d6	1.0000255
124	0x3f710f4b	0.9416396
125	0x3f52651f	0.8218555
126	0x3f710e31	0.9416228
127	0x3f7c5dde	0.9858073
128	0x3f6b89b8	0.9200702
129	0x3f6a9bf9	0.91644245
130	0x3f5aac30	0.8541899
131	0x3f6fe011	0.93701273
132	0x3f68dfa1	0.9096623
133	0x3f6c570d	0.9232033
134	0x3f8325a3	1.0245861
135	0x3f8a91ed	1.0825783
136	0x3f7390c1	0.9514275
137	0x3f5d2ac0	0.86393356
138	0x3f5f4524	0.87214875
139	0x3f746df0	0.9548025
140	0x3f740cd1	0.95332056
141	0x3f584878	0.8448558
142	0x3f664158	0.89943457
143	0x3f77a623	0.9673788
144	0x3f593dfe	0.8486022
145	0x3f9e0aab	1.2347006
146	0x3f5b3db1	0.8564101
147	0x3f61879e	0.8809756
148	0x3f862f50	1.0483189
149	0x3f644a33	0.8917572
150	0x3f56288c	0.8365562
151	0x3f722639	0.94589573
152	0x3f77a7b1	0.9674025
153	0x3f8ef2ed	1.1167885
154	0x3f83b284	1.0288854
155	0x3f672102	0.9028474
156	0x3f63f840	0.89050674
157	0x3f76c5cc	0.96395564
158	0x3f8dc15a	1.1074631
159	0x3f56aa3e	0.8385352
160	0x3f6f405c	0.9345758
161	0x3f7bd48b	0.9837119
162	0x3f523197	0.8210692
163	0x3f64616a	0.8921114
164	0x3f78894e	0.9708451
165	0x3f92287a	1.1418602
166	0x3f715a81	0.94278723
167	0x3f81f9e5	1.0154387
168	0x3f70cb1b	0.94059914
169	0x3f6dc184	0.92873406
170	0x3f802a1a	1.0012848
171	0x3f7e1e80	0.9926529
172	0x3f7018b7	0.9378771
173	0x3f5b1117	0.8557295
174	0x3f65d1dc	0.89773345
175	0x3f74a547	0.95564693
176	0x3f83855c	1.0275073
177	0x3f4dc91f	0.8038501
178	0x3f6d18e5	0.9261611
179	0x3f72b44b	0.94806355
180	0x3f5ee8ad	0.87073785
181	0x3f569fc7	0.8383755
182	0x3f612ca2	0.8795873
183	0x3f6b61d7	0.91946167
184	0x3f5c3cf4	0.8603051
185	0x3f668cc6	0.90058553
186	0x3f800844	1.0002522
187	0x3f80738b	1.0035261
188	0x3f8b221b	1.0869783
189	0x3f80da89	1.0066692
190	0x3f81ff07	1.0155953
191	0x3f8cc779	1.0998374
192	0x3f6f6870	0.93518734
193	0x3f6f6daf	0.9352674
194	0x3f7764e9	0.9663835
195	0x3f631b14	0.8871319
196	0x3f751f36	0.9575075
197	0x3f687669	0.9080568
198	0x3f792d8a	0.9733511
199	0x3f725949	0.9466749
200	0x3f7e7c97	0.9940886
201	0x3f712db8	0.94210386
202	0x3f588d2f	0.8459043
203	0x3f84182a	1.0319874
204	0x3f8ef8f0	1.116972
205	0x3f70f5ab	0.9412486
206	0x3f69ec18	0.91375875
207	0x3f85f1e0	1.0464439
208	0x3f71f114	0.9450848
209	0x3f6ea4b6	0.9322008
210	0x3f6999c5	0.9125026
211	0x3f61d810	0.8822031
212	0x3f4c5393	0.79815024
213	0x3f713d76	0.94234407
214	0x3f82d73d	1.0221936
215	0x3f896f06	1.0737007
216	0x3f7c5c46	0.985783
217	0x3f569db3	0.8383438
218	0x3f6d634b	0.92729634
219	0x3f6abcdb	0.9169442
220	0x3f8416f6	1.0319507
221	0x3f58b893	0.8465664
222	0x3f65dc3d	0.8978918
223	0x3f5d169b	0.8636262
224	0x3f7ac628	0.9795861
225	0x3f59aecf	0.8503236
226	0x3f87c922	1.0608256
227	0x3f679de9	0.90475327
228	0x3f68504e	0.90747535
229	0x3f5fd343	0.87431735
230	0x3f75285e	0.9576472
231	0x3f71c595	0.9444211
232	0x3f7effc9	0.9960905
233	0x3f705894	0.9388516
234	0x3f4ebe32	0.80758965
235	0x3f65e682	0.8980485
236	0x3f66a401	0.90094
237	0x3f62588d	0.8841637
238	0x3f61c2ed	0.8818806
239	0x3f626fc1	0.8845177
240	0x3f6d1501	0.92610174
241	0x3f7afca6	0.9804176
242	0x3f676ea3	0.90403193
243	0x3f75b279	0.9597545
244	0x3f6e3b6c	0.9305942
245	0x3f80dc2f	1.0067195
246	0x3f63af07	0.88938946
247	0x3f4f5801	0.8099366
248	0x3f69e1b4	0.9136002
249	0x3f5ba583	0.85799426
250	0x3f5f6cea	0.87275565
251	0x3f65e9fe	0.8981017
252	0x3f5b89b4	0.85756993
253	0x3f73fada	0.95304644
254	0x3f945954	1.1589761
255	0x3f6a1803	0.9144289
