Parte II/TEC_AD_TP2/models/fcn_best_run_01_seed_11.pt (torch, 229038 bytes, 20 tensors)

fc1.weight f4 [256, 41]
-0.42170766 -0.16794688 -0.18474157 0.34077188 0.32690743 -0.21484117 0.2960624 -0.23544168
0.119131304 0.22905897 0.08465744 0.036099948 -0.21166892 0.08801097 -0.095284805 -0.42365187
-0.20031407 -0.21051273 -0.032950502 -0.0593228 -0.3338377 0.09304309 0.12421616 0.4208482
-0.23486061 0.27141458 -0.111452684 -0.3339304 -0.17994392 0.18683709 0.24136034 -0.32430905
0.25643364 0.045673788 0.343756 -0.026813205 -0.334389 -0.23230904 -0.10903491 0.21218835
-0.31580558 -0.34907672 -0.38351437 -0.13093735 0.08381497 -0.59078413 0.33266553 -0.13434051
0.195151 -0.042317327 0.059561886 0.36371106 -0.004685435 -0.13000694 -0.030563008 -0.23739816
0.059311796 0.22026001 -0.10790703 0.15632895 -0.25386298 -0.04482285 0.20979151 0.51809573
-0.056949075 0.25539994 -0.05809145 0.086182214 0.06692214 0.29317343 -0.28480935 0.3059058
-0.1406441 -0.2607596 0.2416767 0.53380024 0.36854416 -0.16162865 -0.13732629 -0.15613341
-0.28553653 0.07187748 -0.17308705 -0.65258396 0.16732663 0.34979802 0.29384097 0.23398873
-0.60175395 0.1087202 -0.10572694 -0.24719374 0.091647066 -0.17197347 0.25836343 -0.2885052
-0.0552479 0.38371775 0.28872815 0.1341639 -0.15290764 0.35297006 -0.26510695 0.13280304
-0.20132184 0.18450905 -0.3809194 -0.40906575 -0.195497 0.39427325 -0.17871699 -0.041740127
-0.2420002 -0.15447582 -0.30261028 -0.4026171 0.18819001 0.24742047 0.21593611 -0.11510107
-0.27476844 -0.19503444 -0.20986035 0.0027287973 0.16577017 0.109436765 0.3597206 0.55575657
0.22025295 -0.33589646 -0.05533387 -0.13538978 -0.25073892 -0.1292499 0.29823107 -0.18801087
0.03886483 0.28542352 0.36829528 -0.10117796 -0.069978826 0.031233586 -0.29854056 0.42869812
-0.058833234 0.1483209 -0.16349535 0.23840821 -0.008555548 0.16414468 0.24108724 -0.37444094
-0.15067752 -0.20696886 -0.13190915 0.34546068 0.14963287 0.2743307 -0.21885028 0.18067047
0.079918094 -0.013084879 0.08980247 -0.32973558 -0.111191295 0.021386586 0.043885518 -0.36620727
-0.43242556 -0.3027362 -0.16157866 -0.15510328 0.2236104 0.004274571 0.026999306 0.32368764
0.33098152 -0.37549663 0.1173226 -0.10010862 -0.36868447 -0.34162787 0.090397194 -0.025018325
0.4448232 -0.039159585 -0.054734994 0.1360705 -0.20722988 -0.28049323 -0.14132433 -0.22208966
0.24038544 0.39510396 -0.27301392 -0.014984524 0.28403568 0.41727906 0.19833854 0.18214525
0.2970196 0.2371253 -0.22428444 0.19642173 -0.2913259 -0.009066485 -0.33347583 0.031888224
-0.29348135 0.24281684 -0.32298908 0.054399755 0.33837292 0.064149424 0.31657946 0.10347239
-0.38473377 0.15249619 -0.09997705 -0.109488815 -0.20399947 -0.039008375 0.08838098 0.2705948
0.036101766 0.3340859 -0.37137637 0.22147033 -0.0017442 0.26040044 -0.09041517 0.13043137
0.06787001 -0.21888103 -0.053401485 0.2010263 0.2257123 0.36936983 -0.059964754 0.0035461176
0.109285235 0.39162552 -0.21766905 -0.00301623 0.29610363 -0.3207108 0.39959505 0.13439152
0.07918315 -0.091544494 -0.010479993 0.14827006 0.15980838 0.31073537 0.41910875 -0.24727622
00000000: 11ea d7be 44fa 2bbe e52c 3dbe a779 ae3e
00000010: 6960 a73e 53ff 5bbe 7e95 973e a017 71be
00000020: 1dfb f33d 6f8e 6a3e e160 ad3d 8add 133d
00000030: bdbf 58be 183f b43d ae24 c3bd e6e8 d8be
00000040: 221f 4dbe a690 57be 1bf7 06bd 77fc 72bd
00000050: c6ec aabe 608d be3d 0b65 fe3d 6a79 d73e
00000060: 4d7f 70be daf6 8a3e 4e41 e4bd edf8 aabe
00000070: 3843 38be 3952 3f3e 2a27 773e d60b a6be
00000080: 454b 833e 7014 3b3d c900 b03e 5ea7 dbbc
00000090: 0935 abbe 6ce2 6dbe b24d dfbd e747 593e
000000a0: 45b1 a1be 2fba b2be ff5b c4be 7114 06be
000000b0: 2fa7 ab3d a13d 17bf 2353 aa3e 8f90 09be
000000c0: aad5 473e ef54 2dbd 2af7 733d 5638 ba3e
000000d0: 4788 99bb 8a20 05be 465f fabc 8118 73be
000000e0: edf0 723d d78b 613e 5cfe dcbd b214 203e
000000f0: 54fa 81be 2a98 37bd 96d3 563e eca1 043f
00000100: 6f43 69bd c8c3 823e 4df1 6dbd 4d80 b03d
00000110: 7a0e 893d d41a 963e 88d2 91be af9f 9c3e
00000120: 0205 10be 4882 85be 197a 773e 22a7 083f
00000130: d2b1 bc3e fb81 25be 439f 0cbe 70e1 1fbe
00000140: d831 92be 8034 933d bb3d 31be be0f 27bf
00000150: ac57 2b3e ba18 b33e 5372 963e be9a 6f3e
00000160: 8c0c 1abf b2a8 de3d 5e87 d8bd 5b20 7dbe
00000170: 75b1 bb3d d019 30be 3648 843e f4b6 93be
00000180: 9f4b 62bd a776 c43e 2dd4 933e 4362 093e
00000190: d293 1cbe 7eb8 b43e 19bc 87be 85fd 073e
000001a0: 5027 4ebe f1ef 3c3e de07 c3be 1171 d1be
000001b0: 5e30 48be 2fde c93e 9601 37be b2f7 2abd
000001c0: e7ce 77be e92e 1ebe bcef 9abe d423 cebe
000001d0: e2b4 403e cb5b 7d3e 5b1e 5d3e 1cba ebbd
000001e0: 73ae 8cbe 1cb7 47be a2e5 56be 9fd5 323b
000001f0: a8bf 293e 6220 e03d 4c2d b83e 1046 0e3f
00000200: fd89 613e 9ffa abbe c5a5 62bd 9ea3 0abe
00000210: da60 80be 165a 04be beb1 983e ec85 40be
00000220: ba30 1f3d 0823 923e 3391 bc3e 6436 cfbd
00000230: 0f51 8fbd 94dd ff3c 4fda 98be 527e db3e
00000240: 1efb 70bd 6fe1 173e 536b 27be 4821 743e
00000250: 922c 0cbc 8b15 283e 93df 763e b9b6 bfbe
00000260: 354b 1abe a5ef 53be 3113 07be 39e0 b03e
00000270: 5c39 193e 1375 8c3e 4a1a 60be ae01 393e
00000280: 19ac a33d f661 56bc 5bea b73d 1ad3 a8be
00000290: 43b8 e3bd ec32 af3c 4dc1 333d 857f bbbe
000002a0: e266 ddbe 3d00 9bbe e074 25be 65d3 1ebe
000002b0: 20fa 643e b311 8c3b a62d dd3c 63ba a53e
000002c0: 6976 a93e 1841 c0be d546 f03d c005 cdbd
000002d0: 36c4 bcbe d9e9 aebe 2a22 b93d 3bf3 ccbc
000002e0: debf e33e cd65 20bd cd31 60bd 1156 0b3e
000002f0: 1234 54be cf9c 8fbe 53b7 10be 796b 63be
00000300: 9a27 763e 114b ca3e 7bc8 8bbe a681 75bc
00000310: 206d 913e 9aa5 d53e 4219 4b3e 4984 3a3e
00000320: f412 983e fad0 723e d2aa 65be c722 493e
00000330: ab28 95be 988b 14bc 58bd aabe 3a9d 023d
00000340: 3043 96be faa4 783e d35e a5be 47d2 5e3d
00000350: 373f ad3e c660 833d b416 a23e 55e9 d33d
00000360: d3fb c4be f627 1c3e c5c0 ccbd ac3b e0bd
00000370: 3de5 50be 3fc7 1fbd 1601 b53d 678b 8a3e
00000380: 72df 133d 4f0d ab3e 0b25 bebe 1ec9 623e
00000390: a49d e4ba 3553 853e 972b b9bd cd8f 053e
000003a0: 6fff 8a3d 5922 60be 84bb 5abd d7d9 4d3e
000003b0: 2021 673e 0b1e bd3e 9a9d 75bd fb65 683b
000003c0: f0d0 df3d 2483 c83e a3e4 5ebe f1ab 45bb
000003d0: e59a 973e 3534 a4be b997 cc3e ee9d 093e
000003e0: c62a a23d ae7b bbbd 47b4 2bbc 1bd4 173e
000003f0: cfa4 233e b518 9f3e 6c95 d63e fa35 7dbe

fc1.bias f4 [256]
0.0047853095 0.007923962 -0.024746248 -0.0016256523 0.0006708146 -0.0023670567 -0.00092441816 -0.0013230683
-0.010617343 -0.011340423 0.0021763362 -0.015453081 -3.23952e-05 0.0067050466 -0.0053613796 -0.0038847306
-0.013717215 -0.009774173 -0.0024222152 -0.003247095 0.007572854 -0.0150048835 -0.0018641523 0.006041802
-0.006811251 -0.0025551207 -0.0034941658 -0.0060171345 -0.004391541 0.00014847523 0.01926725 -0.0022594708
-0.0041625667 0.007701983 -0.010601957 -0.00024798722 -0.0150452675 -0.0035503658 0.01549588 0.012704513
-0.0027983058 -0.0039105313 0.002183075 -0.00011848486 -0.004255329 -0.013291965 -0.0040908824 0.0058579757
0.0051484653 -0.014689187 0.020049635 0.015494665 -0.008217422 -0.006286027 0.00495122 -0.011622989
0.010446609 -0.021465555 0.0020906918 -0.0032423509 0.012528762 -0.00091762183 0.0010185571 0.004616908
-0.0039430344 -0.010605404 -0.0152961835 0.0011610225 -0.012230255 -0.001833659 -0.018556926 0.0064140125
0.00704707 0.0022273795 0.00073335913 0.0018752229 -0.00022694646 -0.00015682937 0.005746822 -0.013757001
-0.0002433172 0.01043353 0.006457832 0.003879845 -0.0007383226 -0.011398728 0.0031135778 -0.019440074
0.0022699444 0.012068227 0.0052360888 0.00079213054 0.0003762446 -0.000105594845 -0.0031120195 0.0037734893
0.00090927974 -0.00350201 -0.0033649202 0.00635438 -0.00568187 -0.0035409366 -0.00039758047 0.005771993
0.011578526 -0.0015483728 0.0030397864 -0.024875551 0.019376924 0.0009368344 -0.0012766614 0.0028418198
-0.000513324 0.023569934 -0.0025104063 -0.0008418116 -0.012617173 -0.0053370255 -0.007933389 -0.027185172
-0.000245189 -0.00046703813 -0.0050415974 -0.009388721 -0.012801838 -0.02850912 -0.0036252001 0.0037137107
-0.00063331943 -0.0043074284 -0.0024627333 -0.007389466 0.01911267 -0.009547782 -0.03139281 -0.0199022
0.004887369 0.0068822987 0.0053561586 0.007914455 0.0053561293 0.004533552 0.009372935 0.0038452614
-0.008021034 0.0062440583 -0.0060135787 0.030598316 0.004234695 -0.0026973954 0.005989352 0.012245835
-0.002710125 0.0035533076 0.003444405 0.0033958184 0.0074908696 -0.0025424717 0.011808317 -0.012218928
-0.020000769 -0.015121926 0.025457818 0.0047904016 -0.01953151 -3.5964717e-05 -0.0042235926 -0.0030212516
-0.007990791 0.008654688 -0.006756168 0.0019377683 0.0073887086 -0.00030171208 0.009239508 -0.040330477
-0.018797116 0.0032777912 0.02360472 -0.004038167 0.005676928 -0.0141659705 -0.0046863467 -0.0036025357
-0.0038752805 0.005726597 0.0020346518 -0.010343986 0.0076252124 -0.0059559136 -0.0017704968 0.001698027
0.0017749477 0.0029074477 0.0019036189 -0.0026531816 0.002914865 -0.0055269822 -0.0005858323 0.010695283
-0.0018539719 0.012003304 0.0002453862 0.00041103768 -0.0013282397 0.0072952677 -0.01440943 -0.0053509213
0.009363487 0.0075968374 0.0059648547 0.016438374 0.0074452916 -0.005475817 0.00984798 0.008408891
0.000291188 -0.009473929 -0.0078082834 0.001765872 -0.03572542 0.004501016 -0.008571629 -0.00258272
-0.005419999 -0.0044110976 -0.006515187 0.0043099243 -0.01581219 -0.00017379638 -0.007276395 0.004552982
-0.0018507582 0.013014469 -5.4774166e-05 0.009699388 0.012627468 0.013321141 0.014112041 -0.011600837
0.0086746765 0.009742722 0.007329948 0.008231568 0.00010014124 -0.0007898872 -0.0031518366 -0.010340738
0.0025713427 -0.011844437 -0.009423998 0.015355891 -0.009305449 -0.001314139 -0.02170717 0.0024747655
00000000: 16ce 9c3b 81d3 013c a5b8 cabc d713 d5ba
00000010: 9bd9 2f3a 9f20 1bbb a754 72ba ce6a adba
00000020: 5df4 2dbc 2ecd 39bc dda0 0e3b eb2e 7dbc
00000030: 15e0 07b8 02b6 db3b 83ae afbb f796 7ebb
00000040: 2bbe 60bc da23 20bc 07be 1ebb 37cd 54bb
00000050: b425 f83b 0bd7 75bc 9256 f4ba 4ffa c53b
00000060: ea30 dfbb d073 27bb 60fe 64bb 622b c5bb
00000070: eae6 8fbb 04b0 1b39 5ad6 9d3c a113 14bb
00000080: 2466 88bb eb60 fc3b d5b3 2dbc 4804 82b9
00000090: 6d80 76bc 41ad 68bb 6ee2 7d3c 9726 503c
000000a0: c863 37bb ea23 80bb ec11 0f3b 137b f8b8
000000b0: 4970 8bbb 8bc6 59bc cf0c 86bb 43f4 bf3b
000000c0: 75b4 a83b eaaa 70bc 223f a43c 56dd 7d3c
000000d0: 5ea2 06bc 04fb cdbb d83d a23b 596e 3ebc
000000e0: 4128 2b3c 88d8 afbc fd03 093b 9f7d 54bb
000000f0: 7045 4d3c 8f8c 70ba 1b81 853a 6e49 973b
00000100: 9234 81bb 4ac2 2dbc d89c 7abc 732d 983a
00000110: 6861 48bc 6357 f0ba b204 98bc a32c d23b
00000120: 1ceb e63b 3af9 113b e63e 403a 0aca f53a
00000130: 7af8 6db9 9072 24b9 d64f bc3b 0b65 61bc
00000140: f722 7fb9 66f1 2a3c 399c d33b ff44 7e3b
00000150: fe8b 41ba bbc1 3abc 2b0d 4c3b ca40 9fbc
00000160: 59c3 143b d0b9 453c 7f93 ab3b fba6 4f3a
00000170: b242 c539 cd72 ddb8 06f3 4bbb a54c 773b
00000180: bb5c 6e3a fa81 65bb fe85 5cbb 6738 d03b
00000190: fb2e babb 0f0f 68bb 5972 d0b9 fd22 bd3b
000001a0: dcb3 3d3c c5f2 caba 2737 473b d0c7 cbbc
000001b0: 5bbc 9e3c e495 753a a655 a7ba d33d 3a3b
000001c0: 9790 06ba bc15 c13c a185 24bb 05ad 5cba
000001d0: 42b8 4ebc 37e2 aebb 0cfb 01bc 70b3 debc
000001e0: b68c 80b9 ccdc f4b9 fc33 a5bb 26d3 19bc
000001f0: cdbe 51bc f58b e9bc c494 6dbb ba61 733b
00000200: 5905 26ba 5425 8dbb cf65 21bb 5523 f2bb
00000210: 2d92 9c3c 4d6e 1cbc bf95 00bd f009 a3bc
00000220: 3926 a03b e884 e13b b782 af3b a1ab 013c
00000230: 7882 af3b 318e 943b f090 193c c800 7c3b
00000240: a86a 03bc f59a cc3b 8e0d c5bb 52a9 fa3c
00000250: 32c3 8a3b c9c6 30bb 5342 c43b c1a2 483c
00000260: 5a9c 31bb 9cde 683b 87bb 613b 618c 5e3b
00000270: f875 f53b 999f 26bb ac77 413c e631 48bc
00000280: a7d8 a3bc f4c1 77bc ea8c d03c cdf8 9c3b
00000290: 8c00 a0bc d2d8 16b8 1066 8abb 3100 46bb
000002a0: cfeb 02bc 64cc 0d3c d862 ddbb b7fc fd3a
000002b0: fb1c f23b 1c2f 9eb9 4e61 173c 9231 25bd
000002c0: 69fc 99bc 36d0 563b b05e c13c 9a52 84bb
000002d0: 8605 ba3b 6318 68bc ed8f 99bb 8518 6cbb
000002e0: 6bf8 7dbb 2da6 bb3b cb57 053b d279 29bc
000002f0: ebdc f93b d329 c3bb 0410 e8ba 5590 de3a
00000300: 5da5 e83a e18a 3e3b da82 f93a 00e1 2dbb
00000310: 5207 3f3b b01b b5bb 8a92 19ba 453b 2f3c
00000320: f900 f3ba 82a9 443c 2ea7 8039 8b80 d739
00000330: 5418 aeba 240d ef3b 8815 6cbc c856 afbb
00000340: 5069 193c e4ee f83b d474 c33b c5a9 863c
00000350: a2f7 f33b 7b6e b3bb 6c59 213c 72c5 093c
00000360: 97aa 9839 8a38 1bbc a1dc ffbb d574 e73a
00000370: d154 12bd 427d 933b 0570 0cbc da42 29bb
00000380: 3f9a b1bb f88a 90bb 5a7d d5bb 443a 8d3b
00000390: 9188 81bc 1c3d 36b9 d36e eebb 2e31 953b
000003a0: 2495 f2ba a43a 553c 50bd 65b8 2fea 1e3c
000003b0: 71e3 4e3c ea40 5a3c 3136 673c 7011 3ebc
000003c0: 3b20 0e3c f09f 1f3c 0f30 f03b b3dd 063c
000003d0: eb02 d238 6f10 4fba 0b8f 4ebb 336c 29bc
000003e0: f983 283b 2b0f 42bc 1d67 1abc 4697 7b3c
000003f0: e275 18bc 303f acba 3cd3 b1bc ad2f 223b

fc2.weight f4 [128, 256]
-0.12610549 -0.042087205 0.026010223 0.02832213 -0.10956082 -0.015099421 -0.1147442 0.009634515
0.06842425 -0.17604491 -0.15690032 -0.055536646 -0.08462327 0.04909686 -0.055351943 0.08195504
0.1106326 -0.012665635 0.10844393 -0.0461046 0.094455354 0.05401262 0.14856358 -0.028998505
0.0783811 -0.14305256 0.04251047 0.019646602 -0.06610721 -0.12746143 0.13820142 -0.021158123
-0.14034612 0.09545438 -0.048593555 -0.15830605 -0.09419173 0.026503121 0.1431502 0.05362659
0.12465507 0.07256829 0.022295171 0.06726403 -0.006552231 -0.16135755 -0.043085318 0.062480666
-0.07215232 -0.0276866 0.12235635 -0.07389754 0.0909613 -0.032352265 0.05370048 -0.053192306
0.12616663 -0.04208886 -0.019673105 -0.04900046 0.19406669 -0.104622684 0.050512817 0.0043449947
0.08134697 0.021170594 0.057499863 -0.1270772 -0.08863597 -0.039488416 0.15064654 -0.0009084701
0.15241161 0.054447934 0.04126739 -0.1194936 0.08333856 0.1620558 0.17188415 -0.008851343
-0.09705339 0.059972186 -0.07202847 -0.016010597 0.03751169 0.05463326 -0.1442314 0.108354576
-0.10523003 -0.14817564 -0.023224382 -0.005400714 0.10806331 -0.09446102 0.026432399 -0.0055690426
-0.11911699 -0.10789012 -0.028870862 -0.13451847 -0.036476713 -0.03567366 0.08161388 0.12014175
0.07040354 0.006173293 0.003286514 -0.14874357 -0.013542697 -0.033876944 -0.09299146 -0.00238376
0.064246505 -0.07943854 -0.072910346 0.118421905 0.13607483 0.045269202 0.07277205 -0.07074141
0.010799349 0.07720245 -0.029325396 0.07652469 -0.16969652 0.085049264 0.06441807 -0.041612264
-0.13629901 -0.1361984 -0.0029985164 -0.085235074 -0.037652746 -0.050438423 0.055677705 -0.16829027
0.11520948 0.11265813 0.1445768 0.0034238596 -0.09758635 0.073674686 0.087013155 -0.054452784
0.060263377 0.072306 -0.05336243 -0.023635553 0.12740088 -0.17384765 0.01719672 -0.16203812
0.024718428 -0.0049557206 -0.14615268 0.12245943 0.09524903 -0.10572276 0.18484601 0.046092197
0.043653075 -0.0565293 0.038224183 -0.06254719 -0.1694307 0.010158899 -0.017206602 0.17121945
-0.15799518 0.07670686 -0.077770315 0.0061746677 -0.050884824 0.031303693 0.09322469 -0.07120389
0.2174909 -0.024448005 -0.07793805 0.09254128 -0.13016859 -0.020996783 -0.08213659 0.13473018
0.055201065 -0.06518343 -0.016173756 -0.0649872 0.0791599 0.13641553 0.16963883 -0.16832644
0.05011206 -0.056723047 -0.1430239 0.072148666 -0.054751255 -0.15213612 0.054182865 -0.14886284
0.07179813 -0.066824995 -0.049743474 -0.034986097 -0.0629297 0.13793981 -0.146814 -0.097634554
-0.1617866 -0.072677605 -0.12398641 -0.03678325 -0.16913399 0.044936504 -0.01947355 -0.105695434
0.061451748 -0.10241383 0.01666212 -0.08305352 0.062420387 -0.0941827 0.14821766 -0.08058166
0.031446565 -0.092380725 -0.072319955 -0.02307255 -0.051452003 -0.10350316 0.053985976 0.08928102
-0.19757874 0.061400432 0.018194232 0.049989153 0.060380787 -0.032585897 -0.12636615 0.018242534
-0.064333186 0.09633721 -0.10251622 0.08828014 0.13191648 -0.10410696 0.18057545 0.011520417
0.026153982 0.113155246 -0.13459924 -0.109210595 -0.00073818996 0.14373979 0.06113281 -0.112312585
00000000: cc21 01be a263 2cbd 6413 d53c d003 e83c
00000010: 6c61 e0bd 9063 77bc 02ff eabd 16da 1d3c
00000020: 0322 8c3d 1e45 34be 7aaa 20be 657a 63bd
00000030: f74e adbd ca19 493d b8b8 62bd 0bd8 a73d
00000040: 5893 e23d 8683 4fbc da17 de3d 2dd8 3cbd
00000050: cf71 c13d 563c 5d3d 0d21 183e 468e edbc
00000060: 4586 a03d 5f7c 12be 751f 2e3d e9f1 a03c
00000070: 3863 87bd 4085 02be ac84 0d3e cd53 adbc
00000080: e5b6 0fbe 967d c33d 090a 47bd fb1a 22be
00000090: 98e7 c0bd 131d d93c f795 123e 8ea7 5b3d
000000a0: 284b ff3d af9e 943d 5da4 b63c b9c1 893d
000000b0: 19b4 d6bb ea3a 25be 3b7a 30bd baeb 7f3d
000000c0: 98c4 93bd 02cf e2bc f795 fa3d 9857 97bd
000000d0: eb49 ba3d cf83 04bd 09f5 5b3d 2de0 59bd
000000e0: d331 013e 5e65 2cbd 7e29 a1bc b5b4 48bd
000000f0: 6bb9 463e 6b44 d6bd 87e6 4e3d 7560 8e3b
00000100: 3d99 a63d f46d ad3c fa84 6b3d 8720 02be
00000110: c786 b5bd 9bbe 21bd 1643 1a3e 6526 6eba
00000120: ca11 1c3e cc04 5f3d ff07 293d 10b9 f4bd
00000130: 68ad aa3d f5f1 253e 6602 303e 3905 11bc
00000140: eec3 c6bd 65a5 753d aa83 93bd a828 83bc
00000150: dca5 193d 20c7 5f3d 65b1 13be 01e9 dd3d
00000160: d882 d7bd 5bbb 17be 0f41 bebc 79f8 b0bb
00000170: 4c50 dd3d c774 c1bd c288 d83c 847c b6bb
00000180: 9cf3 f3bd 7ff5 dcbd 9682 ecbc 36bf 09be
00000190: 9b68 15bd 8b1e 12bd 2e25 a73d e10c f63d
000001a0: bb2f 903d 5649 ca3b 8e62 573b 3c50 18be
000001b0: 30e2 5dbc 8dc2 0abd 4e72 bebd db38 1cbb
000001c0: ac93 833d acb0 a2bd 0552 95bd 2f87 f23d
000001d0: 3357 0b3e 336c 393d 8309 953d dfe0 90bd
000001e0: c1ef 303c 511c 9e3d d03b f0bc fab8 9c3d
000001f0: edc4 2dbe 4f2e ae3d 9fed 833d 9f71 2abd
00000200: f891 0bbe 9877 0bbe c282 44bb ba8f aebd
00000210: c439 1abd 8598 4ebd 4e0e 643d 4954 2cbe
00000220: f3f2 eb3d 4eb9 e63d f10b 143e d562 603b
00000230: 5adb c7bd c1e2 963d f433 b23d e209 5fbd
00000240: bbd6 763d 2b15 943d 9092 5abd 599f c1bc
00000250: 6075 023e 1e05 32be 23e0 8c3c 52ed 25be
00000260: 4d7e ca3c 9963 a2bb 0ca9 15be 02cc fa3d
00000270: ec11 c33d 2d85 d8bd 4648 3d3e 2ccb 3c3d
00000280: 91cd 323d 448b 67bd f690 1c3d be18 80bd
00000290: 3e7f 2dbe 8371 263c dcf4 8cbc 2754 2f3e
000002a0: 7dc9 21be 7c18 9d3d 0b46 9fbd de54 ca3b
000002b0: 9b6c 50bd 4d38 003d 96ec be3d 58d3 91bd
000002c0: efb5 5e3e 2f47 c8bc fc9d 9fbd 4886 bd3d
000002d0: ea4a 05be 7201 acbc 3a37 a8bd b5f6 093e
000002e0: 831a 623d e47e 85bd d37e 84bc 0218 85bd
000002f0: 961e a23d 83b0 0b3e cdb5 2d3e c45d 2cbe
00000300: 4e42 4d3d 6d56 68bd db74 12be aec2 933d
00000310: da42 60bd 92c9 1bbe daee 5d3d 806f 18be
00000320: e60a 933d 8bdb 88bd d0bf 4bbd 954d 0fbd
00000330: 49e1 80bd 1840 0d3e 6956 16be a0f4 c7bd
00000340: 63ab 25be ffd7 94bd 96ec fdbd 08aa 16bd
00000350: 7631 2dbe 570f 383d ff86 9fbc d976 d8bd
00000360: d4b4 7b3d 58be d1bd 007f 883c f717 aabd
00000370: 85ac 7f3d dce2 c0bd 5fc6 173e ff07 a5bd
00000380: 1dce 003d 1b32 bdbd 7c1c 94bd a502 bdbc
00000390: 56bf 52bd 77f9 d3bd 6620 5d3d f8d8 b63d
000003a0: 1552 4abe 057f 7b3d 120c 953c 6dc1 4c3d
000003b0: d851 773d ca78 05bd 2166 01be 5e71 953c
000003c0: 1ec1 83bd 714c c53d 06f4 d1bd 38cc b43d
000003d0: 1d15 073e 0836 d5bd c5e8 383e 22c0 3c3c
000003e0: e040 d63c f0bd e73d 62d4 09be cea9 dfbd
000003f0: 1783 41ba 8630 133e 6666 7a3d 2404 e6bd

fc2.bias f4 [128]
0.02545925 -0.006509872 -0.0013953085 -0.011219298 -0.013499799 -0.012500361 0.008291596 0.008184169
-0.010809171 0.025106804 0.022579292 -0.006958168 0.036340535 0.02991712 -0.008116334 -0.015121315
-0.008174909 -0.0040165754 -0.029075732 0.00042568694 -0.0017132625 -0.010697254 0.0041597583 -0.00017939418
0.0224792 0.0034564082 0.013024697 0.006141814 0.0010324313 0.004458982 0.009786374 0.014809353
-0.006957501 -0.002170867 0.031189505 -0.013273751 0.007480382 0.01368114 -0.037574153 0.0040032472
-0.00089144986 0.012921959 -0.00070853607 0.0010027292 -0.009722438 0.004134814 0.022705853 -0.036829192
0.0035164857 -0.012118136 -0.011598032 0.016853837 -0.01979318 -0.018125447 0.009259782 0.008927774
-0.023296406 0.005550315 -0.014221042 0.0038822375 -0.012642929 -0.033339884 0.01493242 -0.0021176087
0.0016902527 0.004556004 0.023486855 -0.0028685024 0.008117879 0.0061073834 -0.017879063 0.006337596
0.017841347 0.002993627 0.005044957 -0.017769806 -0.013247368 0.034436252 -0.026571043 -0.002384504
-0.0024443597 -0.015524356 0.0076984894 0.0009527529 -0.008735411 0.028946673 -0.0034701924 -0.018532455
-0.013090472 -0.013461234 0.048368998 0.01979469 -0.012766806 -0.006459828 -0.0022187973 0.0061555654
-0.024546182 -0.02576651 0.00054846227 -0.0076911757 -0.005932055 0.01879035 -0.017654113 0.007237388
0.010551933 0.0065984926 -0.00902123 0.020821746 -0.002371066 -0.012159772 -0.0020115508 -0.009320444
-0.011344959 0.0085574305 -0.021727636 -0.021101767 0.012584763 -0.017297257 -0.02579952 -0.037718616
-0.015115555 -0.019666256 -0.0037888098 -0.013771967 -0.03150929 0.0028418023 0.00955427 0.00341005
00000000: eb8f d03c c450 d5bb c9e2 b6ba 25d1 37bc
00000010: 432e 5dbc 50ce 4cbc 79d9 073c e516 063c
00000020: f318 31bc c9ac cd3c 35f8 b83c 5801 e4bb
00000030: d0d9 143d bf14 f53c 5ffa 04bc 64bf 77bc
00000040: 0ef0 05bc 7a9d 83bb 3b30 eebc bc2e df39
00000050: 8d8f e0ba 8943 2fbc 954e 883b c21b 3cb9
00000060: 4d26 b83c e884 623b 8a65 553c 4541 c93b
00000070: a552 873a a71c 923b 0757 203c eea2 723c
00000080: c0fb e3bb 1b45 0ebb 2281 ff3c 267a 59bc
00000090: fe1d f53b dc26 603c 5be7 19bd ac2d 833b
000000a0: 30b0 69ba a0b6 533c 0dbd 39ba 026e 833a
000000b0: dc4a 1fbc 557d 873b a001 ba3c 35da 16bd
000000c0: d774 663b 258b 46bc ac05 3ebc 0f11 8a3c
000000d0: 4f25 a2bc d17b 94bc 57b6 173c cc45 123c
000000e0: 1bd8 bebc 6bdf b53b 60ff 68bc 236d 7e3b
000000f0: 4a24 4fbc 678f 08bd 1ca7 743c 94c7 0abb
00000100: 788b dd3a 884a 953b 8167 c03c 7cfd 3bbb
00000110: da00 053c 7220 c83b 1d77 92bc 9cab cf3b
00000120: 0428 923c ba30 443b 2b50 a53b fc91 91bc
00000130: 7d0b 59bc 070d 0d3d 84ab d9bc 5745 1cbb
00000140: 8d31 20bb de59 7ebc 9c43 fc3b 2ac2 793a
00000150: f81e 0fbc 9321 ed3c 2b6c 63bb 60d1 97bc
00000160: 6b79 56bc 828c 5cbc 921e 463d 7928 a23c
00000170: de2b 51bc f7ac d3bb 3e69 11bb a0b4 c93b
00000180: 1315 c9bc 4a14 d3bc aec6 0f3a 4206 fcbb
00000190: af61 c2bb 38ee 993c 5c9f 90bc 9c27 ed3b
000001a0: 04e2 2c3c 2b38 d83b c8cd 13bc 5e92 aa3c
000001b0: e363 1bbb c839 47bc 39d4 03bb c7b4 18bc
000001c0: 35e0 39bc 7734 0c3c 28fe b1bc 9ddd acbc
000001d0: 5230 4e3c fab2 8dbc 8459 d3bc d67e 1abd
000001e0: 3ca7 77bc 211b a1bc ae4d 78bb d1a3 61bc
000001f0: e30f 01bd 883d 3a3b 8389 1c3c 257b 5f3b

fc3.weight f4 [64, 128]
0.14505692 -0.07320014 0.08888272 0.10081234 0.13191964 -0.06419793 0.06775284 0.19434269
-0.13552402 0.04817425 -0.108423404 0.07635859 -0.014918574 0.20244916 0.07504422 -0.19887283
-0.091602206 0.16414294 -0.16874811 -0.16290507 -0.019019483 0.046704393 0.030148596 0.038601317
-0.15402319 0.023406886 0.07244739 0.12879853 -0.03843808 -0.019103 0.18862006 -0.1987755
0.17756194 -0.14048845 0.24448082 0.005142584 -0.112644784 -0.11642604 -0.16144328 0.1438804
-0.16961053 0.10860167 -0.25803104 -0.20353976 0.065972775 -0.18408367 -0.022857951 0.01556212
-0.12616293 0.003769421 -0.042697333 -0.03491814 0.07706258 0.10561021 -0.19075419 -0.18623006
0.09162775 0.108629026 0.040690415 -0.04192661 -0.15813813 0.13358036 0.093560845 -0.11675416
-0.08964797 0.10736479 -0.2934176 0.08923965 -0.2443619 0.025964553 -0.08257844 -0.087490715
-0.011374095 0.12710471 -0.16207373 -0.07246372 0.26494873 -0.1472404 -0.13673292 -0.06503523
0.00041042073 -0.16780193 0.12894186 0.25472105 -0.1333534 -0.108639784 0.05850763 -0.048122052
-0.08978771 0.25778532 0.0048077856 0.06725506 -0.07033071 -0.1681798 0.026420653 0.20462734
-0.16117145 0.18356794 -0.09876932 0.17270243 0.19994555 -0.083391465 -0.032264553 -0.1610218
0.07752961 0.22026587 -0.13693644 0.04968361 -0.1685869 0.22334152 -0.19240142 0.23075895
-0.00051679986 -0.18931487 0.16646168 0.13534302 -0.075199 -0.03829266 -0.044460647 0.22337686
-0.119076535 -0.062556826 0.12611336 -0.04172807 -0.12321975 -0.23660244 -0.039307468 0.083667144
-0.09562254 -0.022925407 0.12183181 -0.057132836 0.26193172 -0.13884155 -0.013156651 0.046185173
0.09953983 -0.13274053 0.053520598 0.24460955 -0.23900622 0.124607675 -0.22730511 -0.06567723
-0.059371397 -0.021545943 -0.19438459 0.023796998 0.22353348 0.05247695 0.06572288 0.017102702
0.11904104 0.034954295 -0.077675365 -0.09141027 -0.029341565 -0.21626917 0.03232168 0.019223912
0.1417569 -0.1994548 0.05698258 -0.05594978 0.12703428 0.16298796 0.22619207 -0.07603789
0.32342818 0.19437486 -0.16493116 -0.010418377 -0.117717125 0.1720291 0.19891372 0.08885541
0.19945306 0.19236952 -0.06728924 0.039954342 -0.021842865 -0.1819144 -0.07650646 -0.13398369
-0.15354605 -0.12311675 -0.109594695 -0.050020687 -0.027291926 -0.10727062 0.003429974 -0.13245958
-0.07635039 0.30120707 0.062770694 -0.1280309 0.012868553 0.12654611 0.08233478 0.123364225
0.03852916 -0.15437533 0.05290746 -0.11260069 -0.18837287 -0.20364988 -0.058566857 -0.015660053
0.039331652 -0.084965885 0.038811266 -0.15844515 -0.118723705 0.079189464 0.19006974 -0.045554698
0.1716428 0.09094444 -0.12784503 -0.0259317 0.009239914 0.18583602 -0.21728317 -0.13267258
0.14141688 -0.21880162 0.088016026 -0.12555884 -0.0073638046 -0.10103756 0.10303929 0.09067204
-0.10761039 0.14977069 0.2946172 -0.026982551 0.0050878897 -0.08012093 0.14382964 0.0072763837
0.08729719 -0.048218608 0.18025962 -0.04696831 -0.15472503 0.04203947 -0.14562166 0.043494727
-0.16456324 0.041774455 0.14175557 -0.09133787 -0.0061508496 0.09088312 0.1906142 -0.010666798
00000000: cd89 143e f4e9 95bd 2508 b63d b376 ce3d
00000010: f115 073e 347a 83bd 00c2 8a3d c501 473e
00000020: cfc6 0abe 5d52 453d 170d debd e461 9c3d
00000030: 096d 74bc d54e 4f3e c9b0 993d 52a5 4bbe
00000040: f099 bbbd 1615 283e 4ecc 2cbe 96d0 26be
00000050: bfce 9bbc 1b4d 3f3d 30fa f63c 6a1c 1e3d
00000060: 41b8 1dbe ccbf bf3c 4c5f 943d c3e3 033e
00000070: 4071 1dbd e57d 9cbc 9e25 413e ce8b 4bbe
00000080: ccd2 353e 34dc 0fbe 2e59 7a3e 1f83 a83b
00000090: 4fb2 e6bd c770 eebd 6351 25be 6255 133e
000000a0: 62ae 2dbe 8d6a de3d a51c 84be ba6c 50be
000000b0: bc1c 873d 6e80 3cbe 9940 bbbc 43f8 7e3c
000000c0: db30 01be 6408 773b 66e3 2ebd 5306 0fbd
000000d0: fcd2 9d3d 2a4a d83d 1155 43be 18b3 3ebe
000000e0: 54a7 bb3d e578 de3d feaa 263d 3dbb 2bbd
000000f0: f6ee 21be 4ac9 083e d49c bf3d ce1c efbd
00000100: 5b99 b7bd 12e2 db3d d53a 96be 47c3 b63d
00000110: 023a 7abe 9db3 d43c e31e a9bd 552e b3bd
00000120: 6a5a 3abc bd27 023e a8f6 25be dc67 94bd
00000130: 5ca7 873e 30c6 16be b703 0cbe 3131 85bd
00000140: bd2d d739 45d4 2bbe 5609 043e cc6a 823e
00000150: cb8d 08be 897e debd b2a5 6f3d a11b 45bd
00000160: 9ee2 b7bd 70fc 833e a18a 9d3b 05bd 893d
00000170: 8c09 90bd 5337 2cbe 2070 d83c d489 513e
00000180: 210a 25be 3cf9 3b3e 9247 cabd e8d8 303e
00000190: 87be 4c3e 25c9 aabd d627 04bd e6e2 24be
000001a0: d8c7 9e3d 608d 613e 1139 0cbe 0b81 4b3d
000001b0: 0ba2 2cbe a4b3 643e e104 45be 134c 6c3e
000001c0: da79 07ba c2db 41be ee74 2a3e 5c97 0a3e
000001d0: ef01 9abd c4d8 1cbd 5e1c 36bd e7bc 643e
000001e0: 66de f3bd cb1d 80bd dc23 013e 0deb 2abd
000001f0: a35a fcbd e947 72be de00 21bd ae59 ab3d
00000200: c0d5 c3bd 10ce bbbc f582 f93d 1f04 6abd
00000210: ea1b 863e 7b2c 0ebe fe8e 57bc aa2c 3d3d
00000220: 8adb cb3d 22ed 07be 6a38 5b3d ed7a 7a3e
00000230: 0cbe 74be 4f32 ff3d acc2 68be c981 86bd
00000240: 6c2f 73bd 1e81 b0bc c10c 47be ecf1 c23c
00000250: f6e5 643e 12f2 563d b899 863d f71a 8c3c
00000260: cacb f33d 3c2c 0f3d 4314 9fbd 4f35 bbbd
00000270: b95d f0bc aa75 5dbe bd63 043d 777b 9d3c
00000280: b928 113e e13d 4cbe 9166 693d 992b 65bd
00000290: 4615 023e 51e6 263e e59e 673e c1b9 9bbd
000002a0: 6198 a53e 340a 473e b7e3 28be d7b1 2abc
000002b0: ad15 f1bd 6528 303e 0ab0 4b3e d3f9 b53d
000002c0: 6c3d 4c3e 84fc 443e f1ce 89bd 2aa7 233d
000002d0: cfef b2bc c547 3abe 6baf 9cbd 0533 09be
000002e0: 2d3b 1dbe a224 fcbd 2f73 e0bd 7ee2 4cbd
000002f0: 5193 dfbc b3b0 dbbd 6ac9 603b 7ca3 07be
00000300: 985d 9cbd d037 9a3e ec8d 803d 881a 03be
00000310: a0d6 523c 4e95 013e 239f a83d 62a6 fc3d
00000320: c1d0 1d3d 9114 1ebe 7eb5 583d 319b e6bd
00000330: d1e4 40be 9889 50be cde3 6fbd 8349 80bc
00000340: 3a1a 213d 9802 aebd 90f8 1e3d 723f 22be
00000350: 6a25 f3bd 162e a23d a4a1 423e 9097 3abd
00000360: 21c3 2f3e 1441 ba3d cfe9 02be b76e d4bc
00000370: 0263 173c cc4b 3e3e 7b7f 5ebe 52db 07be
00000380: 96cf 103e 880d 60be bf41 b43d 7f92 00be
00000390: 124c f1bb c8ec cebd 4306 d33d 43b2 b93d
000003a0: d662 dcbd 7d5d 193e 11d8 963e 830a ddbc
000003b0: 50b8 a63b 7116 a4bd 1448 133e bb6e ee3b
000003c0: dfc8 b23d e080 45bd fa95 383e d861 40bd
000003d0: 3d70 1ebe 9431 2c3d d81d 15be 8727 323d
000003e0: 4483 28be b11b 2b3d 5f28 113e 590f bbbd
000003f0: 118d c9bb ee20 ba3d 5e30 433e cbc3 2ebc

fc3.bias f4 [64]
0.004686031 -0.030460112 -0.0066040433 0.012569291 0.0014301711 -0.011212197 -0.0019964047 -0.0065396493
0.0049392716 0.008696611 0.024826765 -0.020080412 -0.010138565 -0.02075072 0.0076576173 -0.00805733
-0.026639763 -0.037423342 -0.011354625 -0.00711585 -0.015780363 -0.009883867 -0.03948722 -0.022704907
-0.019826192 0.010295118 -0.009752544 0.014524509 -0.015985096 -0.003290894 -0.0021000158 -0.006835849
-0.00827887 -0.0009211148 -0.012796201 0.0005243445 -0.017837195 -0.025301227 0.013292336 0.0012479264
-0.005230987 -0.025823334 0.0059102513 0.0048997365 -0.00808388 -0.015072933 -0.007850435 0.002106323
0.0026578405 0.006557857 -0.023012439 0.022843707 -0.039515868 0.0032594046 -0.0050899726 -0.008747114
0.007341333 0.003256775 -0.0022788919 0.0127340555 0.01717957 0.013106536 0.019370016 0.0071410923
00000000: 478d 993b 7c87 f9bc bb66 d8bb 6def 4d3c
00000010: 9474 bb3a 5db3 37bc 1dd6 02bb 8e4a d6bb
00000020: 9dd9 a13b 3b7c 0e3c 8061 cb3c ad7f a4bc
00000030: 391c 26bc 6afd a9bc c0ec fa3b e402 04bc
00000040: a23b dabc 3849 19bd c008 3abc 142c e9bb
00000050: d245 81bc f1ef 21bc 5abd 21bd a4ff b9bc
00000060: 8a6a a2bc dbac 283c 22c9 1fbc 35f8 6d3c
00000070: 2df3 82bc 0aac 57bb 6ba0 09bb 42ff dfbb
00000080: 19a4 07bc f876 71ba 28a7 51bc 2a74 093a
00000090: 4f1f 92bc 8544 cfbc 19c8 593c 7691 a33a
000000a0: b368 abbb 758b d3bc c8aa c13b f88d a03b
000000b0: 4072 04bc 77f4 76bc 1c9f 00bc 3c0a 0a3b
000000c0: 2a2f 2e3b 4be3 d63b 9584 bcbc ba22 bb3c
000000d0: 64db 21bd bc9b 553b c9c9 a6bb 0e50 0fbc
000000e0: 918f f03b 9e6f 553b 7659 15bb 80a2 503c
000000f0: 2bbc 8c3c ccbc 563c dead 9e3c d3ff e93b

fc4.weight f4 [23, 64]
0.028582683 -0.43864855 -0.6156974 0.18629313 0.20720595 -0.13277766 -0.11080792 -0.16663194
-0.59224606 0.13988489 0.52991533 0.08589989 0.18336783 0.1896767 0.33248097 -0.6376697
0.12096486 -0.31393594 0.25787807 -0.16503908 -0.2255307 -0.35978055 -0.465695 -0.7343776
0.25969017 -0.2832386 0.4378923 0.061345596 0.50569284 -0.1372909 0.16429566 -0.35928312
-0.24867341 -0.14496575 -0.0024992952 0.29702702 -0.02842405 0.32874304 0.43177578 0.09347397
-0.24092126 -0.2227708 0.10603665 -0.3612868 0.30486363 0.11615115 -0.20848054 0.11629376
-0.5247946 -0.11977716 0.3362051 -0.29788715 -0.282864 0.14678371 -0.12181068 -0.56942976
-0.45045343 -0.20019358 -0.55760807 -0.08024239 -0.57998395 0.08196543 -0.93048996 -0.25086254
-0.22193523 -0.27589324 0.1732409 -0.042226534 0.119305335 0.22645211 0.006714958 -0.33215168
-0.23881727 -0.21911629 -0.40383512 0.2521329 0.25296584 0.14010125 -0.1745384 -0.023003032
0.00951106 0.00793758 0.03705925 -0.4829691 0.091681495 -0.13384643 -0.15237167 0.002808148
-0.16432105 -0.08307123 -0.26958105 0.08250715 0.21114391 0.17662643 -0.18275358 0.08381054
-0.22908787 -0.07212798 -0.048824813 0.0021412792 -0.10207721 0.11216502 0.22287577 -0.067407474
-0.3074784 0.09892883 -0.06881314 0.13674858 -0.011133238 0.08923175 -0.16748665 -0.2173361
-0.033314783 -0.314963 -0.07327706 0.045062993 -0.15731551 0.0056607607 -0.3154868 0.18276957
-0.15641071 -0.2798498 0.18545358 0.1533507 0.09613063 0.08562505 -0.028821696 -0.00035183062
-0.16731727 0.052793466 0.17730561 0.07065868 0.057670437 -0.36097068 0.027146723 -0.43723077
0.18935812 0.156342 0.0032985716 0.1229442 -0.095104076 0.22199954 -0.13693874 0.22909102
0.13389976 -0.41066003 -0.032938197 0.14737897 -0.24056928 -0.2720714 -0.14558297 -0.27958658
0.0044973376 0.31243053 -0.49111935 -0.04190636 -0.22897239 -0.21563254 0.27990654 0.012254339
-0.36210012 0.23628621 0.23769599 -0.3263559 0.07881734 0.0019339949 -0.0041124383 0.29660535
-0.028025603 -0.027610214 -0.19990572 -0.2873536 -0.42946574 0.18918084 0.034604795 -0.006608183
0.15470032 0.15010728 -0.34866008 -0.19842492 0.50321734 -0.19577748 -0.22444673 -0.030558728
-0.1054956 -0.21415696 0.16969863 -0.31906432 -0.15047182 -0.025503889 -0.3918581 -0.3167785
0.14662807 -0.13947226 -0.14720145 0.104658484 -0.07911423 -0.15287715 0.2224621 -0.04121236
-0.010477875 -0.3464665 0.03582107 0.04096397 0.032370176 -0.1755423 -0.2012987 -0.25903115
-0.16490272 -0.13968742 -0.17526753 -0.19357015 0.04698622 0.36766016 -0.42195717 -0.019312073
0.42230186 -0.32632238 0.39491245 -0.23403183 0.4772531 -0.023020795 0.30012876 -0.4257139
0.20033742 -0.06387269 -0.059260864 0.11807618 -0.36881587 0.30451557 0.34114274 -0.10368613
-0.073306315 -0.15495823 -0.28649306 0.32512295 0.053254213 0.3925767 0.28605247 -0.3061442
0.2809602 0.33812192 0.07031567 -0.1957116 0.41337562 0.2225454 -0.22433963 -0.13317154
0.4767449 0.47140905 -0.043050826 -0.23779768 -0.015950179 -0.24558392 -0.08631866 -0.09612641
00000000: 3b26 ea3c 8b96 e0be 589e 1dbf a0c3 3e3e
00000010: cc2d 543e def6 07be 43ef e2bd 90a1 2abe
00000020: 709d 17bf fc3d 0f3e 88a8 073f 48ec af3d
00000030: c7c4 3b3e 9c3a 423e f23a aa3e 523e 23bf
00000040: 6dbc f73d 36bc a0be 9808 843e 0100 29be
00000050: 85f1 66be 2835 b8be 936f eebe 2c00 3cbf
00000060: 1cf6 843e a604 91be 6b33 e03e 8545 7b3d
00000070: 1675 013f fc95 0cbe 1f3d 283e f5f3 b7be
00000080: 3ea4 7ebe e771 14be 37cb 23bb ed13 983e
00000090: 8ed9 e8bc 0251 a83e b711 dd3e 486f bf3d
000000a0: 10b4 76be 071e 64be be29 d93d 95fa b8be
000000b0: 1617 9c3e a7e0 ed3d ec7b 55be 6c2b ee3d
000000c0: f058 06bf ba4d f5bd 1323 ac3e aa84 98be
000000d0: 8dd3 90be 784e 163e e177 f9bd 26c6 11bf
000000e0: d5a1 e6be 8cff 4cbe 67bf 0ebf 1f56 a4bd
000000f0: d479 14bf 7edd a73d 9734 6ebf 0e71 80be
00000100: fd42 63be e141 8dbe 1066 313e bbf5 2cbd
00000110: 5b56 f43d 10e3 673e 2709 dc3b c90f aabe
00000120: 848c 74be 0560 60be 7ac3 cebe 9017 813e
00000130: bd84 813e b476 0f3e 32ba 32be db70 bcbc
00000140: 47d4 1b3c a00c 023c 71cb 173d ba47 f7be
00000150: 82c3 bb3d 0a0f 09be 5207 1cbe e808 383b
00000160: c743 28be 4021 aabd 8706 8abe 82f9 a83d
00000170: 1c36 583e 8fdd 343e c123 3bbe dca4 ab3d
00000180: 0396 6abe d6b7 93bd 87fc 47bd b454 0c3b
00000190: db0d d1bd c6b6 e53d 8c39 643e ee0c 8abd
000001a0: cf6d 9dbe 339b ca3d e7ed 8cbd d207 0c3e
000001b0: 2f68 36bc 23bf b63d 9f81 2bbe 5b8d 5ebe
000001c0: 1575 08bd d542 a1be 4912 96bd f993 383d
000001d0: 5117 21be e77d b93b 7c87 a1be f227 3b3e
000001e0: 212a 20be 7948 8fbe 8be7 3d3e f707 1d3e
000001f0: 23e0 c43d 305c af3d 7a1b ecbc e875 b8b9
00000200: 3855 2bbe f63d 583d 9a8f 353e 7fb5 903d
00000210: d637 6c3d 26d1 b8be ce62 de3c b6dc dfbe
00000220: 18e7 413e 1e18 203e d92c 583b 2bca fb3d
00000230: edc5 c2bd d953 633e ab39 0cbe d696 6a3e
00000240: 051d 093e 0842 d2be 34ea 06bd 83ea 163e
00000250: cb57 76be f14c 8bbe b413 15be f925 8fbe
00000260: 675e 933b e5f6 9f3e ff73 fbbe 01a6 2bbd
00000270: bd77 6abe c7ce 5cbe e94f 8f3e 6cc6 483c
00000280: 3065 b9be 03f5 713e 9466 733e 1f18 a7be
00000290: fc6a a13d 1a7e fd3a a2c1 86bb a8dc 973e
000002a0: f395 e5bc d12e e2bc 16b4 4cbe 0320 93be
000002b0: efe2 dbbe 9fb8 413e c2bd 0d3d 7589 d8bb
000002c0: c369 1e3e b9b5 193e 9383 b2be e72f 4bbe
000002d0: dad2 003f e479 48be 5dd5 65be 4c56 fabc
000002e0: 140e d8bd f64b 5bbe 7ac5 2d3e 665c a3be
000002f0: 4915 1abe 88ed d0bc a0a1 c8be cb30 a2be
00000300: ab25 163e d1d1 0ebe fabb 16be 3057 d63d
00000310: a406 a2bd d48b 1cbe 1bcd 633e 4bce 28bd
00000320: 65ab 2bbc 0f64 b1be 1db9 123d d6c9 273d
00000330: 9796 043d 5cc1 33be 3f21 4ebe bb9f 84be
00000340: 42dc 28be 380a 0fbe 5579 33be 4137 46be
00000350: 9f74 403d f43d bc3e c50a d8be 5a34 9ebc
00000360: f337 d83e ba13 a7be f731 ca3e 0aa6 6fbe
00000370: 855a f43e 1b96 bcbc 7aaa 993e 2cf7 d9be
00000380: 4125 4d3e afcf 82bd 85bb 72bd edd1 f13d
00000390: 6fd5 bcbe 77e9 9b3e 43aa ae3e 6559 d4bd
000003a0: 9f21 96bd 5fad 1ebe 38af 92be 8476 a63e
000003b0: 1721 5a3d d0ff c83e 7875 923e efbe 9cbe
000003c0: 04da 8f3e 511e ad3e a901 903d 9f68 48be
000003d0: f8a5 d33e f1e2 633e 4ab9 65be 1f5e 08be
000003e0: e817 f43e 875c f13e 1056 30bd 3c81 73be
000003f0: f3a9 82bc 5a7a 7bbe d6c7 b0bd ecdd c4bd

fc4.bias f4 [23]
-0.079012744 0.12477893 0.09966254 0.18065181 -0.019132357 -0.04039987 -0.31678826 -0.003174005
0.15264638 0.0055506984 -0.20037156 -0.012107411 0.027697563 -0.33890018 0.011497856 -0.2506824
-0.18866304 0.03612079 -0.23535727 -0.26375264 0.070427425 0.019745743 0.13626522
00000000: 6fd1 a1bd 188c ff3d e01b cc3d cafc 383e
00000010: 76bb 9cbc 567a 25bd 1232 a2be f802 50bb
00000020: 554f 1c3e a2e2 b53b 342e 4dbe 2a5e 46bc
00000030: 00e6 e23c 5384 adbe 8161 3c3c 7259 80be
00000040: e230 41be 65f3 133d 7f01 71be 960a 87be
00000050: 413c 903d d3c1 a13c 1c89 0b3e

bn1.weight f4 [256]
0.9707348 1.029844 1.001391 0.9827456 0.93123317 0.9755566 0.92696965 0.90690535
1.0845296 0.8283325 1.0040591 0.9632542 0.8879136 0.99256206 0.9265893 0.9062912
0.8944763 0.99859977 0.96361685 1.0127722 0.9661534 1.0328116 0.9931987 0.9716285
1.0620058 0.9763956 0.92860574 1.0341725 0.9339029 0.93937624 1.0938222 0.95998645
0.90716803 0.95650244 0.9901159 1.0278707 0.9753824 1.0652672 1.0455405 0.9644634
1.0552344 0.93686354 1.0035708 0.97956127 0.9640355 1.0516585 0.97877824 1.0006387
0.9735355 0.9695018 1.0408623 0.9772571 0.9752724 0.93795514 0.88658804 0.97194564
1.0756214 0.9307717 0.94757396 0.9996649 0.90301126 0.92437154 0.9546023 0.9143638
0.9617164 1.0620164 0.880508 0.91329134 0.9714924 0.90313035 0.9639782 0.9768216
0.9779482 0.9785041 1.0139501 1.0535967 0.89153177 0.9320754 0.9621695 1.023797
1.0027152 0.9979611 1.0279206 0.8971537 0.89093816 0.9707959 0.92944235 0.9108441
0.97684884 0.9130783 0.94111556 0.9950679 0.91727275 1.0342305 0.95783913 0.99011993
0.97867274 0.9930101 0.92919636 0.9551425 1.0037624 0.95061946 0.9911437 0.96388465
0.97567976 0.9788939 0.92560583 1.0037333 0.89464635 0.93282527 1.0686904 0.91872555
0.96701795 1.0863754 0.92304385 0.9421821 0.92586416 0.92811584 0.9515981 1.1125643
0.96200186 0.9390928 1.0546012 1.1744974 1.0801084 0.96691954 0.99852574 0.92969304
0.9005527 1.2002 0.92502844 0.93736285 1.04433 1.0172724 1.0086243 1.030148
0.9867839 0.99302346 1.0579848 0.94438523 1.1010418 0.94326586 0.9694415 0.89877516
0.9070463 0.97170126 1.0710193 1.0331498 0.9066862 1.0308107 1.1186625 0.9348658
1.032842 0.8899478 0.96609294 0.96011144 1.0605165 0.952716 0.9111666 1.0015714
0.89336306 0.98299915 0.96260726 1.0085242 1.1132166 0.89770263 0.90478677 0.91714436
0.9477165 1.0547851 0.9285474 0.9153818 0.98879874 0.93440497 0.92230964 1.2912772
0.9526154 0.88276505 1.0288707 1.0380795 0.9334137 1.0632466 0.9962886 0.97018963
0.9499408 1.032005 0.9478831 0.86618906 1.0292397 1.0047864 1.0325332 0.9800095
1.0224463 0.87248766 0.9326148 0.99631107 1.0496095 0.9777651 1.0449092 0.99225384
0.9317041 0.854689 0.96619105 0.9962733 0.9827586 0.967636 1.0024468 0.92822987
0.9106607 0.91627926 0.94780296 0.9523919 0.9656944 1.0623628 0.9393101 1.0040054
0.98651004 0.95480776 0.92240995 0.9633644 0.9506462 0.9486876 0.9922625 0.92435503
0.9631164 0.9637031 1.1099343 0.9358895 1.0081096 0.9784635 0.95758975 0.9735207
1.0284108 0.9263569 0.94355816 0.96441823 1.0091994 0.99487126 1.0953797 0.88900834
1.0708884 1.014279 0.96557575 0.9558467 0.9239607 0.90306574 1.0086596 0.9441831
0.95805377 0.9545247 0.9050032 0.91253334 0.90717024 0.9560068 0.9362628 0.98880666
00000000: 1382 783f eed1 833f 952d 803f 3795 7b3f
00000010: 4c65 6e3f 14be 793f e24d 6d3f f32a 683f
00000020: ded1 8a3f 990d 543f 0285 803f d497 763f
00000030: 4e4e 633f 8c18 7e3f f534 6d3f b302 683f
00000040: 66fc 643f 3ca4 7f3f 98af 763f 85a2 813f
00000050: d455 773f 2c33 843f 4542 7e3f a5bc 783f
00000060: ceef 873f 10f5 793f 1bb9 6d3f c45f 843f
00000070: 4314 6f3f f67a 703f 5e02 8c3f acc1 753f
00000080: 2a3c 683f 58dd 743f 3c78 7d3f 4491 833f
00000090: a9b2 793f ad5a 883f 45d4 853f 13e7 763f
000000a0: ec11 873f 4ad6 6f3f 0275 803f 87c4 7a3f
000000b0: 08cb 763f bf9c 863f 3691 7a3f ee14 803f
000000c0: 9f39 793f 4531 783f fa3a 853f 852d 7a3f
000000d0: 74ab 793f d41d 703f 6ff7 623f 6ed1 783f
000000e0: f6ad 893f 0e47 6e3f 3594 723f 0aea 7f3f
000000f0: bf2b 673f 9da3 6c3f d160 743f bf13 6a3f
00000100: 0c33 763f 27f0 873f f968 613f 76cd 693f
00000110: bab3 783f 8d33 673f 46c7 763f fb10 7a3f
00000120: d05a 7a3f 3f7f 7a3f 1ec9 813f 42dc 863f
00000130: 6d3b 643f 7e9c 6e3f be50 763f c80b 833f
00000140: f958 803f 617a 7f3f e792 833f ddab 653f
00000150: 8614 643f 1586 783f efef 6d3f 142d 693f
00000160: c412 7a3f 80bf 693f f3ec 703f c5bc 7e3f
00000170: 63d2 6a3f aa61 843f f234 753f 8078 7d3f
00000180: 4c8a 7a3f e935 7e3f d0df 6d3f 3884 743f
00000190: 497b 803f cc5b 733f 98bb 7d3f 25c1 763f
000001a0: 26c6 793f ca98 7a3f 81f4 6c3f 557a 803f
000001b0: 8b07 653f a3cd 6e3f d9ca 883f 9931 6b3f
000001c0: 7d8e 773f 590e 8b3f 9a4c 6c3f d932 713f
000001d0: 6f05 6d3f 0099 6d3f ef9b 733f 8268 8e3f
000001e0: c145 763f 6368 703f 2cfd 863f ee55 963f
000001f0: fe40 8a3f 0a88 773f 629f 7f3f 5d00 6e3f
00000200: 9f8a 663f 27a0 993f aace 6c3f 03f7 6f3f
00000210: 9bac 853f fb35 823f 9a1a 813f e4db 833f
00000220: df9d 7c3f c936 7e3f 0c6c 873f 3bc3 713f
00000230: f0ee 8c3f df79 713f 512d 783f 2116 663f
00000240: 3034 683f 6ac1 783f 2917 893f 413e 843f
00000250: 961c 683f 9bf1 833f 5530 8f3f 5d53 6f3f
00000260: 2b34 843f 9ed3 633f de51 773f ddc9 753f
00000270: 01bf 873f 32e5 733f 3742 693f 7e33 803f
00000280: 71b3 643f d5a5 7b3f 6e6d 763f 5217 813f
00000290: e27d 8e3f d7cf 653f 1ba0 673f f9c9 6a3f
000002a0: 8c9d 723f 3303 873f 48b5 6d3f 7656 6a3f
000002b0: ea21 7d3f 2a35 6f3f 7c1c 6c3f 9248 a53f
000002c0: 9ade 733f e4fc 613f 09b2 833f cadf 843f
000002d0: 33f4 6e3f 7718 883f c50c 7f3f 595e 783f
000002e0: 522f 733f bd18 843f 78a8 723f 91be 5d3f
000002f0: 20be 833f d79c 803f 0c2a 843f e7e1 7a3f
00000300: 85df 823f 5a5b 5f3f d8bf 6e3f 3e0e 7f3f
00000310: 9b59 863f d04e 7a3f 96bf 853f 5904 7e3f
00000320: 2984 6e3f e6cc 5a3f 4c58 773f c40b 7f3f
00000330: 1196 7b3f feb6 773f 2d50 803f 79a0 6d3f
00000340: 0f21 693f 4791 6a3f 37a3 723f f5cf 733f
00000350: c037 773f 81fb 873f a076 703f 4083 803f
00000360: ec8b 7c3f 486e 743f 0f23 6c3f 0d9f 763f
00000370: 8d5d 733f 31dd 723f ea04 7e3f 88a2 6c3f
00000380: cc8e 763f 3fb5 763f 5412 8e3f 7496 6f3f
00000390: bc09 813f 957c 7a3f 9a24 753f a738 793f
000003a0: f7a2 833f ba25 6d3f 078d 713f 1de4 763f
000003b0: 722d 813f e2af 7e3f 6735 8c3f 0d96 633f
000003c0: df12 893f e5d3 813f f92f 773f 5fb2 743f
000003d0: b088 6c3f 512f 673f c21b 813f fcb5 713f
000003e0: 0343 753f bb5b 743f 4aae 673f c99b 693f
000003f0: 4f3c 683f ddbc 743f ebae 6f3f 6f22 7d3f

bn1.bias f4 [256]
-0.03663998 0.015788546 0.00061994244 0.007315086 -0.050093014 -0.034852806 -0.02586156 0.0103908535
-0.0601356 -0.069854036 0.052916925 -0.018087646 -0.122050226 -5.7193953e-05 -0.053274836 -0.035067886
-0.04725893 0.12457079 -0.04106785 -0.026230372 -0.056749877 0.17963712 -0.061838094 0.006978005
-0.01010666 -0.016107345 0.03357774 0.039699335 -0.052038018 -0.04514931 -0.04162862 -0.02737499
0.008080551 0.041279487 0.012290958 0.044582263 -0.0046218154 -0.022332117 0.17463136 0.12294599
0.0061368593 -0.09102551 -0.043573406 -0.040264893 0.005767157 -0.008997271 -0.06498958 0.06005385
0.1269079 0.0224526 0.012079868 0.09222883 -0.08284079 -0.12826397 -0.11586017 -0.005244043
0.000103738 -0.03600702 -0.024318535 -0.06922176 0.08023326 -0.07041937 -0.009051903 -0.059485704
-0.009389541 -0.017863104 -0.011436755 -0.037346445 -0.08930131 -0.14067425 0.06792524 0.06944049
0.022842929 0.024857854 -0.011876781 0.11611555 -0.09709614 0.03484405 0.0626914 -0.035058916
0.013601066 0.017547647 0.009956158 -0.046986997 -0.112318054 -0.04142355 -0.018548306 -0.014648942
-0.044867437 -0.117236994 -0.08844277 0.045237467 -0.07481379 0.07674331 -0.033533067 -0.0034007542
-0.0039541274 -0.09034425 -0.069492094 -0.05442551 -0.011932986 -0.03383713 -0.016555285 -0.007479122
0.021145873 -0.036728386 -0.09090993 -0.010162366 -0.15444243 -0.061296728 -0.01649177 -0.06312878
-0.047668178 0.041010607 -0.05731659 -0.05122034 -0.046842914 -0.057897698 -0.10184127 0.20122193
-0.09230142 -0.10817895 0.0021439425 0.11965098 0.03499445 0.029423026 -0.010821076 -0.050845455
-0.046059605 0.08259588 -0.08886974 -0.03592631 -0.047049385 0.042540256 -0.0073450035 -0.060790524
-0.076905616 -0.001112302 0.020925185 0.025999563 -0.027574101 -0.047176354 -0.09963769 -0.013576574
0.010129782 -0.029858477 0.045187682 0.052772418 -0.08487127 -0.007159999 0.12993313 -0.034898818
0.008827926 -0.10636119 -0.025245884 0.09082569 0.011078426 -0.014373244 -0.035938982 0.073043436
-0.035083834 -0.009983827 -0.034732528 0.0011470846 0.072123796 -0.073268175 -0.07139812 -0.016652307
0.10328168 -0.023929145 -0.04635006 -0.109563 -0.03815022 -0.11052696 -0.014013047 0.13206038
0.03160499 -0.027553108 0.13947323 -0.058543373 -0.073704004 0.09696828 -0.02235383 -0.023598406
-0.10610654 0.012786876 -0.070384085 -0.11421787 0.024662185 0.06902773 0.053832855 -0.043508008
-0.042274617 -0.06978568 -0.10583561 -0.041471597 0.024034481 -0.09242024 -0.018382149 -0.06361097
-0.028329594 -0.07011212 -0.02598157 0.018233208 0.013128708 -0.02036859 -0.035981573 0.020099243
0.0071530365 -0.024591325 0.025006782 -0.096495554 -0.04267523 0.009353253 -0.031649437 -0.024318203
-0.078195214 0.022558352 -0.057096384 -0.028425008 0.0093615865 -0.03357117 -0.012264785 -0.07646128
-0.012049343 -0.029080134 -0.015307149 -0.024370398 0.15542309 -0.07377109 0.023165116 -0.042391524
-0.034095325 -0.04999466 0.022215677 -0.16987772 -0.018434437 -0.07664148 0.12985122 -0.05000037
0.10306427 -0.053820185 -0.018617343 -0.045597814 0.043601573 0.0011472186 0.012304847 -0.06009274
-0.036939524 0.14288194 -0.056610562 0.085008256 -0.034945935 -0.07333936 -0.0066038277 0.04060329
00000000: ce13 16bd fb56 813c a283 223a 64b3 ef3b
00000010: 552e 4dbd d1c1 0ebd 9fdb d3bc 663e 2a3c
00000020: bf50 76bd a20f 8fbd 6bbf 583d 8b2c 94bc
00000030: 78f5 f9bd 8ae3 6fb8 b736 5abd 58a3 0fbd
00000040: 9492 41bd f81e ff3d c336 28bd 14e1 d6bc
00000050: 8f72 68bd cbf2 373e f149 7dbd c0a7 e43b
00000060: 6896 25bc 8df3 83bc d088 093d c59b 223d
00000070: d125 55bd 7cee 38bd c682 2abd 8441 e0bc
00000080: 4a64 043c ae14 293d 0460 493c e49b 363d
00000090: 9972 97bb d8f1 b6bc 90d2 323e 1bcb fb3d
000000a0: b517 c93b 956b babd 077a 32bd cdec 24bd
000000b0: 6bfa bc3b 4a69 13bc 4219 85bd 07fb 753d
000000c0: 25f4 013e 84ee b73c a3ea 453c 78e2 bc3d
000000d0: 6fa8 a9bd a157 03be 1948 edbd 39d6 abbb
000000e0: ea8d d938 197c 13bd aa37 c7bc 23c4 8dbd
000000f0: 5651 a43d 0838 90bd 6f4e 14bc 48a7 73bd
00000100: 97d6 19bc a555 92bc 3a61 3bbc 96f8 18bd
00000110: 9be3 b6bd e90c 10be 631c 8b3d d136 8e3d
00000120: 1821 bb3c b3a2 cb3c d496 42bc fdcd ed3d
00000130: 57da c6bd a2b8 0e3d 5964 803d f099 0fbd
00000140: 01d7 5e3c 15c0 8f3c 271f 233c 7075 40bd
00000150: 0207 e6bd beab 29bd 9ef2 97bc 1e02 70bc
00000160: ebc6 37bd f319 f0bd 7c21 b5bd ec4a 393d
00000170: f937 99bd 992b 9d3d f859 09bd 30df 5ebb
00000180: a091 81bb 6806 b9bd df51 8ebd 49ed 5ebd
00000190: 9282 43bc cd98 0abd f39e 87bc 6c13 f5bb
000001a0: 1c3a ad3c 8170 16bd fc2e babd 0d80 26bc
000001b0: 2826 1ebe 4712 7bbd c019 87bc a949 81bd
000001c0: b53f 43bd bdfa 273d cdc4 6abd 6bcc 51bd
000001d0: 5bde 3fbd 2326 6dbd 2892 d0bd 1f0d 4e3e
000001e0: 8708 bdbd ed8c ddbd 6381 0c3b 930b f53d
000001f0: 5756 0f3d 8f08 f13c e24a 31bc 5343 50bd
00000200: ffa8 3cbd 0728 a93d 5701 b6bd 7727 13bd
00000210: dbb6 40bd b13e 2e3d 5bae f0bb 7cff 78bd
00000220: b180 9dbd a9ca 91ba 4b6b ab3c 09fd d43c
00000230: 15e3 e1bc fe3b 41bd d80e ccbd 4770 5ebc
00000240: 63f7 253c c499 f4bc b816 393d e427 583d
00000250: fdd0 adbd 6d9e eabb 310d 053e 10f2 0ebd
00000260: 01a3 103c e5d3 d9bd 75d0 cebc d202 ba3d
00000270: 4982 353c c17d 6bbc c134 13bd cc97 953d
00000280: 11b4 0fbd 3593 23bc b243 0ebd c659 963a
00000290: a4b5 933d a00d 96bd 2d39 92bd 6b6a 88bc
000002a0: 5885 d33d 0e07 c4bc 8fd9 3dbd 9162 e0bd
000002b0: 6843 1cbd f55b e2bd fb96 65bc d63a 073e
000002c0: 3c74 013d 0eb7 e1bc 12d2 0e3e 2dcb 6fbd
000002d0: 20f2 96bd 4e97 c63d 611f b7bc 7251 c1bc
000002e0: 634e d9bd 0c80 513c 8825 90bd 0feb e9bd
000002f0: 5a08 ca3c 695e 8d3d d77f 5c3d 7435 32bd
00000300: 2628 2dbd cbeb 8ebd 57c0 d8bd 1fde 29bd
00000310: f6e3 c43c d346 bdbd 2996 96bc 7846 82bd
00000320: 7713 e8bc f196 8fbd 4dd7 d4bc cf5d 953c
00000330: cb19 573c 07dc a6bc 6a61 13bd 2ba7 a43c
00000340: 0564 ea3b bf73 c9bc 06db cc3c 769f c5bd
00000350: 39cc 2ebd 633e 193c d7a2 01bd f836 c7bc
00000360: d024 a0bd 4bcc b83c e6dd 69bd 90db e8bc
00000370: 5761 193c ec81 09bd 3df2 48bc bb97 9cbd
00000380: 9c6a 45bc 7639 eebc d6ca 7abc 6ea4 c7bc
00000390: 3b27 1f3e 4c15 97bd c5c4 bd3c bca2 2dbd
000003a0: 8aa7 0bbd 33c7 4cbd a7fd b53c 6df4 2dbe
000003b0: d103 97bc 35f6 9cbd b8f7 043e 30cd 4cbd
000003c0: 5c13 d33d 8e72 5cbd 6683 98bc c6c4 3abd
000003d0: 9097 323d 455e 963a 459a 493c ce23 76bd
000003e0: e64d 17bd a54f 123e 7ae0 67bd cf18 ae3d
000003f0: 7823 0fbd f232 96bd ec64 d8bb a34f 263d
