Parte II/TEC_AD_TP2/models/fcn_best_run_07_seed_77.pt (torch, 229038 bytes, 20 tensors)

fc1.weight f4 [256, 41]
000000 03 2d f0 bb 2d 66 2a 3e 83 29 58 3e 15 52 0d be
       -0.0073295846 0.1664054 0.21109585 -0.13800843
000010 92 54 81 3e ef a4 b4 be 67 8a 7a 3e cd f3 1c bd
       0.25259835 -0.35282084 0.24466859 -0.038318444
000020 d4 29 8e be 9b 7d b5 be 51 79 91 be d6 e2 a5 3e
       -0.27766287 -0.35447392 -0.2841287 0.32399625
000030 83 b7 67 3e 5f c4 4b be b6 35 22 bc 07 53 1f be
       0.22628598 -0.19899128 -0.009900501 -0.15559016
000040 12 71 11 bd 50 17 17 3e f7 69 c0 3d 64 07 01 3e
       -0.035508223 0.14754987 0.09395211 0.12600476
000050 3a 1b 44 be 26 9a ba 3e e2 0d c5 bd a9 c9 ea 3c
       -0.19151011 0.3644573 -0.096217886 0.028660612
000060 be 17 f8 3d 9c 31 cb bd 5f 5d c6 bc 45 d5 90 be
       0.121139035 -0.099215716 -0.024214445 -0.28287712
000070 a6 da fa bc c7 5d d6 3e 62 e6 b3 3c 2b 9d 07 bf
       -0.030621838 0.4186842 0.021960441 -0.52974194
000080 4b 82 49 be 76 3d 99 be 22 f8 7d bd c5 e8 cc 3e
       -0.19678609 -0.29929703 -0.062004216 0.4002134
000090 6e 04 9a 3e a7 31 6b be 26 60 f9 bd 71 b3 27 3e
       0.30081505 -0.2296816 -0.12176542 0.16377045
0000a0 ef 78 4d bb d9 0f 8f 3e 09 06 b4 3b 97 41 0d bd
       -0.00313526 0.27941778 0.0054938835 -0.03448638
0000b0 0a 05 b8 be 62 a8 bf 3e a5 51 8d 3e 8d 5f 30 be
       -0.35941344 0.37433153 0.27601352 -0.1722395
0000c0 68 d1 3c 3e 9e 4e 83 bd f9 f2 c7 3d fd 34 03 3e
       0.18439257 -0.064114794 0.0976314 0.12813182
0000d0 15 38 88 be 8d 12 be be 26 41 be be 5a a3 0c 3e
       -0.26605287 -0.37123528 -0.3715908 0.13734189
0000e0 f3 81 c9 3e 38 b0 b6 3e 4a a9 1b be 60 a4 03 3d
       0.39356956 0.3568132 -0.15201297 0.032139182
0000f0 58 60 8a 3d 3d ce 94 3e 4d 03 59 3b 19 6b a4 bd
       0.06756657 0.29063597 0.003311354 -0.0802824
000100 90 2f 0d be 50 33 49 bd 2a fb ce bd 77 7d 1b be
       -0.13787675 -0.0491212 -0.101064995 -0.1518458
000110 0b cd ba 3b 9a 67 25 3e 9f 39 b5 3e 69 f1 b4 bd
       0.0057007126 0.16152802 0.35395524 -0.08835108
000120 9a 70 39 3e 0f 2d 80 be b8 37 11 bd 22 2e b6 3e
       0.1810936 -0.25034377 -0.03545353 0.35582072
000130 c7 e3 8b bd 08 1f 8f be 1c ad d1 3e 8e cd a5 bd
       -0.068305545 -0.27953362 0.40952384 -0.08095847
000140 d1 6c 35 be 97 31 8f be 9a 74 d1 3e f7 03 e8 3d
       -0.17717291 -0.27967522 0.40909272 0.11328881
000150 24 bc 6f bd 84 30 99 be 03 4f ff 3e 47 ce c4 3e
       -0.058529034 -0.29919827 0.4986497 0.38438627
000160 42 fa ca 3e 15 05 a2 be dd d5 32 bd 37 e8 58 3e
       0.39644057 -0.31644502 -0.043660987 0.21182333
000170 26 87 1c 3d 87 3d 43 be 6c 89 64 be a6 99 a9 3c
       0.038214825 -0.1906644 -0.22318047 0.020703148
000180 54 b8 33 3d 76 84 a8 be 81 94 af be 50 bc 70 be
       0.04387696 -0.3291356 -0.34292987 -0.23509336
000190 dd e2 d1 bd 3a a9 62 3d d2 91 d2 be 52 ea d7 bd
       -0.10248349 0.05533717 -0.41126877 -0.1054274
0001a0 e1 a1 48 3e f9 68 bf 3e ff 28 07 3f e8 c1 79 be
       0.19593002 0.37384775 0.5279693 -0.24390376
0001b0 6e 4d 9e 3e 0a 96 c5 be 04 21 06 3d 82 61 f8 3d
       0.3091845 -0.38591033 0.03274633 0.12127973
0001c0 a5 fa 8a be 26 ac 43 3e 53 6a 40 3e 15 52 a8 be
       -0.27144352 0.19108638 0.1879056 -0.32875124
0001d0 8a 1e 8d 3e 72 e7 0f 3e a9 c1 7d be 4d f6 93 3e
       0.27562362 0.14053133 -0.24780907 0.2889885
0001e0 94 a2 15 3f 2b 74 40 be 21 92 5a 3d e3 36 35 bd
       0.584512 -0.18794315 0.053362016 -0.044241797
0001f0 9c 8e e3 3d fa 55 75 be 6e 83 0e 3e 94 5b d0 3e
       0.11111185 -0.23958579 0.13917324 0.4069487
000200 8b f8 22 bd 08 5d f5 3e 0a e8 20 bd d8 81 d2 3e
       -0.03978781 0.4792254 -0.03928379 0.41114688
000210 0c 22 ba bd 5d bd 7b bd 6e b5 0f be ca 8a d0 be
       -0.09088525 -0.061459888 -0.14034054 -0.40730888
000220 a1 e0 97 be 65 bd a0 3d a1 53 62 be e2 f7 25 bd
       -0.29663566 0.07848624 -0.22102214 -0.040519603
000230 07 5a 89 be dd 93 48 3b a5 79 82 be 2f f1 08 bf
       -0.26826498 0.0030605712 -0.25483432 -0.53493017
000240 4d ad 99 be 5c e2 0b 3d 8c 4d 9a 3e fc 08 ee bd
       -0.3001503 0.03415142 0.3013729 -0.116228074
000250 f5 af 5d be c3 29 89 be c1 a4 19 3e 94 d7 74 be
       -0.21649154 -0.26789674 0.15004255 -0.23910362
000260 12 86 3c 3e af b1 07 be 3e e4 49 be 76 34 94 bd
       0.18410519 -0.13251375 -0.19715974 -0.07236569
000270 5d 53 16 bd 38 9a 62 3d 7f 92 40 be 3f 24 1d be
       -0.036700595 0.055322856 -0.18805884 -0.15345858
000280 84 03 9a 3e e3 2b 1b 3e 6a d6 bb bc 3d a4 6a 3d
       0.30080807 0.1515346 -0.022929389 0.057285536
000290 d6 86 13 ba a8 9e bd bd 83 1f 61 bd af 7c 4d 3e
       -0.0005627697 -0.09258777 -0.054961693 0.20067094
0002a0 43 d2 bb 3e 2b 93 33 be 39 c2 48 be 14 49 49 3e
       0.36683854 -0.17536609 -0.1960534 0.19656783
0002b0 13 66 b1 be 42 00 56 bc 83 68 e9 bd 96 76 a7 be
       -0.3464819 -0.013061585 -0.11396887 -0.3270766
0002c0 7d ec 4e 3e 5e c3 9f 3e 20 b7 03 be cf 9d 0b be
       0.202074 0.3120374 -0.12862825 -0.13634418
0002d0 b8 8c a3 3e a3 a0 aa be d3 af 76 be 10 70 6a be
       0.31943297 -0.3332568 -0.24090509 -0.22894311
0002e0 68 07 f6 3e 52 cc 14 bb 9f 95 0d 3e 69 50 d5 bd
       0.48052526 -0.0022704792 0.13826607 -0.10415728
0002f0 52 a7 c8 bd 9a 77 71 3e cc c0 a7 be cc 5d 2a 3e
       -0.09797539 0.2358078 -0.3276428 0.16637343
000300 99 ff a0 3e 90 ee 71 3e e3 42 3d be 42 14 53 3e
       0.31445006 0.2362616 -0.18482547 0.20613196
000310 25 dd 87 be ff 7a c4 3c c9 69 53 bd 34 75 0a 3e
       -0.26535907 0.02398443 -0.051614556 0.13521272
000320 c7 35 87 3e e4 d4 85 3e e6 cc a3 be 0a 68 61 3d
       0.26408216 0.26138985 -0.31992263 0.05503086
000330 2e 10 b6 be aa f5 8d be a2 cc dc bd 75 55 a1 bd
       -0.3555922 -0.2772649 -0.10781218 -0.07877628
000340 4c 8e a5 bd 9e 52 ec 3d bc bd 2b 3e 6b b4 e8 3e
       -0.080837816 0.115391955 0.16771597 0.45450148
000350 23 be 97 be 63 9a 8e 3e 75 3a 32 be 0b d1 68 3e
       -0.2963725 0.27852163 -0.17405112 0.22735994
000360 2e 0b bb 3e 5c bc 24 3e ee 43 1f be ee 0d c3 3d
       0.36531967 0.16087478 -0.15553257 0.09524141
000370 dc ca 41 be e8 52 f2 3d 9b 37 39 be 91 b3 1b 3e
       -0.18925041 0.11832219 -0.18087618 0.15205218
000380 24 ea da be 1f 66 a1 bd 21 75 ea be e4 5b 8f bd
       -0.4275676 -0.07880806 -0.45792487 -0.069999486
000390 3f 3f 8b 3e 9d 2d 8b be 7d df c9 bc ff 83 61 be
       0.2719669 -0.27183238 -0.0246427 -0.22023009
0003a0 aa 76 62 3e ee 05 7f 3e 8b 26 bf 3d 92 3f 0a 3e
       0.22115579 0.24904606 0.09333523 0.13500813
0003b0 82 50 ae be 60 90 b0 be 17 82 dd 3e b4 a4 ac be
       -0.34045798 -0.3448515 0.43263313 -0.3371941
0003c0 92 41 0c 3c 4d 69 20 be da 85 1d be 49 ac d9 be
       0.008560555 -0.15665169 -0.15383092 -0.42514256
0003d0 01 41 42 bd fc 05 d8 3d 2f 8d 3b be c2 ea 5e bf
       -0.047425274 0.105480164 -0.18315576 -0.8707696
0003e0 b2 20 51 bc e9 9f 3e bd 6d 62 de be d7 9a 65 be
       -0.012764143 -0.04653922 -0.43434468 -0.22422348
0003f0 5b 5c e8 3d d0 6c a8 be b8 50 83 3d 75 e7 19 bd
       0.113457404 -0.32895517 0.0641188 -0.03757425

fc1.bias f4 [256]
000000 d8 52 0b 3c 8d 24 a5 bc e2 68 16 ba 68 cf 2e 3c
       0.008503638 -0.02015903 -0.00057376747 0.010669567
000010 18 27 e9 bb d2 3f b6 3b 7b eb 6a 3b 2e 7f 0a 3c
       -0.007115256 0.005561807 0.0035845924 0.008453174
000020 d4 a6 95 bc 28 32 0b 3b 34 f7 2b 3b c1 19 b2 ba
       -0.018268026 0.0021239612 0.0026239874 -0.0013587998
000030 b8 dc 47 3c bb 4d 46 bc 25 6a 99 3b 4e bb 1e 3b
       0.01219862 -0.012103493 0.004681843 0.002422053
000040 96 db 24 3c 29 4d 36 bc c2 f3 a6 bb 37 40 0d bc
       0.010062119 -0.011126795 -0.005094976 -0.008621267
000050 f7 96 6d bc 16 fd f8 3b 62 a8 3c 3a 62 0a a2 bb
       -0.014501325 0.0075985296 0.0007196722 -0.0049450854
000060 7b 46 ad 3c d9 3a 35 3a b6 d9 4a bc f5 dc cb bc
       0.021151772 0.0006913371 -0.012381008 -0.024885634
000070 3f 19 b1 bc c9 75 5c 3c 09 c4 9e bb ff ff 3a 3b
       -0.021618484 0.013455817 -0.0048451466 0.0028533933
000080 83 a9 46 bc 88 48 c5 3a d9 07 94 3b f8 0c 9d 3c
       -0.012125376 0.0015051523 0.004517537 0.019171223
000090 89 6b a9 3b 08 c0 d2 ba 35 55 61 bc 3d 89 4e 3c
       0.00517029 -0.0016078958 -0.013753225 0.012605962
0000a0 8a fc 85 bc 2e 79 79 bb a7 41 4e bb 17 07 5a 3b
       -0.016355772 -0.0038066613 -0.0031472237 0.0033268386
0000b0 49 ae 65 bb 5a 0a 0c 3c 38 f5 be ba 76 43 06 3b
       -0.003504651 0.00854739 -0.001456893 0.0020486987
0000c0 58 27 55 ba cd ad 09 bd 7e b2 70 3c 8d 7f bc bc
       -0.0008131168 -0.033613015 0.014690993 -0.02301004
0000d0 8e 1c 65 bb 74 77 37 3b e7 77 38 3c 98 c6 57 bb
       -0.0034959647 0.0027994784 0.011259056 -0.0032924768
0000e0 45 3d 8a ba ef 26 ae bb 08 2c d9 bc 2e 15 70 3c
       -0.0010546824 -0.0053147 -0.026510254 0.014653487
0000f0 de f5 33 3b 74 7f fc ba c2 f7 40 bc 98 71 87 bc
       0.002745978 -0.0019264058 -0.01177782 -0.016533658
000100 1d 6b 16 3c bb 20 20 bc 31 e8 34 bb 78 af ac bb
       0.009180811 -0.009773429 -0.0027604217 -0.005269941
000110 8c 7e b6 3a ff e1 01 3c 05 16 c9 bb 48 f3 1b bb
       0.0013923212 0.007927417 -0.006136658 -0.002379613
000120 f2 fa 1c bc c7 aa e2 bb 35 c5 bc 3b cd c4 e3 bb
       -0.009581314 -0.006917331 0.0057608136 -0.0069509507
000130 30 19 a6 bc 00 06 04 bb 39 af 62 bc fc 30 97 3c
       -0.020275682 -0.0020145178 -0.013835722 0.018455975
000140 1f d0 52 b9 4b 2d 43 3a d7 dc 6d 3c d7 1f b0 ba
       -0.00020104692 0.0007445409 0.014517984 -0.0013437223
000150 21 0f 07 bd 4d 49 f3 b9 cb d4 cc 3c 27 64 80 bd
       -0.032973412 -0.00046403185 0.025003811 -0.062691025
000160 7d c2 ae bb de c8 67 3c 20 11 df bb a9 1a 0d 3c
       -0.0053332434 0.014147012 -0.0068074614 0.008612313
000170 9f 56 a2 bb 93 17 8c 3b 3e b9 fc 3b fc be 8f bb
       -0.0049541737 0.004275271 0.0077125123 -0.004386781
000180 cc cc a4 b9 a6 a6 19 bb a6 1d 68 3a 71 a7 dc bb
       -0.00031433103 -0.0023445277 0.00088545156 -0.0067338278
000190 83 40 14 bc e6 f7 6d ba bb 36 9b 3b 98 de 48 bb
       -0.009048584 -0.0009077772 0.004736749 -0.0030650254
0001a0 f3 24 0e 3c ac 77 43 3c 8a be 0d bc 45 fd 10 3a
       0.008675802 0.0119303875 -0.008651385 0.0005530904
0001b0 65 38 59 3c 31 c1 1b 3b 92 48 b7 b9 30 76 6c 3c
       0.013258074 0.0023766274 -0.0003495855 0.014432475
0001c0 35 34 dc 3a 9c b8 8c 3b 78 63 9f 3a 91 fe 15 3c
       0.0016800227 0.004294468 0.0012160381 0.009154932
0001d0 1a a6 5d b9 f2 c8 02 bc ae e3 91 bb 24 73 a4 3b
       -0.0002113808 -0.007982479 -0.0044521904 0.0050186086
0001e0 19 90 81 3b 41 99 38 bb bb 1b f3 3a 92 98 1d bc
       0.0039539454 -0.0028167518 0.0018547693 -0.009618895
0001f0 d5 9e b0 3a 6f c4 2b 3b d9 de 37 bc 29 8f cf 3b
       0.001347507 0.0026209613 -0.011222565 0.0063342047
000200 75 6f 08 bc 9a a8 48 3c 7d 41 1f bc 25 ac da 3b
       -0.008327355 0.012247229 -0.0097202035 0.0066733533
000210 63 4d 49 bb 6c 21 e4 3b 65 1b 75 bb 51 6e a7 3b
       -0.0030716292 0.006961992 -0.0037400362 0.0051095863
000220 c8 be 97 3b eb 34 19 3c e9 43 6c bb 29 93 e7 bb
       0.004630897 0.0093509955 -0.003605122 -0.0070671034
000230 00 68 05 3a 2e 24 c8 3b 0e ff 47 3c 69 2f 44 39
       0.00050890446 0.0061078286 0.012206806 0.00018709678
000240 6a 76 45 3a 42 87 16 3c 53 50 54 bb 20 02 a1 bb
       0.00075325987 0.009187521 -0.003239651 -0.0049135834
000250 55 9f 0b bb 71 e4 15 3c 9b 4b 68 ba 99 79 1c 3b
       -0.0021304686 0.009148703 -0.0008861364 0.0023876189
000260 ce 48 eb b8 4b 1e a6 bb ad 99 41 bb 5a 3f 5d 3b
       -0.00011219234 -0.005069529 -0.002954106 0.0033759684
000270 fb e2 97 ba 8f b2 82 3b b8 4b 33 3c 7e f3 35 bc
       -0.0011588031 0.003988571 0.010943346 -0.011105416
000280 a5 5c f2 bb 86 a4 f1 bb bd cb 50 3c 18 d8 1b ba
       -0.007396298 -0.007374349 0.0127438875 -0.0005944981
000290 86 65 19 bc 8e c9 aa bb 4b ab 6e 3b e8 77 17 38
       -0.009362584 -0.0052120155 0.0036418017 3.6112877e-05
0002a0 f2 14 db 3b c1 fc 0b bc 27 be d1 3a 8c 3e ef 3b
       0.0066858465 -0.008544148 0.0016002104 0.0073011573
0002b0 13 9f 87 3b 36 ef 2b 3b 26 26 fe ba bb 9e 69 3a
       0.004138836 0.002623511 -0.0019390031 0.00089118973
0002c0 69 64 68 bb fb be 7b 3b ed d0 f4 bb 07 27 11 3d
       -0.003546024 0.0038413394 -0.007471195 0.03543761
0002d0 3b 78 f4 ba 52 e4 e7 3b 11 72 10 3d dd 94 70 39
       -0.0018651554 0.0070767784 0.035265032 0.0002294364
0002e0 33 d0 f5 b9 36 60 67 3c fb 73 b8 ba 29 4f ff ba
       -0.00046885162 0.01412206 -0.0014072651 -0.0019478548
0002f0 8e f5 a7 ba d0 ac 95 bc c4 3c a6 3a d6 a8 42 3c
       -0.001281427 -0.01827088 0.0012682904 0.011881074
000300 fe b3 ab bb ad 22 fc 39 dd 68 55 bd b9 e3 ba bc
       -0.0052399626 0.0004809102 -0.05210196 -0.022813665
000310 b4 43 f2 3b 56 56 61 3c 82 da 85 bb 6b 17 a5 bc
       0.0073933247 0.013753494 -0.004084886 -0.020152768
000320 63 fd 6b 3c b9 15 c1 ba e4 77 85 bb f3 df 96 3c
       0.014403674 -0.0014731205 -0.00407313 0.018417334
000330 d9 0b 0b bc 92 de 88 bb 70 0d a4 bc 58 ae f2 3b
       -0.008486711 -0.004176923 -0.020025939 0.0074060373
000340 e6 8e b0 3b 44 09 ff b7 42 31 8a 3b 60 1d 08 bc
       0.0053881286 -3.0402683e-05 0.004217298 -0.008307785
000350 6b 8a d8 3b 69 05 b8 39 40 0d 41 ba 51 29 14 3c
       0.0066082976 0.00035099246 -0.000736434 0.009043054
000360 5a 95 d7 3b c9 ce d9 bb 2c 2a 92 3a 7d 47 07 b9
       0.0065790834 -0.006646965 0.0011151484 -0.00012901235
000370 78 f7 ea bb b7 1a f8 bb 01 99 33 3b 70 45 7c 3b
       -0.007170614 -0.007571544 0.002740443 0.0038493536
000380 52 8d f2 3b 40 96 51 3c 60 1b bd bc 6a 95 e3 3b
       0.0074021006 0.01279217 -0.023084342 0.006945302
000390 17 8e de bb f6 46 6e 3b 7a 44 92 3b ff 22 fd bb
       -0.006791841 0.0036358214 0.0044637294 -0.007725119
0003a0 3c c8 c8 3b 6c ce 1f bc 65 ea c5 3b 23 8d cb bb
       0.0061273854 -0.009753805 0.006039905 -0.006211893
0003b0 3b 76 08 3b 95 14 22 bb 3b 82 29 3a 7b ca 92 3b
       0.0020822424 -0.0024731506 0.0006466244 0.004479704
0003c0 7c d5 27 bb e7 e8 b2 3c e8 2a 03 bd c7 8e 9c 3c
       -0.0025609424 0.021839572 -0.03202334 0.01911105
0003d0 4a 78 4b 3c af 1a 2f 3c 03 7b c1 bb 34 54 4a 3c
       0.012418816 0.010687514 -0.0059045567 0.012349177
0003e0 92 95 8a ba 40 81 36 ba cd 58 3e bc 99 91 83 3a
       -0.001057314 -0.0006962009 -0.011617851 0.0010037898
0003f0 a6 1f 72 ba fc 21 e0 3b 07 62 32 bb 2b 7c 02 3c
       -0.00092362834 0.0068399888 -0.0027219073 0.007964174

fc2.weight f4 [128, 256]
000000 4a 59 95 bd 20 d9 a5 bd cf 9a 10 be 76 4d 54 bd
       -0.07292421 -0.08098054 -0.14121555 -0.051831685
000010 df 3a f5 3c 93 1b fd bd 66 ba 9a bd e7 0d 95 bd
       0.029935298 -0.12358775 -0.07555084 -0.07278042
000020 c5 a5 dd bd cb 33 1d bd f9 94 25 bd bf ea 09 be
       -0.10822634 -0.03837947 -0.040425275 -0.13468455
000030 ff a0 72 bc 66 bd ec 3d d1 2f 1f bd 61 b2 9d 3b
       -0.014808892 0.115595624 -0.03886396 0.004812524
000040 9f c0 3f bd 6a 09 12 3c 11 6c 28 be d8 6c 0e be
       -0.046814557 0.008913377 -0.16447474 -0.13908708
000050 96 8a 3f 3d 07 36 5e 3e f3 e5 4c be 2f 8a 0f be
       0.046763025 0.21700297 -0.20009594 -0.14017557
000060 52 9c de 3d d7 46 4e bd 03 dc 20 be fc db 7b bc
       0.108696595 -0.050360527 -0.15708928 -0.015372273
000070 9c 0e 0a 3e 6c d7 8c 3c 77 99 c7 3c fe 49 07 be
       0.13482136 0.017192565 0.02436517 -0.1321182
000080 05 d5 6d 3d bd 30 4d 3c 67 02 a3 3d ac c1 1b 3e
       0.05806448 0.012523827 0.079594426 0.15210599
000090 e7 92 0a be 37 dd 21 be bf b6 e5 bb cc 22 24 bd
       -0.13532601 -0.15807043 -0.0070103104 -0.040072247
0000a0 30 a1 28 be 4d 2f c9 bd 40 27 74 3d 1e 79 cc 3d
       -0.16467738 -0.09823475 0.059607744 0.09984039
0000b0 e5 07 67 be db 22 f1 bb cc e6 a7 3d 0c 7e 2a 3e
       -0.22561605 -0.0073588914 0.08198318 0.16649646
0000c0 9a 1f ba bd ef 93 e8 3d f9 9e 51 bd 39 7b b3 bc
       -0.09088059 0.11356341 -0.051177 -0.021909343
0000d0 2b 65 df 3d c7 21 fd bd 78 77 ae 3d 4c 3a 6f bd
       0.10907968 -0.12359958 0.085188806 -0.058405206
0000e0 48 49 ae 3d c8 b2 a7 3c 56 39 c1 3d d9 55 ae 3d
       0.08510071 0.020470992 0.09434764 0.08512468
0000f0 b6 f8 cb 3d 99 31 1f be 14 c9 6c 3d 30 e0 1f 3d
       0.09959547 -0.15546264 0.05780895 0.03903216
000100 3f 5c d8 3d 85 b1 dc bd 19 12 dd bd 8a 55 94 3c
       0.105644695 -0.10776047 -0.107944675 0.018107194
000110 4a 12 f8 3d c9 60 f0 bd 0f 78 1b 3c 58 d0 f5 bd
       0.12112863 -0.1173721 0.009489073 -0.12002629
000120 da 08 2c 3c 71 b4 b5 bd 89 ff c9 bd b5 99 5d 3a
       0.010500157 -0.08872307 -0.098631926 0.0008453385
000130 88 1c 78 bc aa 8c 01 bd ca 93 38 be 33 94 a7 bd
       -0.015143521 -0.03162829 -0.18025127 -0.08182564
000140 bf 7b 0f be 62 d6 06 be 81 85 77 bb 6c e7 9f 3d
       -0.14012049 -0.13167718 -0.0037768784 0.07807812
000150 80 03 aa bd 06 85 0e 3d a3 2f 36 bd cf b9 1a be
       -0.08301449 0.03479483 -0.044479024 -0.15109943
000160 21 97 fa 3d 06 45 27 3e d5 02 3f be 28 0f 7f 3d
       0.12235857 0.16334924 -0.18653424 0.062270314
000170 84 dc 1f 3e 35 90 02 be 2b a9 32 3d 54 3b 2b be
       0.15611464 -0.12750323 0.043618362 -0.1672185
000180 87 cb 53 3d c3 d7 77 3c 34 76 26 bd 2f 35 f3 3d
       0.05170777 0.015127125 -0.04064007 0.11875378
000190 10 6a df bd 40 2b ba bd eb 86 a7 3c be a4 3e be
       -0.10908902 -0.090902805 0.020450076 -0.18617532
0001a0 89 e5 cd bd 57 7a aa 3d 06 21 5b bd 08 b1 50 3c
       -0.10053546 0.08324116 -0.05349829 0.01273752
0001b0 72 a6 23 bd a8 c5 3a 3e d9 8f 79 bc 1a 0b 39 bc
       -0.039953656 0.18239462 -0.01523205 -0.011294151
0001c0 55 d1 72 be 74 69 b7 bd b4 a9 0b bd 14 93 cc 3d
       -0.23712666 -0.089556605 -0.03409739 0.099889904
0001d0 ed ed 22 be 74 9f 95 3d ac f3 98 bd ce a2 e4 3d
       -0.15911074 0.07305804 -0.07468352 0.11163865
0001e0 e1 f0 1d be 9f e9 65 3d 71 70 dc 3d 37 29 ab 3d
       -0.1542392 0.056131 0.10763634 0.083574705
0001f0 4a 2c c1 3d d3 40 8f bd 63 b8 32 bd f9 ee 91 3c
       0.094322756 -0.06994786 -0.043632876 0.017814146
000200 bb 86 e2 bd 3f e0 a5 bd 3d 66 09 bc 8c 7c 05 be
       -0.11060854 -0.08099412 -0.008386192 -0.13035792
000210 09 14 33 be f9 59 43 bc 24 36 e3 bd 60 46 ae 3d
       -0.17488112 -0.011923307 -0.11094311 0.08509517
000220 e4 d3 9c bd fd b7 e2 3d 8f 90 f4 bd 2e f1 5b 3d
       -0.076576024 0.11070249 -0.11941635 0.053696804
000230 db f8 3a bd 75 b1 db bd 56 6b 0b 3c 61 7c 27 be
       -0.045647483 -0.107272066 0.008509478 -0.1635604
000240 5b 3c 03 bb ad b2 12 3d 88 63 13 3e 03 38 cf 3d
       -0.0020024988 0.03581493 0.14393437 0.10118105
000250 b2 0c 21 be 84 cb a1 3d 2a 96 52 3d 7d b6 40 b7
       -0.15727499 0.07900146 0.05141274 -1.1486581e-05
000260 f4 0e fa 3d 76 2a 60 3b c2 b0 ad 3d 0c 08 46 3d
       0.12209883 0.0034204996 0.084809795 0.048347518
000270 78 66 c3 3d ed a0 b0 bd 87 a7 06 3e 14 a6 12 be
       0.09541029 -0.08624444 0.13149844 -0.14321166
000280 25 c9 c8 bc 3f 59 dc 3c ad 22 75 3c c8 08 30 be
       -0.024509976 0.026898025 0.014961881 -0.1719085
000290 09 f4 54 bd 78 67 d3 bd 8b 03 c0 3c cf b3 84 3d
       -0.051990543 -0.103224695 0.02343919 0.06479608
0002a0 85 65 bb bd ec f0 dd bd d1 da 8b 3d 0b b4 19 bd
       -0.09150223 -0.10836968 0.06828845 -0.037525218
0002b0 b7 8d c9 3d c3 c5 04 3e c6 0c 15 be 58 42 08 3d
       0.09841483 0.12966065 -0.14555654 0.033266395
0002c0 f3 81 fa bd ed 9c 82 bd fc c4 c3 3c 9d eb 62 3e
       -0.12231817 -0.063775875 0.02389764 0.22160192
0002d0 41 09 f8 bd 7c ac 16 3d b0 72 8f 3d 69 39 6c bd
       -0.1211114 0.036785588 0.07004297 -0.057671938
0002e0 c7 82 92 bd 9d a7 c3 ba c7 ed 12 be 20 1e 32 3d
       -0.0715385 -0.0014927272 -0.14348517 0.04348576
0002f0 c6 6e 53 bd bd a8 26 3b d3 4d 37 3e eb 94 74 bd
       -0.051619314 0.0025430166 0.17900781 -0.05971233
000300 b5 a2 01 3d 1f 03 61 3d 9c 85 3e bc bd 0a 33 bd
       0.03164931 0.054934617 -0.011628535 -0.043711413
000310 46 1a 99 bd a0 81 33 be 2c 0a de 3d c1 6e d0 bc
       -0.074757144 -0.17529917 0.10841784 -0.025443437
000320 39 a5 a0 3d 98 a0 1b be 41 1b 9c bd d7 49 bf 3b
       0.07844014 -0.1519798 -0.07622386 0.00583766
000330 07 8d d4 3d 55 08 34 bd fc d8 91 bd 77 56 d9 bc
       0.10378461 -0.04395326 -0.071214646 -0.026530487
000340 71 1d 60 3d 05 9a 80 be af 16 85 3c d9 5c 1b 3e
       0.054715578 -0.25117508 0.016246168 0.15172137
000350 2e 24 2f b9 ed ba 89 3a 8f 5a c7 3d 9d 4d 9a 3d
       -0.00016702779 0.0010507979 0.097340696 0.07534335
000360 0d f6 f8 bc 3b 4c e9 3d e0 84 5a bd 2c 1b d0 bd
       -0.030390764 0.11391493 -0.053349376 -0.101614326
000370 d1 15 e6 bc 59 69 7a bd 55 9e 7e 3d 07 68 f9 bc
       -0.028086575 -0.061135624 0.062162716 -0.030445112
000380 82 22 99 bd ae 82 bb 3d e3 ea 61 3e 61 39 09 3d
       -0.07477285 0.091557845 0.22062258 0.033501986
000390 c9 a2 d3 3c 1f d0 f1 3c 58 ee bd bd 38 bd 82 bd
       0.025834458 0.029518185 -0.09273976 -0.06383747
0003a0 bf f0 b2 3d e0 ed cc 3d 53 62 b9 3d c4 9c 2d bd
       0.08737325 0.100063086 0.09051957 -0.04238583
0003b0 e9 77 81 3d b2 cc 6c be cc 02 fb bd df ee 59 3c
       0.06321699 -0.2312496 -0.12256393 0.01330158
0003c0 84 7d c6 3c e5 b7 4c bd f7 33 ae 3d 00 34 d4 3d
       0.024229772 -0.049980063 0.08506005 0.10361481
0003d0 82 41 92 bc b1 fe 5c bd 94 26 91 3c 3f 0e dc 3d
       -0.017853502 -0.05395383 0.01771859 0.10744905
0003e0 a0 b7 96 bc 48 64 3b 3d 17 14 d7 bd 13 70 08 3e
       -0.018398106 0.045749933 -0.10501879 0.13324003
0003f0 ed bd 7f 3b 50 2d d2 bd 6d 9f 75 bd c5 32 16 be
       0.0039023117 -0.10262549 -0.059966493 -0.14667805

fc2.bias f4 [128]
000000 16 0f b0 bb d8 73 1b bc b8 af d1 39 ff c2 4c 3c
       -0.005372892 -0.0094880685 0.00039994507 0.012497663
000010 be 62 ba bb 71 c0 ce bc 23 7f ce 3b 3d 89 46 bc
       -0.0056880405 -0.025238248 0.006301777 -0.012117681
000020 3d e5 cd ba 6f be 89 bc dd a0 37 3c 8b f0 49 ba
       -0.0015708577 -0.016814439 0.011207786 -0.0007703385
000030 11 d5 13 bc 68 38 44 bb 62 8b a3 bc 2e f8 33 3c
       -0.009022967 -0.0029940847 -0.019963924 0.010984464
000040 35 a6 ac bc 57 ff ac bb 17 80 14 38 1a 3c 13 bb
       -0.021075347 -0.0052794623 3.5405243e-05 -0.0022466243
000050 36 1c a1 ba 1b 3d 0d 3c 3a a4 5e 3c fe 15 ce 3c
       -0.0012291733 0.008620526 0.013588959 0.025156971
000060 35 96 8b bb ef 5c 9f bb 59 64 74 bc 49 ea 8f 3c
       -0.0042598494 -0.0048633735 -0.014916503 0.01756777
000070 05 bb bb 3b 03 c2 06 bc 2e d9 04 bc 20 2e b3 bb
       0.0057290816 -0.008224967 -0.00810842 -0.005468145
000080 fe cf 8a 3b 88 8e 6e bb ad a3 c7 3c 71 b9 2d 3c
       0.0042362204 -0.0036400873 0.024370039 0.010603295
000090 58 81 3d bb 57 5a 30 3c 8d 93 01 3c dc c4 e6 ba
       -0.0028916206 0.010763726 0.007908714 -0.0017606276
0000a0 68 1b fa bb 7f b9 98 bc eb 2d 85 bc d2 04 fa 3b
       -0.0076326616 -0.018643139 -0.016257247 0.007629969
0000b0 ed dc 10 3c 09 bf 97 bc c7 29 b6 bc 9a 05 76 bb
       0.008841735 -0.01852371 -0.022236718 -0.003753996
0000c0 80 06 b0 bb 88 2b b7 bc 5f 67 3d 3c d7 e5 b7 bb
       -0.0053718686 -0.022359625 0.01156029 -0.005612116
0000d0 d0 72 47 bc 1a 08 68 bc 9f 5b 03 3c 20 27 e8 3b
       -0.0121733695 -0.014162088 0.00801745 0.007084742
0000e0 d3 2c 70 3a b4 38 19 bb 97 80 37 3b fd 89 33 3b
       0.0009161953 -0.0023379745 0.002800023 0.002739548
0000f0 54 3d 42 3d 00 f7 42 bc 7c 60 73 3c cd 05 25 bc
       0.04742177 -0.01189971 0.014854547 -0.010072184
000100 6b 05 51 bc c3 00 35 bc 20 45 89 3b d3 ef 72 b9
       -0.012757639 -0.011047545 0.0041891485 -0.0002316826
000110 9a 8c 78 ba 37 49 c9 bb e9 6c 91 bb ba 20 a6 3a
       -0.00094814005 -0.006142761 -0.004438032 0.0012674548
000120 d6 6e a2 bc 55 aa ee bb db a8 24 bd a8 91 fb bb
       -0.019828241 -0.0072834888 -0.040200096 -0.0076772757
000130 88 97 80 3a f0 44 c5 3c f3 a7 bc bb d7 66 a0 3b
       0.0009810785 0.024080724 -0.005757326 0.004895072
000140 3c fc 31 3b 94 38 52 bc b5 a9 5b bb 96 d2 d8 3c
       0.00271584 -0.012830872 -0.0033517901 0.026467603
000150 07 a6 80 bc e6 5d 62 bb 25 2c 3b bb e6 3d 2e 3c
       -0.015704168 -0.003454083 -0.0028560248 0.010634875
000160 ee f6 e1 3b df f6 c6 3b 86 a9 80 bc 69 f2 01 3c
       0.0068958914 0.00607191 -0.015705835 0.00793133
000170 ca 45 48 bc 2d 42 57 bc d8 dd b1 3a 9d 46 c5 3c
       -0.01222367 -0.013138336 0.0013570143 0.024081523
000180 e6 15 04 bd 5a 11 c1 bc 04 1f 4e 3c b5 ef 51 3a
       -0.032247446 -0.023567844 0.012580637 0.00080084364
000190 04 21 a3 ba 2a cc c6 bc 9c 2f 26 bc 8c 58 70 bc
       -0.0012445753 -0.024267275 -0.010143187 -0.014669549
0001a0 7d c2 35 3c 0e cd 8c 3b 4d f5 55 bc 57 e3 c6 bb
       0.011093733 0.0042969054 -0.013058973 -0.0060695815
0001b0 95 9a b4 bc 98 ac c7 ba 45 89 a1 3c fb ae e4 bc
       -0.022046367 -0.0015233932 0.019718776 -0.027915468
0001c0 2d 0a 85 bb ad 68 55 bc 9c ba 5c 3c 99 b2 fc 3b
       -0.004060051 -0.013025445 0.0134722255 0.00771172
0001d0 02 d5 25 bc fd 4b 29 3c 81 8c 5e 3c 22 5b 12 bc
       -0.010121586 0.010333058 0.013583303 -0.008932861
0001e0 c8 f3 99 3c c4 31 51 bc 75 7c e5 3b 11 7d aa bc
       0.018793002 -0.012768213 0.007003362 -0.02081159
0001f0 2c 28 b6 bb 88 32 58 bc f6 dc cf 3b 96 f0 22 bb
       -0.005558988 -0.013195641 0.0063434793 -0.0024862639

fc3.weight f4 [64, 128]
000000 b7 9a 14 3e f1 75 36 be d8 18 e0 bd bd 56 ac bd
       0.14512144 -0.17818429 -0.109422386 -0.084149815
000010 8b a0 9d bd 71 f6 f5 bb cf d3 3b bd 28 ad 9c 3e
       -0.07696637 -0.0075061847 -0.045856293 0.30600858
000020 a5 a1 32 3d b1 7d 9d be c5 b7 2d be b9 26 da bd
       0.043611187 -0.30759957 -0.16964634 -0.10651917
000030 83 dd 96 3e 95 bb 63 be af bb 7c bc e6 cb 69 3e
       0.29465875 -0.22239526 -0.015425607 0.22831687
000040 65 23 fa bd a2 7b 77 3d 61 41 62 bb c2 32 30 be
       -0.12213782 0.06042064 -0.0034523832 -0.17206863
000050 61 81 55 be 7c 59 50 3d 60 4b 53 3e 62 8d 12 3c
       -0.20850135 0.05086659 0.20634222 0.008944841
000060 3d 3b 06 be 6f 43 af 3d d5 dc 9c 3d d7 be 4f 3d
       -0.13108535 0.08557784 0.07659308 0.05071911
000070 48 af 4a bc 4c da 23 bd 49 5b c5 3d ff ad e0 bd
       -0.012370892 -0.040003106 0.09636552 -0.10970687
000080 5e 0e b8 bd dc 74 4f 3e 4e 70 e4 3d 72 5e 71 be
       -0.08987115 0.20259422 0.11154233 -0.23571184
000090 c0 6f 8e 3c e1 ad 01 bc 6f 31 77 3d bb 60 0e 3d
       0.01738727 -0.007914991 0.060349878 0.034760218
0000a0 39 fb 60 be 18 68 36 3b f4 b1 be 3d 53 b6 db 3c
       -0.21970834 0.002783304 0.093112856 0.026820337
0000b0 76 19 cc bd 5c 18 11 be c0 a6 fc bc 34 b8 b8 bd
       -0.09965794 -0.14169449 -0.030841231 -0.09019509
0000c0 e4 d3 33 3e 21 ea 26 be c5 8c 9c bd 95 7a 8c be
       0.17561299 -0.1630025 -0.07644037 -0.27437273
0000d0 11 0f 5d be c2 99 29 be e5 cc a8 3c 48 11 55 bd
       -0.21587779 -0.1656256 0.020605514 -0.052018434
0000e0 a2 55 21 3e 26 ab 0e be 98 0e 02 3e 35 b5 b3 bd
       0.15755323 -0.13932475 0.1270088 -0.08774797
0000f0 f2 38 09 be 08 cd 2c be 37 89 49 bd b4 3c fa 3c
       -0.13400629 -0.16875088 -0.049203124 0.030546524
000100 35 d9 d4 bd 54 e1 4d bd 42 71 48 be 0c 12 33 be
       -0.103929915 -0.050263718 -0.19574454 -0.17487353
000110 22 08 6e 3e 3f 6a 5a 3e 6d 65 0e 3d 14 33 cb 3c
       0.2324529 0.21329592 0.034764696 0.02480463
000120 3a 69 91 3e 0b f2 78 be 68 e5 11 be 7d 7e c1 bd
       0.28400594 -0.24311082 -0.14247668 -0.09447954
000130 c8 b5 16 be 37 c4 17 3e 7a 6d 18 be 8d 6e 70 ba
       -0.14717782 0.14820944 -0.14885512 -0.0009171747
000140 72 61 9d bd 29 99 fd 3b b9 bd 8b be ac 8a 95 bc
       -0.07684602 0.0077392054 -0.27293184 -0.0182546
000150 81 67 ef bd 89 0e 80 3d ea ff 76 3d 17 17 f0 bd
       -0.11689664 0.06252772 0.060302652 -0.11723154
000160 60 dd 57 bb 07 3a 6d be 06 8b 33 be 60 10 a6 bd
       -0.0032938346 -0.23166667 -0.17533502 -0.08108592
000170 40 14 a6 be a6 f1 95 bc f4 c6 80 be 9e 16 e9 bd
       -0.32437325 -0.018303704 -0.2515179 -0.11381267
000180 2b 8c a6 bb c9 51 4d bc 34 7d 28 be 8c ff 36 3e
       -0.0050826273 -0.012531706 -0.16454011 0.17870921
000190 f6 a6 c0 bd d1 3c 75 bb 20 ad d2 3d 13 c0 c7 3d
       -0.09406845 -0.0037420283 0.10286927 0.09753432
0001a0 66 8a 60 bd 13 a6 d1 bd 90 cc 10 be 9f df f0 bc
       -0.054819487 -0.10236754 -0.14140534 -0.029403506
0001b0 5d d5 49 be 57 ba 0d 3e 6b 8b 55 be da 6b 06 be
       -0.19710298 0.13840614 -0.20853965 -0.1312708
0001c0 8b 92 a3 be 7d b9 85 bd c7 73 02 bd 9e 61 c9 bd
       -0.3194774 -0.0652952 -0.031848695 -0.09833072
0001d0 a2 5a 6c be 9c d3 a3 be 67 d3 57 3d ee 75 1e be
       -0.23081449 -0.31997383 0.052691843 -0.15474674
0001e0 9a 5d 93 be 53 22 b7 bc 4d 63 1b be 2b ee 46 3e
       -0.2878235 -0.022355234 -0.15174599 0.19426791
0001f0 d6 fc 3a bd ba 79 07 be d8 3d 1b 3e b3 e1 f7 bd
       -0.04565128 -0.13230029 0.1516031 -0.121035956
000200 e9 83 e4 3c b4 4d 5e bd aa 48 f5 3c 4d 3b 1b be
       0.02789493 -0.054273322 0.029941875 -0.1515934
000210 3e 38 1f 3e 80 33 0e 3e 87 05 7b be fe 78 2e 3e
       0.15548798 0.13886833 -0.24513827 0.17038342
000220 0d 7a 1f be 05 70 6f bd 82 32 c4 bd 2a 6e 94 bd
       -0.15573902 -0.05845644 -0.09579946 -0.072475746
000230 f8 7f d7 bd b1 77 cd 3d 09 0d 9e 3d 05 76 3b be
       -0.10522455 0.10032595 0.0771733 -0.1830674
000240 ee f3 59 3e b3 af 76 3e 22 e3 10 bc ea 30 91 be
       0.21284458 0.24090461 -0.008843215 -0.2835763
000250 4e c7 bc 3d e6 52 40 bd 43 82 33 be 3d 3b 27 be
       0.09217702 -0.046954058 -0.1753016 -0.16331191
000260 b3 2a a1 3e 6d ee d1 3d ce d9 3a 3e 42 b0 e5 bd
       0.3147789 0.10250554 0.18247148 -0.11215259
000270 33 c9 0f 3e 24 a6 ed bb 20 4f e6 3d 7f c4 3d be
       0.14041595 -0.0072524715 0.11245561 -0.18531989
000280 15 2c eb 3d 1e 94 02 bc 99 14 a8 bd 8f a7 b1 bd
       0.11483017 -0.007969884 -0.08207054 -0.086745374
000290 84 73 4d 3d ec ab 0a 3e 76 bd 7d be 1c 5d 4e be
       0.050158992 0.13542145 -0.24779305 -0.20152706
0002a0 e3 bf 06 be 55 62 98 3d 5c d4 aa 3d a9 39 42 be
       -0.13159136 0.0744063 0.083412856 -0.18967308
0002b0 47 0b 38 3d bb 74 10 be 4f c4 3a 3e ce d7 eb 3d
       0.04493263 -0.14107029 0.18238948 0.11515771
0002c0 fd 00 a5 bd 11 42 1e 3e 7f 7e ec 3d 1b 90 80 be
       -0.08056829 0.1545489 0.11547565 -0.25109944
0002d0 7c 6c 3a bd fd 49 e4 3d e6 9b 51 be 3c e5 de bc
       -0.045513615 0.11146925 -0.20469627 -0.027208917
0002e0 c3 32 0e be 37 04 61 bd 17 6a e7 3d a6 39 87 be
       -0.13886552 -0.05493566 0.11299532 -0.2641117
0002f0 76 b7 33 3d 2e 36 16 3e 5a 1b 11 be a1 9a 15 bd
       0.043876134 0.14669105 -0.1417059 -0.03652442
000300 5b d0 5c 3d 75 2d e0 3d 34 5c eb bd fb f0 91 bd
       0.05390964 0.1094617 -0.11492196 -0.071260415
000310 d8 ba 3d be a0 4f d6 3b 6c 9c 4a 3e 46 f7 bf 3e
       -0.18528306 0.0065402538 0.19786233 0.37493342
000320 00 6d 4c 3e f3 a4 8f 3e 0c 15 11 be cc be 40 be
       0.19963455 0.28055534 -0.14168185 -0.18822783
000330 e3 1b 29 3d 4b f0 15 be 07 69 7b 3d 21 38 0a 3d
       0.04128636 -0.14642446 0.06137946 0.033744935
000340 0e a4 02 3e bd 9c 6b 3d 4d 69 9c 3d 19 38 05 3e
       0.12757894 0.057522524 0.07637272 0.13009681
000350 64 f6 9a 3d d4 44 c4 bc 80 9e 04 3e 3a a2 3b be
       0.075665265 -0.023958601 0.12951088 -0.18323603
000360 b7 07 8d 3d 00 ce 83 3d 33 fa c2 ba 2b dc f0 3c
       0.06886237 0.06435776 -0.001487559 0.02940186
000370 0b 94 24 bd 1c d5 86 be 75 9b d7 bc 79 e4 29 be
       -0.040180247 -0.26334465 -0.026319245 -0.16591062
000380 9a fe 0b be 83 9d d9 3d ad 83 30 be 65 00 38 be
       -0.13671342 0.10625746 -0.1723773 -0.179689
000390 5f 9f 36 be f2 73 42 be 23 1a 29 be 04 61 ce ba
       -0.17834233 -0.18989542 -0.16513877 -0.0015745466
0003a0 08 1f 5b 3e 16 76 d0 bd 5e 08 5d be 98 20 e3 3d
       0.21398556 -0.10178773 -0.21585223 0.11090201
0003b0 6b 03 2c be 43 3e 1a 3d 73 8c 5a bd 2c b7 a1 3d
       -0.16798179 0.037657034 -0.0533566 0.078962654
0003c0 14 1c cb 3d 4c 6f c4 bd 22 ab cc 3c 14 bd 53 be
       0.09917465 -0.09591541 0.024983946 -0.20677596
0003d0 1b db 5b 3e 39 b8 89 bd 9d 0c 37 be 19 e6 58 3d
       0.21470301 -0.06724591 -0.17875905 0.052953813
0003e0 8a 3f 97 3d 4b a4 25 bc 41 b2 ec 3d 96 89 08 3d
       0.07385166 -0.010109971 0.11557437 0.033334337
0003f0 8e 39 75 bd c5 de 4c 3e a3 49 c2 3d 06 1c b6 3c
       -0.05986934 0.20006855 0.09486701 0.02223016

fc3.bias f4 [64]
000000 52 bb b9 39 ca 3a 7b bb bd 30 48 3c 7b 52 41 3b
       0.00035425514 -0.0038334602 0.012218651 0.0029498625
000010 41 ed d0 3b c6 ef 88 bc c5 80 0b bd cc dc 38 3b
       0.006375939 -0.016715895 -0.03405835 0.0028207777
000020 88 9d c7 3b ee 96 d4 bb e9 b7 dc 3b 4a bf 96 bc
       0.0060917772 -0.006487719 0.006735791 -0.01840176
000030 b5 71 05 bb c9 1b b6 b9 47 c1 78 3c db 3e 1f 3c
       -0.0020361964 -0.00034734447 0.0151828 0.009719576
000040 1e 62 a1 3b e3 dd d5 bc a1 9d be ba 31 af 07 3c
       0.0049250266 -0.02610678 -0.0014542827 0.008281515
000050 ca c9 8d 3c 8f c5 3f ba 20 f7 67 3c b4 f4 a8 bc
       0.017308135 -0.00073155103 0.01415804 -0.020624496
000060 b3 66 57 3c d4 53 ae 3c 30 25 82 bb 0f be e2 bb
       0.013147044 0.021280207 -0.0039717183 -0.0069196294
000070 bd 13 35 3c f8 26 b8 3c 44 e8 17 bc 25 2d 78 3c
       0.011052069 0.02247952 -0.009271685 0.015147482
000080 d3 f6 15 3c f0 ad ee bb f0 a5 c7 bb 63 62 c8 3c
       0.009153086 -0.0072839186 -0.0060927793 0.024460977
000090 ba f1 d8 3c e5 6a 4a 3c a5 02 30 bc 46 1f 11 bc
       0.026482452 0.012354587 -0.010742818 -0.008857554
0000a0 96 b2 c5 bb 38 45 1e bc e1 77 8e bc 9f 0b 6c bb
       -0.006033252 -0.009660058 -0.017391147 -0.003601767
0000b0 66 e4 39 3c 5b a3 72 3b 64 ae 97 3c 06 f8 38 bc
       0.011345958 0.0037023637 0.018515773 -0.011289602
0000c0 51 a2 3e ba de fb b9 bc 5d 67 0b bc 09 dc a3 bc
       -0.0007272112 -0.022703107 -0.00850853 -0.020002382
0000d0 7f dd 85 3b 0c 87 52 bc aa 71 15 3c 5c 18 a6 bc
       0.0040852423 -0.0128495805 0.009121338 -0.020275287
0000e0 50 dd 75 b9 13 11 81 bc 1f 19 3e 3b 25 18 f3 3c
       -0.00023447466 -0.015755212 0.0029006673 0.029674599
0000f0 60 c5 da 3a 85 61 c0 3c 86 2c 0a bc 76 55 a7 3c
       0.0016690902 0.023484001 -0.008433467 0.020426493

fc4.weight f4 [23, 64]
000000 1a b1 c2 3e 39 f5 38 3e ec da 41 bd ca d2 8b bd
       0.38025743 0.18062295 -0.04732792 -0.06827314
000010 a2 3b 3d 3d fe cf 0a bf 2c 26 99 3e 3c e5 fc be
       0.04619945 -0.5422362 0.29911935 -0.49393642
000020 86 a6 b9 be 4b 2d 99 bd 68 63 48 be f7 bc 2a be
       -0.3625986 -0.07479342 -0.1956917 -0.16673647
000030 14 91 0a bf 73 30 08 3f 60 c3 03 bf db 66 77 be
       -0.5412762 0.5319893 -0.51469994 -0.2416033
000040 61 c6 99 be 85 c3 3d 3f 59 48 2e bf c5 91 3d bf
       -0.30034164 0.74126464 -0.68079144 -0.7405055
000050 ad 0f 0a bf 3a 2c 85 bd f9 28 e1 be f9 70 ba bd
       -0.5393017 -0.06502576 -0.43976572 -0.09103579
000060 83 c8 33 be 9f 8b 59 3e d0 a1 39 bd 9a f9 f0 be
       -0.17556958 0.21244667 -0.045320332 -0.4706543
000070 7c c2 46 bf 97 8b cd 3d af 40 40 be 24 8f 44 be
       -0.7764051 0.1003639 -0.18774675 -0.19195229
000080 ba c2 99 3c e0 40 85 3e 06 b8 c1 bc f8 be 03 bf
       0.01876961 0.26026058 -0.02364732 -0.5146327
000090 0c c3 2b 3e d4 2c 36 be 73 e3 63 3c 9a 08 dc be
       0.16773623 -0.17790538 0.013909209 -0.42975312
0000a0 ad 21 26 be 23 b9 43 3e 39 92 5c be 2d f7 8b be
       -0.16223784 0.19113593 -0.21540155 -0.27337018
0000b0 a3 40 80 bd fb e4 10 bf 79 c1 05 3f 4e 4b 86 bd
       -0.062623285 -0.56599396 0.5224834 -0.06557332
0000c0 a9 ef 4f 3e f7 0c 43 be 74 bd 8e bc 98 8b 2b bf
       0.20306267 -0.19047914 -0.017424323 -0.6700988
0000d0 fd f9 41 3d d8 9a 16 bf a3 5c a0 be 40 1e 09 bf
       0.047357548 -0.5883002 -0.31320676 -0.5356178
0000e0 0d 45 43 be 53 bb bd 3e f1 ad a0 3e 4b 19 ad be
       -0.1906931 0.3705698 0.31382707 -0.3380836
0000f0 69 db 4a 3e 7c 74 eb 3e c1 b7 ca 3d 57 aa 9f 3e
       0.19810261 0.45987308 0.098983295 0.31184646
000100 c5 d3 99 be d3 72 1c 3e b5 9f 79 3e b1 53 bf bd
       -0.3004438 0.15278177 0.2437733 -0.09342135
000110 ae e7 f6 bd e9 45 e7 bd 22 f9 70 3c 28 01 00 bd
       -0.12055908 -0.11292631 0.014707835 -0.031251103
000120 4a 0d f1 3d 17 73 18 be 84 4b c4 be da df e4 bc
       0.11770113 -0.14887653 -0.38338864 -0.027938772
000130 9b fd 02 be 30 2e 49 3c f0 c8 0e be c0 6d 8e be
       -0.12792055 0.012279078 -0.13943839 -0.27818108
000140 92 c9 5c be 2f 3a 9d 3c ab a6 10 be 0f cd db 3d
       -0.21561268 0.019192783 -0.14126079 0.10732471
000150 f9 a3 72 be da 54 60 bc a3 af a7 be d5 b6 93 be
       -0.23695363 -0.013692105 -0.32751188 -0.28850427
000160 79 89 99 bc 03 6a 8c 3e 64 3f d8 bd 2e db a5 3d
       -0.01874231 0.2742463 -0.10558966 0.08098446
000170 b2 0a e4 bc a0 ea 6d 3e 44 f4 96 be b6 b4 39 be
       -0.027837131 0.23234034 -0.29483235 -0.18135342
000180 8d b4 44 3d 68 af e3 3d f2 fc 15 3e d6 b0 c4 bd
       0.04802375 0.111174405 0.14647272 -0.09604041
000190 ef e4 27 3e 5b dd 50 be 96 9a d0 bd 20 f9 7d 3d
       0.16395925 -0.2039694 -0.10185735 0.062005162
0001a0 f6 3d f9 bd 0d 94 09 3e f6 f9 1f be d3 51 0c 3e
       -0.12170021 0.13435383 -0.15622696 0.13703088
0001b0 e4 d0 fa bd 5b 45 a1 be 4e 85 8f 3d 98 e5 a9 bd
       -0.12246874 -0.31498227 0.07007848 -0.08295745
0001c0 0d c2 01 3c fb df ac bd be 48 9d bc c3 81 76 3d
       0.0079198005 -0.084411584 -0.019199725 0.060182344
0001d0 61 6f 9a be be dd d5 bd 17 58 17 3e 45 bd 84 3c
       -0.301631 -0.104426846 0.14779697 0.016203532
0001e0 31 0e 31 3e 11 a8 66 bd 1a d0 6a be b6 40 96 3e
       0.1729057 -0.056312624 -0.22930947 0.29346246
0001f0 f1 e2 b2 bd 9b 9d f4 bb 44 d2 9b bd 43 7f db be
       -0.08734692 -0.007465077 -0.07608464 -0.4287053
000200 04 5e 57 3e 85 bc 91 3e ef b0 0c be b2 87 0d 3e
       0.21031958 0.2846414 -0.1373937 0.13821295
000210 05 bb 2c be 23 fb 94 3e cc 78 07 bf bc 1b b0 be
       -0.16868217 0.29097852 -0.52918696 -0.3439616
000220 41 e7 f5 be e0 4a db 3d a9 a6 83 bd 81 86 10 3e
       -0.48027995 0.10707641 -0.06428272 0.14113809
000230 a7 37 ad be 02 03 20 be 16 50 5b be da 73 88 3e
       -0.33831522 -0.15626147 -0.21417269 0.26650888
000240 4d 80 39 3c 46 58 e1 bd 8b 35 e4 be 5b 43 9c be
       0.011322093 -0.11003165 -0.445721 -0.30520138
000250 03 c9 96 3e 60 28 24 be a5 75 07 bd 54 0d 79 3d
       0.29450235 -0.16031027 -0.03307118 0.060803726
000260 88 08 93 bd 45 ee 18 be 8a e2 e2 3d de 28 72 3d
       -0.071793616 -0.14934643 0.11078365 0.059121005
000270 c3 f5 3f 3e fb b4 0f be 06 27 a1 3e 1a 91 b0 be
       0.18746094 -0.14033882 0.31475085 -0.34485704
000280 55 ef 9e bd 7e 25 53 3d 28 fe 98 be c0 9e 3b be
       -0.07760493 0.051549427 -0.29881406 -0.18322277
000290 f0 8a 68 be 42 42 24 be 61 b6 66 3e a4 db 96 be
       -0.2270925 -0.160409 0.2253051 -0.29464447
0002a0 27 0d 94 bd c1 ac 76 3e bf d3 bb 3d b0 82 99 be
       -0.07229071 0.24089338 0.09171247 -0.2998252
0002b0 26 56 81 be a6 d4 e8 3d ab 2c 8a be 67 84 99 be
       -0.2526104 0.113686845 -0.26987204 -0.29983827
0002c0 57 a6 13 bf d7 50 3d be d5 50 79 3e 59 d8 49 3e
       -0.5767569 -0.18487869 0.24347241 0.19711436
0002d0 68 34 47 3e 8b 94 7c bd af 20 3e 3e 82 5f 48 3e
       0.19453585 -0.0616651 0.18567155 0.19567683
0002e0 2e 0e a2 be 9e d1 e2 be 37 d5 fb be c7 b8 57 3e
       -0.31651443 -0.4430055 -0.49186108 0.2106658
0002f0 c3 c4 f3 3d 20 18 93 3e d3 a3 4e be 31 92 f7 3d
       0.11902764 0.28729343 -0.20179681 0.12088431
000300 84 30 4a 3e 70 e0 2f 3c e7 16 0d 3e e3 5c 00 bd
       0.1974507 0.010734662 0.13778268 -0.031338584
000310 c8 b8 8b 3e 21 2a 1a 3e b2 ce 92 bb 83 7a 31 3e
       0.27289414 0.15055133 -0.0044802064 0.17331891
000320 8d b8 4d be 6d 83 d4 3e 7c 6f 21 bd 69 7c ab 3d
       -0.20089932 0.4150652 -0.03941296 0.08373339
000330 18 9f e9 bd 1a 24 13 bf 77 05 42 be aa 31 01 be
       -0.11407298 -0.5747696 -0.18947397 -0.12616602
000340 5c ad 86 bd a2 b4 50 3f 66 f6 fa 3d 63 29 52 be
       -0.065760344 0.81525624 0.12254028 -0.205236
000350 d4 34 f9 3c 6b ca 3f be 99 e7 52 3d f4 5e b1 bd
       0.030420698 -0.1872956 0.0514904 -0.08660689
000360 67 f1 33 bd a4 43 4b be 80 31 01 be c3 dd a1 bd
       -0.04393139 -0.19850022 -0.12616539 -0.07903626
000370 15 34 44 3e 28 f8 32 3e 66 f7 01 bd d2 f2 8b ba
       0.19160493 0.17477477 -0.03173008 -0.0010677224
000380 bc fb 38 3e 32 d5 f4 3e 23 1c 87 be 09 10 90 3d
       0.18064779 0.47818905 -0.26388654 0.070343085
000390 80 c3 0d 3e 05 18 ba 3d 47 30 f0 3c 45 70 1e be
       0.13844109 0.090866126 0.029319895 -0.15472515
0003a0 c7 5b 55 3e b8 88 19 be ae be d5 be e6 9a 14 be
       0.20835792 -0.1499356 -0.4174704 -0.14512214
0003b0 de 6f 9e be 2b 79 2e bd 11 5a 06 3f 8f 26 8d bd
       -0.30944723 -0.042596024 0.5248118 -0.0689212
0003c0 ff 5c dd 3e 47 7c 63 be 3a 5f 76 3e 62 89 34 3e
       0.43235013 -0.22215377 0.24059764 0.17630532
0003d0 e9 74 01 3e 28 32 86 be 98 75 6c 3e 6c 8f cb 3d
       0.12642254 -0.2621014 0.23091733 0.09939465
0003e0 af 87 a5 bd dd d5 bf 3e c4 9c 9b be ae ba 86 be
       -0.0808252 0.37467852 -0.3039304 -0.263143
0003f0 94 9c 91 be 3d ae 35 be fd a2 b2 be 5e 09 be be
       -0.28439772 -0.17742248 -0.34889975 -0.37116522

fc4.bias f4 [23]
000000 59 62 36 be 1d 60 a3 3d 6a 4b 74 bb 9e 79 00 3e
       -0.17810954 0.079773165 -0.0037276396 0.12546393
000010 e3 71 ff 3a 43 aa 3b bc 52 08 ae be 95 77 d1 bc
       0.0019488897 -0.011454168 -0.33990723 -0.025569716
000020 d4 8d ca 3c 90 5c 60 bd dd 07 96 bd a2 81 3b bc
       0.024725832 -0.054775774 -0.073257186 -0.011444481
000030 3b 60 0e 3c 5e 60 2a be 75 fa 28 be ba 93 58 bd
       0.008689935 -0.16638324 -0.16501792 -0.052875258
000040 2b 86 af bd 90 1d ed 3b a2 a2 1b be ec 2d 77 be
       -0.085705124 0.00723619 -0.15198758 -0.24138612
000050 62 d9 82 3d 8f 96 04 3e 0d 6b 9c 3d
       0.06389119 0.12948059 0.07637606

bn1.weight f4 [256]
000000 6f 8c 76 3f b8 70 6e 3f c6 7c 7d 3f d9 41 87 3f
       0.96308035 0.93140745 0.99018514 1.056697
000010 9f 51 7e 3f 81 77 6c 3f 80 0a 6c 3f 61 a3 76 3f
       0.99343294 0.9236985 0.9220352 0.96343046
000020 8e 24 88 3f d8 76 87 3f 6d 37 70 3f 30 0a 7d 3f
       1.0636156 1.0583143 0.93834573 0.9884367
000030 99 16 7f 3f a9 ab 7d 3f 04 50 84 3f f7 21 7a 3f
       0.99643856 0.9909006 1.0336919 0.97708076
000040 ba 4a 80 3f 31 5d 75 3f 40 37 78 3f ab 51 77 3f
       1.0022805 0.95845324 0.96959305 0.9660899
000050 f5 5c 87 3f 57 10 7c 3f 30 52 82 3f 95 95 72 3f
       1.0575243 0.9846243 1.0181332 0.94759494
000060 7e 96 7b 3f 4d 3b 6e 3f a4 46 80 3f 1e 93 6c 3f
       0.9827651 0.93059236 1.0021558 0.92411983
000070 03 d2 92 3f 32 8a 76 3f 07 68 81 3f 71 ee 6e 3f
       1.147034 0.9630462 1.0109872 0.9333258
000080 8e b3 75 3f 2f a4 74 3f 4c cf 7a 3f 57 d4 84 3f
       0.95977104 0.95563024 0.9797256 1.0377301
000090 06 18 82 3f ba 74 8c 3f 96 0a 7a 3f 8d ed 6c 3f
       1.0163581 1.0973122 0.976724 0.92549974
0000a0 1b 7a 85 3f c5 c0 7e 3f 16 97 7c 3f 38 97 5b 3f
       1.0427889 0.9951289 0.9866804 0.85777617
0000b0 e3 01 7c 3f 1f 27 80 3f 58 60 71 3f c3 af 8e 3f
       0.9844038 1.0011939 0.94287634 1.1147388
0000c0 04 cc 71 3f aa 07 71 3f 80 6c 82 3f 90 a5 78 3f
       0.9445193 0.9415232 1.0189362 0.9712763
0000d0 dc 00 77 3f 94 ff 6a 3f ab ac 84 3f 60 cf 7a 3f
       0.96485686 0.9179623 1.0365194 0.9797268
0000e0 7c 38 6d 3f e5 62 83 3f 1b 16 85 3f a6 54 7d 3f
       0.92664313 1.0264555 1.0397371 0.9895729
0000f0 07 17 6b 3f 42 03 81 3f 84 c6 6a 3f b4 0f 6a 3f
       0.9183201 1.0079119 0.9170916 0.9143021
000100 ef 4b 80 3f bc 7f 86 3f be 78 88 3f 99 dc 78 3f
       1.0023173 1.0507731 1.0661848 0.97211605
000110 47 7c 81 3f f2 d8 7a 3f 1f ab 70 3f 2d 71 83 3f
       1.0116051 0.9798728 0.9401111 1.0268914
000120 71 17 87 3f 99 f9 73 3f af 17 7d 3f 36 bb 61 3f
       1.0554029 0.9530273 0.98864263 0.88176286
000130 3c bb 86 3f 7f f2 6f 3f 30 1a 72 3f f0 83 6c 3f
       1.0525889 0.93729395 0.9457121 0.9238882
000140 ad ef 5f 3f 21 31 8a 3f fc 35 80 3f fa b4 65 3f
       0.8747509 1.0796243 1.0016475 0.89729273
000150 d9 1d 74 3f 99 38 6e 3f fc c5 7d 3f 9d 94 6f 3f
       0.95358044 0.9305511 0.99130225 0.9358614
000160 24 95 83 3f 36 58 7f 3f 09 4e 85 3f 71 55 80 3f
       1.0279889 0.99743974 1.041444 1.0026075
000170 83 d0 61 3f 62 48 6d 3f 5c 3b 82 3f 07 68 6c 3f
       0.8820879 0.9268857 1.0174365 0.92346233
000180 e3 d6 78 3f 81 a0 96 3f 8a bd 78 3f 34 f2 6c 3f
       0.9720289 1.1767732 0.97164214 0.9255707
000190 27 d0 73 3f 80 0e 81 3f f7 3a 81 3f 60 2f 78 3f
       0.9523949 1.008255 1.009612 0.9694729
0001a0 97 e1 66 3f e6 7f 74 3f 7c 74 81 3f c2 49 75 3f
       0.9018797 0.9550766 1.0113673 0.9581567
0001b0 9c cb 57 3f b3 d4 68 3f f7 c5 51 3f 4f f8 8e 3f
       0.8429506 0.90949553 0.81942695 1.1169528
0001c0 25 64 6a 3f d3 7e 68 3f ee c8 69 3f c3 ed 84 3f
       0.9155906 0.9081852 0.9132222 1.0385059
0001d0 c9 8c 73 3f 4a f8 87 3f bd d3 70 3f 3b 2e 79 3f
       0.95136696 1.0622647 0.94073087 0.9733617
0001e0 e6 ca 71 3f 83 79 54 3f 07 5c 84 3f cd f3 65 3f
       0.94450223 0.8299791 1.0340585 0.89825135
0001f0 f1 0b 96 3f 10 09 77 3f 89 82 74 3f c1 a0 90 3f
       1.1722394 0.96498203 0.9551168 1.1299058
000200 20 b9 86 3f 97 eb 81 3f a9 bb 74 3f 15 cf 7c 3f
       1.0525246 1.0150021 0.95598847 0.9875348
000210 7d db 78 3f 35 83 68 3f 58 1c 6f 3f 53 18 6b 3f
       0.9720991 0.90825206 0.93402624 0.9183399
000220 e0 b8 75 3f 74 97 7a 3f 5b e7 7a 3f 1a 0c 7b 3f
       0.9598522 0.9788735 0.9800927 0.9806534
000230 97 96 78 3f 4c ba 6e 3f 3b 5e 94 3f 3e 72 78 3f
       0.9710478 0.93253016 1.1591257 0.9704932
000240 a9 a8 81 3f 0e 6e 7b 3f ad cc 73 3f 1c 75 80 3f
       1.0129596 0.98214805 0.95234185 1.0035739
000250 a1 f5 7e 3f cb a7 64 3f ac d3 68 3f 94 e8 77 3f
       0.9959355 0.8931853 0.90947986 0.9683926
000260 f8 c4 7c 3f 4b 17 79 3f 51 d5 73 3f b3 38 73 3f
       0.9873805 0.9730117 0.9524737 0.9500839
000270 0e 50 71 3f 44 ed 71 3f 11 de 71 3f 2e 80 86 3f
       0.9426278 0.94502664 0.9447947 1.0507867
000280 75 b2 6c 3f 42 9d 8b 3f 33 cb 84 3f 1a 24 68 3f
       0.92459804 1.0907366 1.0374511 0.90680087
000290 94 42 6f 3f 64 d0 7d 3f 7f 4c 79 3f a8 14 7c 3f
       0.93460965 0.99146104 0.9738235 0.9846902
0002a0 5d c3 7a 3f 8c 30 7f 3f 44 7b 7a 3f 05 63 81 3f
       0.9795435 0.9968345 0.9784434 1.0108343
0002b0 dd ca 7c 3f 06 9e 68 3f 50 56 76 3f ca c8 57 3f
       0.98747045 0.90866125 0.9622545 0.84290755
0002c0 1c 3c 67 3f e6 f9 83 3f 48 f1 72 3f a5 47 88 3f
       0.90326095 1.0310638 0.94899416 1.0646864
0002d0 27 2e 83 3f b1 5a 73 3f a7 af 7d 3f 89 00 6e 3f
       1.024846 0.9506026 0.9909615 0.92969567
0002e0 7c 1c 68 3f 0f 4a 80 3f 12 6b 72 3f 20 6e 81 3f
       0.90668464 1.0022601 0.94694626 1.0111732
0002f0 15 8f 71 3f 25 35 83 3f 59 32 87 3f 2a 4b 6e 3f
       0.9435895 1.0250593 1.056224 0.9308344
000300 64 9b 75 3f be 9d 7d 3f 20 22 77 3f 6f 3c 88 3f
       0.9594023 0.9906882 0.96536446 1.0643443
000310 cf 0d 87 3f 17 71 79 3f c0 ab 6d 3f c1 46 80 3f
       1.0551089 0.97438186 0.92840195 1.0021592
000320 34 2a 7d 3f d1 1e 68 3f ec 3f 74 3f 0b 7c 7c 3f
       0.9889252 0.9067202 0.9541004 0.98626775
000330 c8 dd 8f 3f 0b 16 70 3f 63 79 7f 3f fc f0 65 3f
       1.1239557 0.93783635 0.99794596 0.8982084
000340 0f 56 66 3f 45 40 7f 3f c1 85 61 3f 28 b2 81 3f
       0.89975065 0.9970744 0.8809472 1.0132494
000350 af d9 6e 3f 1b 5f 80 3f a7 89 5f 3f 53 db 6a 3f
       0.9330091 1.0029024 0.87319416 0.9174091
000360 51 10 77 3f 70 12 7e 3f c2 df 86 3f 5b 15 6e 3f
       0.9650927 0.99246883 1.0537035 0.93001336
000370 e8 23 79 3f ee 9c 89 3f 6e 93 6a 3f bf 80 83 3f
       0.97320414 1.0751016 0.9163121 1.0273665
000380 e4 c0 84 3f c0 08 68 3f 62 97 7f 3f 66 1a 7d 3f
       1.0371366 0.9063835 0.99840367 0.98868406
000390 e6 99 83 3f 2b f4 81 3f f4 07 7d 3f dd ac 8d 3f
       1.0281341 1.0152639 0.9884026 1.1068379
0003a0 48 3f 64 3f 59 96 6c 3f 86 7f 81 3f cc 77 79 3f
       0.8915906 0.9241691 1.0117042 0.9744842
0003b0 e0 5f 6c 3f b2 42 8e 3f 9c a0 7b 3f f9 f3 87 3f
       0.92333794 1.1114104 0.98291945 1.062133
0003c0 37 63 7d 3f 89 03 7d 3f f0 12 8c 3f d8 cf 6a 3f
       0.98979515 0.9883352 1.0943279 0.91723394
0003d0 4b 57 92 3f 08 0c 84 3f ce 07 7c 3f 48 f0 81 3f
       1.143289 1.0316172 0.9844941 1.0151453
0003e0 83 71 63 3f 2b b5 5d 3f a1 2b 6a 3f 13 49 67 3f
       0.8884508 0.86604565 0.9147282 0.9034588
0003f0 ba 12 76 3f 72 93 72 3f ba 55 5b 3f 4b b5 78 3f
       0.96122324 0.94756234 0.85677683 0.9715163
