Parte II/TEC_AD_TP2/models/fcn_best_run_03_seed_33.pt (torch, 229038 bytes, 20 tensors)

fc1.weight f4 [256, 41]
000000 c3 5d 22 be cc 92 b3 3d 20 f0 6e be 8f d1 b6 be
       -0.1585608 0.08768234 -0.23333788 -0.35706756
000010 87 84 fd be eb f0 89 3e 66 d8 5d bd 50 43 82 3d
       -0.49515173 0.26941618 -0.05416145 0.06360495
000020 39 1e 20 bf ff 7c 01 3f fb 56 89 be cd 70 06 3e
       -0.62546116 0.50581354 -0.26824173 0.13128968
000030 1a 0e da 3d a9 29 45 be c4 af 97 3d 5e 20 9c 3d
       0.10647221 -0.19254173 0.074065715 0.07623361
000040 ab da 4b 3e e5 4d 95 be 30 fe cb bd 1a a3 9b bd
       0.19907634 -0.2916099 -0.09960592 -0.075994685
000050 0f 4d 98 3e 1e 44 bf 3d ee e5 db 3d aa 3f 67 be
       0.2974629 0.09339164 0.10737215 -0.2258288
000060 11 de 95 3d 3f 9e 63 bc 20 16 1a be 26 32 bc 3e
       0.073177464 -0.013892709 -0.15047503 0.3675701
000070 52 6a 7a bb 45 02 84 3e 33 f2 da 3e d4 96 95 3c
       -0.0038210345 0.25782982 0.42762908 0.018260397
000080 12 d9 ed 3e 5c 78 26 bf f6 fc 85 3e 58 91 11 3e
       0.46454674 -0.65027404 0.26169556 0.142156
000090 77 4b ad 3e 58 9e 83 3e 02 1d 19 be cf b9 a7 bd
       0.33846638 0.25706744 -0.14952472 -0.08189737
0000a0 d3 27 be 3d e2 2b ba bd f7 55 2d be 94 9c 81 bd
       0.092849396 -0.09090401 -0.16927324 -0.06328693
0000b0 25 1f 1b 3e 0e 6e 72 3e 0d bf d5 3c 15 0d ac be
       0.151486 0.23674795 0.026092077 -0.3360373
0000c0 df 4c 2f be 1d 59 7b 3e 05 1f 71 3e 5b 0a a4 be
       -0.17119168 0.24545713 0.2354699 -0.3203915
0000d0 7a 52 c6 3b 47 61 7c 3e 9e 46 42 3e 14 b5 90 3e
       0.0060523124 0.24646483 0.18972251 0.28263152
0000e0 04 9f 80 3e a8 74 b2 bd 65 83 34 be bd 94 7d 3e
       0.2512132 -0.08713657 -0.17628248 0.2476377
0000f0 09 98 08 3e 05 50 a3 bd 5c 46 1d 3e 19 2b 70 be
       0.13339247 -0.07974247 0.15358871 -0.2345394
000100 a8 72 a9 be 8d d8 69 bd 62 f1 c5 be 08 4d 95 bd
       -0.33095288 -0.057091285 -0.38660723 -0.07290083
000110 3a b5 8a 3e ef e2 c5 be e3 a4 5a 3e 6f c6 84 3e
       0.2709139 -0.386497 0.21351962 0.25932643
000120 91 9f ba 3d 21 39 71 3e c8 7f ff be 8d c7 e0 bd
       0.09112466 0.23556949 -0.49902177 -0.10975561
000130 e9 99 da 3d 5a 46 5e 3e 41 db c3 bd f3 4e 6a be
       0.10673887 0.21706524 -0.09563304 -0.22881679
000140 b4 fa 02 bc 98 c7 0f be 64 7b a2 bd 4d f2 ad be
       -0.007994343 -0.14040983 -0.07933691 -0.33973923
000150 93 ed 36 be 52 6a e5 bc e5 19 90 be b3 36 e5 bd
       -0.17864065 -0.028004799 -0.28144756 -0.11192074
000160 0c 6f 05 3f 5d b2 70 3e 35 71 48 3e c3 ab 08 bc
       0.5212257 0.2350554 0.19574435 -0.008341732
000170 89 f8 23 3d 29 46 29 be 18 96 c0 bd ad 12 99 3e
       0.040031943 -0.1653067 -0.09403628 0.2989706
000180 e8 9c 15 bd 0c a6 a8 bc 5a dc 71 3e 2e d7 ff 3b
       -0.03652659 -0.02058699 0.23619214 0.007807634
000190 69 08 6a 3e f6 8b 7b bd 69 f3 83 3e a5 e4 51 be
       0.2285477 -0.061412774 0.25771645 -0.20497377
0001a0 74 df 98 be b5 db 65 3e 0d df 57 be 09 87 bb be
       -0.2985798 0.22447093 -0.21081181 -0.3662646
0001b0 9f ee ce 3e 8a 7b e9 be 24 55 6c be 31 69 76 be
       0.40416428 -0.45602065 -0.23079354 -0.24063565
0001c0 0c bb 68 bd b9 0d 66 3d 73 62 03 3f e4 7a 60 be
       -0.056819007 0.05616543 0.51322097 -0.21921879
0001d0 96 45 69 3c b5 1f 33 be a1 0f 55 be df fd 80 3c
       0.014237782 -0.17492564 -0.20806743 0.015746055
0001e0 a6 57 30 bc 97 df 2b 3e 77 16 af be 2d 68 17 3e
       -0.0107630845 0.16784512 -0.34196827 0.14785834
0001f0 d6 64 ea 3c c4 67 2a be 8a 15 8e be 55 51 f1 3e
       0.028612535 -0.16641146 -0.27750808 0.47132364
000200 5e 22 d7 bd 9a 1e 98 3e 4a b1 60 3d 01 43 2b 3f
       -0.10504602 0.29710847 0.054856576 0.66899115
000210 e0 0f a2 bd 69 e7 81 3d ef 7d 23 be 1f 27 03 3e
       -0.07913184 0.06342966 -0.15966009 0.12807892
000220 8a 4a d9 3c fb 78 09 bd f6 b8 2a be d9 26 b9 bd
       0.0265248 -0.03356264 -0.1667212 -0.09040613
000230 55 c4 95 bd 76 de de bc 4a 41 e0 3e 67 99 01 3c
       -0.07312838 -0.027205687 0.43799812 0.007910109
000240 f5 11 0e 3e f3 9e 41 be d0 39 00 3e d8 ea f7 bb
       0.13874038 -0.1890829 0.12522054 -0.0075658374
000250 7a 62 cc be 71 9f 68 3e 69 5c a6 be da 2a 9e 3e
       -0.39918882 0.22717072 -0.32492378 0.30892068
000260 1c 06 46 be d4 50 6a 3e 79 74 8e be 20 63 fb 3e
       -0.19338268 0.22882396 -0.27823237 0.49099064
000270 ac 67 f5 bd ee 68 df 3e 4e 46 ce bd c3 28 98 be
       -0.119826645 0.43634742 -0.10072003 -0.297186
000280 c4 1f 7a 3d 4a 38 4f 3e 92 97 f9 bb 23 f2 30 bd
       0.06106545 0.20236316 -0.0076169455 -0.04319967
000290 13 fe ac bc 0d 8f 8b be 9b 97 d4 bd a6 d3 d7 be
       -0.021117246 -0.27257577 -0.10380479 -0.42153662
0002a0 08 5c c0 3e 6a 3c 02 be 7f 9c 38 be a1 5b a3 bb
       0.37570214 -0.12718359 -0.18028449 -0.0049852883
0002b0 d2 2d 0d bf f2 09 a4 3e 24 38 52 be 40 81 e3 bd
       -0.5514804 0.32038838 -0.20529228 -0.11108637
0002c0 52 f4 ce 3d cb b4 2a 3e 41 e8 0d 3e d8 56 06 be
       0.10105194 0.1667053 0.13858129 -0.13119066
0002d0 b6 d3 e3 3d 86 dc 7c 3e 7e 68 68 3e b5 bc c5 3d
       0.11124365 0.24693498 0.2269611 0.09655134
0002e0 4f e0 67 be 01 d4 9e 3e 10 cc 46 bd 34 c1 22 bf
       -0.2264416 0.3102112 -0.048534453 -0.63576055
0002f0 5a 11 d0 be e1 6c 7a 3d d9 89 28 bf f5 a3 fa 3c
       -0.40638238 0.06113899 -0.6583534 0.030595759
000300 80 24 36 3d b2 87 90 3e 26 aa a6 3c fc 87 bc be
       0.044468403 0.28228527 0.020344805 -0.36822498
000310 8b 94 23 be cb dd e1 be 29 0c 1a be 35 b2 4d 3c
       -0.15974633 -0.44114527 -0.15043701 0.012554695
000320 94 10 e5 bd a8 44 0f bd d7 4f b4 3e 66 d3 5f 3e
       -0.11184803 -0.034977585 0.35217163 0.21857986
000330 dc 84 89 3e cc 23 ee 3d 84 9d a4 bb ea 5e 04 3e
       0.26859176 0.116279215 -0.00502366 0.12926832
000340 8e 1f c4 3d f4 30 74 be 14 d4 a8 bc 7a 19 14 3b
       0.09576331 -0.23846799 -0.02060894 0.0022598193
000350 2d 59 c4 bc 31 2f 45 3e 79 28 87 3e 26 c6 35 be
       -0.023968304 0.19256283 0.26398066 -0.17751369
000360 0f b4 9c bc bf ba 99 be 3a 2d 63 3e ac 94 5f 3d
       -0.019128827 -0.30025288 0.22185221 0.054585144
000370 b8 f9 34 be 5e 68 93 be dd e5 88 3e b0 1e 50 3c
       -0.17673385 -0.28790563 0.26737872 0.012702629
000380 c2 45 41 3e 66 ce cc be 45 77 b4 3e 67 f3 00 3f
       0.18874267 -0.4000122 0.35247245 0.503714
000390 80 8b 9a 3c 69 0c 86 3e d0 cf e9 bc 09 b0 a7 be
       0.018865347 0.26181343 -0.028541476 -0.32751492
0003a0 72 fa e8 bc 90 9d 3e be 63 f9 b7 3d 35 e8 10 3e
       -0.028439734 -0.18614793 0.089831136 0.1415108
0003b0 a2 2e 75 3e 78 6b b2 3e dd 31 e3 bb 8b 9e d3 3e
       0.2394357 0.34847617 -0.0069334344 0.41331896
0003c0 f9 11 c5 3e 8e 93 52 3d 70 9d 01 3f da 5b 50 be
       0.38490275 0.05141025 0.50630856 -0.20347539
0003d0 bb f2 ee 3d 85 d1 a8 be 68 f5 19 3e 34 b5 e9 be
       0.11667391 -0.3297235 0.15035021 -0.4564606
0003e0 f2 62 02 3d 05 8f 50 3e c9 39 53 be de 00 e8 3d
       0.031832643 0.20367058 -0.20627512 0.113282904
0003f0 ca 04 83 3d c6 08 30 3d ec bd 84 bd 7c f3 9d be
       0.06397398 0.042977117 -0.06481537 -0.30849826

fc1.bias f4 [256]
000000 5c ab 02 3d 2b bd 6f 3c f0 b6 49 38 53 9d 08 3d
       0.031901702 0.0146325035 4.809251e-05 0.03335316
000010 10 81 5f bb 8a 0f dc ba 2f 12 fe 3b 14 3e af bc
       -0.0034104027 -0.0016789299 0.0077536325 -0.021391906
000020 4b 82 2b ba f7 0a ab 3c 29 04 f5 bb d0 c5 9f 3b
       -0.00065425475 0.020879252 -0.0074773026 0.004875876
000030 7e 17 16 bc 3b b1 1c 3c 92 30 83 3a d2 52 93 bc
       -0.009160874 0.009563739 0.0010008982 -0.017983828
000040 8d a3 7d b8 fa 9e 2d 3c 01 6d 13 bc c6 56 c0 3a
       -6.047222e-05 0.010596985 -0.0089981565 0.0014674298
000050 f0 9b 28 bc e4 6c 6a bb 4c d4 6b bd bf b5 2e bc
       -0.010291085 -0.003577047 -0.05757551 -0.010663449
000060 7d 02 76 bb bc 5b 22 3b 7e 8f e0 bb ff 58 b5 bb
       -0.0037538104 0.0024773916 -0.006853043 -0.005534291
000070 ce e0 20 bc 1e 0a 92 bc 06 7e 52 3c 48 19 0d 3c
       -0.009819223 -0.01782709 0.012847429 0.008611985
000080 4a d0 fb bb 87 f0 1d bb 32 c9 c6 3c fc 10 0f bc
       -0.007684742 -0.0024099664 0.02426586 -0.008732077
000090 26 b1 c8 3a d1 dc 91 3b 18 3c a3 3b b7 3f 83 ba
       0.0015311583 0.004451372 0.004981529 -0.0010013495
0000a0 44 9b 35 bc f2 17 a9 bb fc 47 b3 ba c4 13 ca bb
       -0.0110843815 -0.005160325 -0.0013678069 -0.006166907
0000b0 ed 64 13 3b 38 27 9e bb aa 8b 59 bc 9f ea dd ba
       0.0022490576 -0.0048264526 -0.013277927 -0.0016930884
0000c0 52 18 e5 bb 1f 62 98 bc e5 4b 47 38 1f e8 71 bb
       -0.0069914246 -0.018601475 4.751598e-05 -0.0036912037
0000d0 68 8c ac bb 8d 6f b5 3a 70 5b a3 3b b4 8b 5e 3c
       -0.005265761 0.0013842449 0.0049852654 0.0135831125
0000e0 16 0b 1b bb 8b 19 b5 bb b4 3b 47 bb 15 de ef 3a
       -0.002365773 -0.0055267266 -0.0030400576 0.0018300439
0000f0 86 7b 9c bc 68 e4 f0 bc 3b 7e 39 bc 78 69 c9 3c
       -0.01910187 -0.029405788 -0.0113216 0.024586424
000100 c9 e2 89 3a bb a5 2a 3c c8 26 46 bc e5 7d 3e 3c
       0.0010519858 0.01041549 -0.012094207 0.011626695
000110 b9 cd c5 bc 63 47 33 ba f4 0d 7c bb 24 93 7d bd
       -0.024145948 -0.00068389456 -0.0038460465 -0.061907902
000120 89 93 82 3c a6 f8 67 bc 8e 97 a4 bc e3 f8 22 bb
       0.01593949 -0.0141584035 -0.020091798 -0.0024867586
000130 36 a3 f3 bc cb 82 dd 3b ab de 27 bc 2c 25 d3 bb
       -0.029740911 0.0067599765 -0.010245959 -0.00644364
000140 7a 38 e0 3a 79 a0 ab 3b 0a 3d 89 3c b1 d1 a6 3b
       0.0017106675 0.0052376357 0.016752739 0.005090915
000150 29 25 80 bb e0 91 d6 bc e2 08 95 bb 3e b1 86 bb
       -0.00391068 -0.026192605 -0.004548178 -0.0041104844
000160 b9 04 83 3c 4b 59 4a 3c d8 f4 d5 3b 58 56 7c 3b
       0.015993463 0.012350391 0.006529432 0.0038503613
000170 85 94 13 3b f2 f7 be 3c 93 2d 5e 3a 00 70 04 3c
       0.0022518944 0.023311589 0.0008475419 0.0080833435
000180 a9 ba 9c bb 8f 0b 85 3c c2 43 86 3b 18 b9 28 3c
       -0.004782994 0.016240863 0.004097433 0.010298036
000190 dd 96 33 39 0c bd 81 bc 22 7e e4 3b 95 d1 9c bb
       0.00017126971 -0.015837215 0.006973044 -0.0047857263
0001a0 59 c0 02 3b 93 a1 a6 bc 9d 97 00 3c 76 0f cf bb
       0.0019951074 -0.020340716 0.007848647 -0.0063189818
0001b0 d0 c5 cc bb ad 71 91 bc 61 b0 72 3b fb 7f 96 3b
       -0.006249167 -0.0177544 0.00370314 0.004592893
0001c0 55 87 c6 bc 46 8e f5 3b 45 b7 60 3b 9d a4 1f 3d
       -0.024234453 0.007493767 0.0034288925 0.038975347
0001d0 23 b0 29 bc a2 b0 7f ba 2b 72 26 3c 61 0c 34 bc
       -0.010356936 -0.00097537984 0.010159056 -0.0109892795
0001e0 8f 36 dc 3a 09 cb 52 bb 63 2c c3 3b 43 61 43 3c
       0.0016800928 -0.0032164475 0.005956219 0.0119250445
0001f0 00 62 23 3d 55 6d d2 38 47 6b 80 3b a5 96 fe 3b
       0.039888382 0.00010033945 0.0039190385 0.007769423
000200 b7 2d 51 bc 56 c9 c9 3c c3 98 05 3a 29 79 05 3c
       -0.012767247 0.024632137 0.00050963106 0.008146563
000210 42 b7 05 bd 3a 01 3d bb 76 c9 ce ba 6f 9d 3d ba
       -0.03264547 -0.0028839842 -0.0015776593 -0.0007233237
000220 17 a5 b6 3c 0c 15 7d 3c 9d 29 13 3c 57 d2 0f 3d
       0.022295518 0.0154469125 0.008982089 0.035112705
000230 6e 1e d5 3b 5a bc 47 bc 06 2e 78 bb 6a 46 dd 38
       0.0065038716 -0.012190903 -0.003786923 0.00010551217
000240 02 95 c8 bc 39 82 14 bc 69 58 0b 3c d6 93 3b 3c
       -0.024485115 -0.009064251 0.008504965 0.011448821
000250 c2 ea ee ba 0c c6 0d 39 c9 90 e9 3c fc 04 ba bb
       -0.0018227922 0.00013520586 0.028511422 -0.0056768637
000260 83 b5 ef 3a fa a3 ec bc 32 11 12 bb dd 52 85 bb
       0.0018288348 -0.028886784 -0.0022288081 -0.004068716
000270 93 7c b8 ba 4c e9 76 bc 74 25 f4 bb 56 c6 fe 3b
       -0.0014075212 -0.015070271 -0.007450754 0.0077751083
000280 0d 8d b9 3b 48 54 92 bb 74 0e 05 bd af f1 2c 3a
       0.0056625665 -0.0044656135 -0.032484487 0.0006597293
000290 c0 b7 32 3b 75 f3 1e bb ed e9 96 3b 4c fb 14 bc
       0.0027270168 -0.0024253998 0.004605523 -0.009093117
0002a0 3b 90 df 3c 75 c3 6c bc 74 b4 09 bb d1 0b 90 3d
       0.027290454 -0.014450897 -0.00210121 0.07033504
0002b0 3a 0c aa 3c 83 f3 4b bb 90 c2 d7 3c 11 ec 53 3c
       0.020757783 -0.0031120486 0.026337892 0.012934701
0002c0 5d 5b a7 bc ea 20 c2 3c a1 61 37 bb 0d 20 a0 3b
       -0.020429308 0.023697335 -0.0027981775 0.0048866333
0002d0 0f dc 03 3c 2c 1c 84 bc da de 4e 3c 02 b7 46 bd
       0.0080480715 -0.016126715 0.012626374 -0.048514374
0002e0 ea 8a e9 ba 51 ce 28 bc d7 28 8c bb a2 80 c2 bc
       -0.0017817889 -0.010303096 -0.0042773294 -0.023742978
0002f0 f2 49 8a 3c 4c b8 45 bc ab 65 d1 bb 91 2f c6 bb
       0.016880963 -0.012067866 -0.0063902936 -0.006048151
000300 e0 d4 ff bb d9 72 3f 3b 2c a4 2e 3c 8c 6a 06 3d
       -0.007807359 0.0029212742 0.010659259 0.032816455
000310 16 e8 5a bb 5b d1 93 ba bc 6f 4c 3c ce 53 23 3c
       -0.0033402494 -0.0011277603 0.012477811 0.009968711
000320 ec e2 8b 3b e4 3f 8c bb 07 80 e5 ba f5 ef 58 3a
       0.0042689946 -0.0042800773 -0.0017509469 0.00082755025
000330 75 76 44 bb cf a2 bf 3c af 73 c0 bb 82 84 9f 3b
       -0.0029977832 0.023393063 -0.0058731656 0.004868091
000340 d9 2d c4 3b d0 9f c4 3b dd 52 af bb 97 3f ad bc
       0.005986911 0.0060004964 -0.0053504542 -0.021148486
000350 db 6d 8b 3c d0 09 1b 3c 82 84 78 bc dd b6 9f 3b
       0.017020157 0.009462789 -0.015168311 0.004874094
000360 19 c0 9c bb 67 14 85 bc 5f 47 55 3c b8 84 4e bb
       -0.004783642 -0.01624508 0.0130175045 -0.0031512212
000370 2f 45 6b bb 69 ba 59 bc 76 78 26 3c 04 aa 2f 3c
       -0.003589939 -0.013289073 0.010160556 0.010721687
000380 b9 87 72 bc 08 75 b2 bb 0b 95 99 bb 67 fa 63 bc
       -0.014802867 -0.00544608 -0.0046869568 -0.013914681
000390 d2 62 ce 3b af 3d ce bb 09 c0 cd 3b 51 42 ae 3b
       0.0062984014 -0.0062939744 0.006278996 0.005317964
0003a0 c3 90 e4 bc 39 8c 6e bb 20 83 ae bc f2 3e 3f bc
       -0.027901059 -0.0036399497 -0.02130276 -0.011672722
0003b0 47 3e 0c 3a fc a3 63 ba 8c 18 57 bc 65 93 71 bb
       0.0005349856 -0.00086837984 -0.013128411 -0.0036861536
0003c0 67 08 90 bb 65 e1 72 3b 86 85 54 3c 32 ab 27 3b
       -0.004395533 0.0037060615 0.012971288 0.0025584218
0003d0 95 4f b0 3c 79 47 86 bc 06 6a f0 3b eb 18 13 bd
       0.021522323 -0.016391503 0.0073368577 -0.035912436
0003e0 8a f0 c2 3b 3d c7 15 3a c7 d1 32 3b 8d 41 c5 3a
       0.0059490846 0.0005713588 0.0027285682 0.0015049443
0003f0 f8 90 c2 3b 5a b7 4f 3c a6 f4 7d bd 42 f6 91 bb
       0.005937692 0.012677992 -0.062000893 -0.004454405

fc2.weight f4 [128, 256]
000000 d0 1e 00 3e d3 7b ff 3d f5 83 a0 3c 2d 26 3f bc
       0.12511754 0.124747895 0.019594172 -0.011666817
000010 a4 76 78 bd 3e 11 a0 bc fe b0 e1 3c f6 3f 82 be
       -0.06066002 -0.019539472 0.027550217 -0.25439423
000020 0b 75 e7 3d 4e 9f 90 3d 34 1e 94 3b 29 81 ab bd
       0.11301621 0.07061635 0.004520202 -0.08374245
000030 a6 1f a8 bd 0f 96 bf 3d a6 a0 85 3d 60 46 9b bd
       -0.082091615 0.09354793 0.06524782 -0.07581782
000040 5b 7b de 3c df 94 74 3d bf 21 83 3d 48 53 16 3d
       0.02715843 0.059712287 0.06402921 0.036700517
000050 7c 62 16 3d c3 ed 80 bc e7 3c 16 be 35 23 86 3d
       0.036715016 -0.015738374 -0.1467167 0.06549684
000060 10 2b 8e ba 7c 4a f4 bd d3 c1 ea bd 8a 06 ee bd
       -0.0010846574 -0.11928269 -0.1146275 -0.11622341
000070 e2 b9 18 3d d6 04 f1 3c 39 e8 40 bd 47 c3 6f 3e
       0.037286647 0.029421251 -0.047096465 0.23414336
000080 ae a1 a4 3d 56 31 62 3d 02 bc cc 3c 6f c5 00 be
       0.080386505 0.05522283 0.024991993 -0.12575315
000090 5d fc ae bc e0 18 32 3d 9c bf 0c be 19 00 c1 bd
       -0.02136057 0.043480754 -0.13744968 -0.09423847
0000a0 35 f9 26 3e 4d 3b 29 3e 88 30 f9 bc bc 88 81 bc
       0.16306002 0.16526528 -0.03041865 -0.01581227
0000b0 7b 35 24 3c 59 12 2b bd 00 06 03 3e 59 4b 97 bd
       0.010022516 -0.041765545 0.12795258 -0.07387418
0000c0 12 e3 8c 3d d8 ab 28 3d 13 e5 3c 3d ad 38 34 3d
       0.06879248 0.041179508 0.0461169 0.043999363
0000d0 cd a0 16 bd 64 3d 15 3d ff c4 56 be 42 5e 8c bd
       -0.036774445 0.0364355 -0.20973586 -0.06853916
0000e0 47 e8 78 be a8 d5 70 bd 45 dd 24 be 7a 44 3c be
       -0.24307357 -0.05879751 -0.16100033 -0.18385497
0000f0 41 47 bc bc dd bb c8 bc 21 18 ba 3c fc c2 b2 bd
       -0.022983195 -0.024503643 0.022716584 -0.087285966
000100 d9 98 9b 3d be dd 1e 3d 53 32 21 be 65 13 dc bc
       0.07597513 0.03878569 -0.15741853 -0.026864717
000110 8a f5 08 bd 4d 2c de 3c e3 ba 85 bd 42 16 f0 bd
       -0.03343729 0.027120734 -0.065297864 -0.11722995
000120 eb 4b 0b 3d 9a 80 05 bc ae 94 23 be 95 d1 9f 3c
       0.034007948 -0.008148337 -0.15974686 0.019509116
000130 ca 4c 2f 3e 42 e7 85 bd c4 5f 83 3c e5 f9 1b bd
       0.17119136 -0.065382496 0.016036876 -0.038080115
000140 35 71 e1 3d 0f 53 ae 3c 1d b3 c4 bd f9 14 20 3e
       0.11007921 0.02127984 -0.09604476 0.15633
000150 36 26 6d 3b 20 c2 95 3d 14 ea ed bd 79 ce 2b 3e
       0.0036186106 0.07312417 -0.116169125 0.16777982
000160 a5 37 00 be 38 2e 67 bd 57 94 4f 3c ab 90 c2 bd
       -0.12521227 -0.056440562 0.012669644 -0.095002495
000170 c6 ef aa 3d 83 7a 0b 3c fe 8a ab 3c f8 f0 87 3c
       0.083465144 0.008513096 0.0209403 0.016594395
000180 61 05 9c bd 2b c4 e8 3d d7 e8 4d 3e 9f 02 fd 3d
       -0.076182134 0.11365541 0.20108353 0.123540156
000190 9b 15 7b 3d 06 41 0e be cf b1 99 bc 05 10 bf 3b
       0.0612999 -0.13891992 -0.018761544 0.005830767
0001a0 0f 5a 76 3d 3a 4c 9a 3d db 6f f2 3d 5f bc 59 3b
       0.06014448 0.0753407 0.11837741 0.003322385
0001b0 a0 26 25 3e 34 72 79 be 95 e3 c4 3c d3 1e e0 3c
       0.16128016 -0.24359971 0.0240343 0.027358448
0001c0 97 63 9c bd 94 fd 38 be 51 88 cd 3d 4f b0 b9 bd
       -0.07636183 -0.18065482 0.10035766 -0.09066831
0001d0 2d fc cf bd f8 09 36 3d 3b 5f 8a bd 4c fa b4 bd
       -0.101555206 0.0444431 -0.06756445 -0.08836803
0001e0 98 a7 28 be c8 6d b1 bb 19 ac 50 3d 02 04 fa 3d
       -0.16470182 -0.0054146983 0.050945375 0.12207796
0001f0 eb 37 44 3d 0a 8c ab bd 69 25 fe bc 1a 88 ce 3d
       0.04790489 -0.0837632 -0.031023698 0.10084553
000200 0d b5 4d be 33 aa 2f bc f2 e2 51 3d c2 13 98 3d
       -0.20088597 -0.010721731 0.051241823 0.074256435
000210 d2 82 fe 3c 8c 93 ac 3d 2b 1e 2b bd d5 4e 93 bd
       0.03106824 0.0842658 -0.041776817 -0.071927704
000220 37 0d b9 bd 16 39 14 bc 1d be 8f bd 16 47 3c bd
       -0.09035724 -0.0090468135 -0.07018683 -0.04596623
000230 52 86 b8 bd 70 74 ce 3d 28 69 90 bc 42 6d 1c be
       -0.090099946 0.100808024 -0.017628267 -0.15276054
000240 ad a3 23 3d d3 92 80 be 86 24 a7 3d 37 e2 07 3e
       0.039951015 -0.25112018 0.08161263 0.13269888
000250 0f 77 06 3e a1 3a 32 be c7 01 b9 bd f0 7a 84 bd
       0.13131355 -0.17405178 -0.09033542 -0.06468761
000260 20 20 13 bd aa 78 d8 3c 5b 2b 68 3d 3f bc 23 be
       -0.03591931 0.026424725 0.056681972 -0.15989779
000270 69 15 06 3d 5f 14 3e 3d 7f b7 bb 3b 43 2f ed 3d
       0.032735262 0.046406146 0.0057286615 0.1158128
000280 28 3c 3a bd dd bc b2 bd 9a 02 6d 3c 7e 16 0f bb
       -0.045467526 -0.08727429 0.014465952 -0.0021833475
000290 16 e9 7c bc 27 e2 ce bd cf 47 10 be aa d2 c7 bc
       -0.015436431 -0.10101729 -0.14089893 -0.024392445
0002a0 bf 70 c6 bd cc 06 ce 3c 92 3e 83 3d 94 6b c0 bd
       -0.09689473 0.025149725 0.06408419 -0.09395519
0002b0 74 61 c1 bc d3 c7 12 3e 0f 3c 93 3d 95 4c 82 3b
       -0.02360604 0.1433404 0.0718919 0.0039764144
0002c0 ee 2d f1 bd cc 74 ad bb 36 76 e0 3d 23 cb 06 3e
       -0.117763385 -0.0052934643 0.10960047 0.13163428
0002d0 d6 45 4d 3d 1d af 88 3d 2d 93 f2 3c b3 91 eb 3d
       0.05011543 0.06674025 0.029611195 0.11502399
0002e0 a4 a4 67 3d 5d 76 a4 bd 87 1a e9 bb 92 b5 3b be
       0.056553498 -0.080303885 -0.007113758 -0.18330982
0002f0 b7 b0 00 be ac 3e e5 3d 3d 6b 23 bd 31 c1 63 be
       -0.12567411 0.11193594 -0.039897192 -0.22241665
000300 51 a6 32 3e 65 9f 54 bd e0 77 c3 bd 29 18 fd 3d
       0.17446257 -0.051909823 -0.09544349 0.12358124
000310 e9 5d ee 3c a0 e3 ca bd 1a 8a 3a bc a3 70 7d be
       0.029097514 -0.09906697 -0.011385465 -0.24749999
000320 a6 70 36 3d 70 42 78 bd 82 98 47 3d ae 7e 12 be
       0.044541024 -0.060610235 0.048729427 -0.14306137
000330 65 c3 b7 3d 66 be 1a 3c 24 bc 86 3d 94 57 f4 bd
       0.089728154 0.009444809 0.06578854 -0.11930767
000340 89 40 d2 bd 16 a8 42 3d db 22 f7 3d 13 72 a2 bd
       -0.10266215 0.04752358 0.12067195 -0.07931914
000350 57 e9 90 3d 00 5b 1f bd 56 6a eb bd 87 f0 4c be
       0.07075756 -0.038905144 -0.11494891 -0.20013629
000360 3c c8 ac 3d ae 29 55 bd 46 ad 3b be 4f 78 52 bd
       0.08436629 -0.052041702 -0.18327817 -0.051384266
000370 02 54 db 3b da 87 65 be cf b1 1a 3d fb 7d e6 3c
       0.006693364 -0.22415105 0.037767228 0.028136244
000380 64 fa e7 bc 45 39 32 bd 6b ab 40 be 27 ba f4 bd
       -0.028317638 -0.043511648 -0.18815391 -0.11949568
000390 47 d7 0c 3d fe 5c 68 3d 12 43 ac bd 7e 71 0a 3d
       0.034384992 0.05672931 -0.0841123 0.03379964
0003a0 7f 4a 52 be 6a 07 be bd 28 ce d0 bc b8 11 5c 3e
       -0.2053623 -0.09278758 -0.025488928 0.21491134
0003b0 39 0f 8a 3c b0 6b e8 3d 7a 90 d5 bc 4a ff 08 be
       0.016852962 0.11348665 -0.026069868 -0.13378635
0003c0 b7 96 1f be 70 64 28 be ed 13 2c bc 99 90 13 be
       -0.15584837 -0.16444564 -0.010502798 -0.14410628
0003d0 75 7c 8e bd 80 9a 06 be 65 3e 27 3d d7 d8 cd 3d
       -0.06957332 -0.13144875 0.04083099 0.100511245
0003e0 ac 69 69 bd 7b 60 ac 3c c2 8d 9b 3c a8 55 da 3d
       -0.056985542 0.0210421 0.018988494 0.10660869
0003f0 c7 6f 82 bd 3c 82 22 be 16 46 4a 3e b4 f6 06 3d
       -0.06368976 -0.15869993 0.19753298 0.03295012

fc2.bias f4 [128]
000000 f5 a8 fd 3b be 49 d5 3c 4b 70 f4 3a d2 cd 98 bc
       0.0077410885 0.02603614 0.0018649189 -0.01865283
000010 68 6f e3 ba 5b b8 8d 3b 79 15 eb bc 3b e9 0b 3c
       -0.0017351927 0.0043249554 -0.028696762 0.008539493
000020 ed 65 96 b9 47 68 df bb 9e 6c 42 bc f7 28 5d 3c
       -0.0002868617 -0.0068178507 -0.011866717 0.013498536
000030 e5 4b 2c bc 3e 76 09 bc bf 7f c2 3c 8f b7 96 bc
       -0.010516142 -0.008390008 0.023742555 -0.018398074
000040 fe d1 1d bd 35 63 3a b9 2d 3a aa bb 3d 89 cf 3b
       -0.038530342 -0.000177753 -0.0051949234 0.0063334987
000050 4a 3c b8 3b 3a 47 9d bc fb 9d 24 bc 2a 0d 01 3c
       0.0056224214 -0.019199003 -0.010047431 0.007876674
000060 a6 13 9b 3c 47 95 1b bc 25 f5 87 bb 24 f4 58 39
       0.018930268 -0.00949604 -0.0041490966 0.00020690315
000070 fa 5f 8e bc fa d6 04 3b a0 43 c4 ba 48 bb 49 3c
       -0.01737975 0.0020269738 -0.0014973767 0.012312718
000080 09 b4 f8 ba 7a 05 cf bc 87 4f b9 3c 1f b3 50 3b
       -0.0018974553 -0.025271166 0.02262093 0.0031845046
000090 74 ad 9f bb 8a 59 18 3c 5a 10 0c bc 52 cd 25 3b
       -0.004872972 0.0092986915 -0.00854882 0.0025299382
0000a0 c0 53 c7 bc a6 05 6b 3b e7 3d 00 bc c9 8d c3 3a
       -0.024331927 0.003586152 -0.007827259 0.0014919575
0000b0 71 48 6f bc 51 60 43 bc fa 3d e5 bc 3d 8a 5c 3c
       -0.014604674 -0.011924819 -0.027983654 0.013460693
0000c0 71 cf ac bc 15 ff de bc 6b 0a c2 bc 03 8e 4d bb
       -0.02109501 -0.027221242 -0.023686608 -0.0031365163
0000d0 f0 9c 0b 39 f3 fc 56 3c 54 39 f1 3b 1f a6 f4 bb
       0.00013314537 0.013121831 0.0073615704 -0.0074660922
0000e0 05 cb 1b 3c fb f9 1f bc 08 6f ab bb 77 02 b1 bc
       0.009508853 -0.00976419 -0.005231742 -0.02160762
0000f0 5b 7e 85 bc ba 9a cc 3b 4b 60 01 b9 9c 28 96 3c
       -0.016295603 0.006244031 -0.0001233827 0.018329911
000100 3f 5e ea bc 1b eb 9c bb 0c 9f 58 3c c8 3c 2f 3d
       -0.028609393 -0.004788769 0.0132215135 0.042782575
000110 bd ae 34 bd 11 fe 98 bc 7b 39 b2 bc 49 ff 28 bc
       -0.044111956 -0.018675836 -0.021755924 -0.010314771
000120 37 d0 89 b8 19 a4 2a bb f4 f5 83 3c 81 e8 02 3d
       -6.571452e-05 -0.0026037751 0.01610849 0.031960014
000130 7b 9e 81 3c 23 6d 2b bc 6a ae 50 bc 58 af 17 3c
       0.01582264 -0.010463032 -0.012736896 0.009258114
000140 74 24 17 bd 25 f6 6a 3c 33 27 60 3c 93 73 d2 bc
       -0.0369 0.014340912 0.013681221 -0.025689876
000150 c8 34 09 3c f4 d1 73 3c fd 71 5d 3b f3 2e b6 bb
       0.0083744 0.0148816 0.0033789866 -0.005559796
000160 0d 2e 2a 3a 7b 5f 94 bc 85 4d 1f 3c 29 ce 30 bc
       0.00064918475 -0.018111935 0.009723072 -0.01079134
000170 5f ea 15 bc f2 de 20 ba e2 e0 23 3c dd cd 92 3b
       -0.009150117 -0.0006136737 0.010002347 0.004480107
000180 29 c1 3a bb 6c b6 97 bb 90 4e 0e bc 60 50 80 bc
       -0.002849648 -0.0046299007 -0.008685723 -0.015663326
000190 90 f3 6f bd 35 0c 16 bb 8d 47 cd 3b 89 be 9e 3b
       -0.05858189 -0.002289546 0.006264633 0.004844491
0001a0 3d f4 49 bb 6c 9a e0 3b b9 76 42 bc 10 0b 84 ba
       -0.0030815743 0.006854346 -0.011869126 -0.0010074098
0001b0 19 67 c9 ba 89 ad 32 bc 2f bd e5 3b 61 37 ca bc
       -0.0015365809 -0.010905632 0.007011078 -0.02468461
0001c0 03 5e 1a bc e3 47 22 bc 92 b0 2e bc 93 e0 c3 ba
       -0.009421828 -0.009904834 -0.010662215 -0.0014944248
0001d0 35 13 a6 bc 5c cd 2a 3c 97 32 8b bc 06 0f 40 3d
       -0.02027283 0.010424938 -0.016991897 0.046889327
0001e0 5d 47 14 3b 40 01 b4 3c dc c5 c9 bc fc 37 79 3c
       0.0022625544 0.021973252 -0.02463048 0.015211102
0001f0 e0 cc 6f 3d 50 f0 1f 3c 74 81 75 3b 6f c3 d5 bc
       0.058544993 0.009761885 0.0037461193 -0.026094167

fc3.weight f4 [64, 128]
000000 70 d4 a5 3c f2 3c 40 be 95 de c7 3c b1 b9 37 bc
       0.0202429 -0.18773249 0.024398128 -0.011213706
000010 77 3f 10 be 2b f7 82 3e 7a b7 9a 3d 60 48 d5 3d
       -0.1408671 0.255792 0.075545266 0.10414195
000020 20 35 e4 bd 62 63 97 be 82 26 d5 bc aa e5 63 be
       -0.11142945 -0.2956801 -0.026019339 -0.22255579
000030 cd c8 47 3e 27 10 c4 3d d3 75 51 be 2c 54 89 3e
       0.19510193 0.09573393 -0.20455103 0.2682203
000040 88 9a 0b 3d 39 4d 3c be dd 6f 0e be 7f 66 5c 3b
       0.03408292 -0.18388833 -0.1390986 0.0033630428
000050 b9 40 f3 bd 80 68 e5 3c bf fb 80 3c 92 de f3 bd
       -0.11877579 0.028003931 0.015745042 -0.11907686
000060 5c ee 88 3d dc 69 28 3d 74 82 5c be 04 6b 63 bd
       0.066860884 0.04111658 -0.21534139 -0.05552198
000070 59 77 85 3e 4e cc 3f 3e c3 98 8f 3e 74 e7 9c bd
       0.26067618 0.1873028 0.28046235 -0.07661334
000080 83 18 b1 bd ed d4 60 be 9d 71 27 3e b4 36 da 3d
       -0.08647253 -0.21956225 0.16351934 0.10654965
000090 59 0b d7 bd 46 84 41 3d ea c7 52 3e 13 8d d0 bd
       -0.10500211 0.047245286 0.20584074 -0.10183158
0000a0 51 21 bf 3d 70 6f ed bd 18 fb d2 bd a7 30 ea 3d
       0.093325265 -0.11593521 -0.103017986 0.11435061
0000b0 6f 94 19 3e fa d2 4c 3e e3 69 9d 3d 5c 72 3e 3e
       0.14998029 0.20002356 0.07686212 0.18598312
0000c0 c6 38 4d 3e 51 6a 08 3e de 4d bd 3d bc 7f 07 be
       0.20041189 0.13321806 0.092433676 -0.1323232
0000d0 33 99 14 be 6b 3c 30 3d 5d f2 80 3e 73 2d 3a be
       -0.14511566 0.04302637 0.25184909 -0.181814
0000e0 28 28 14 3e a3 cb 95 bd 48 7b a1 3b c7 61 74 bd
       0.14468443 -0.07314231 0.0049280263 -0.05966356
0000f0 69 8c c8 bd cc 1e 80 be 79 da 8f 3d 93 13 a6 3c
       -0.09792406 -0.25023496 0.07024092 0.020273006
000100 6c 32 41 3d 1e 47 57 3e 6d 21 a1 3d cc a5 54 3e
       0.047167227 0.21023223 0.078677036 0.20766371
000110 a6 4f ab 3d 3b 5f 37 bd ac 2a b8 bd 12 69 3d 3d
       0.08364801 -0.044768553 -0.08992514 0.04624278
000120 e2 c5 0f bb 6b 47 4c be 51 d7 8e 3e 2a 1c 43 be
       -0.0021938016 -0.19949119 0.27898648 -0.19053712
000130 8f 91 f3 3d 56 33 84 be 28 9e 42 bc 18 fb cf 3c
       0.118929975 -0.25820416 -0.011878528 0.025388286
000140 e3 b2 c3 3d 8a c0 80 be 7d 52 57 3d a3 d6 c3 bb
       0.09555604 -0.25146896 0.0525689 -0.0059765144
000150 fe d7 52 bc f1 20 36 be c6 e9 1b be 7a df 8a be
       -0.012868879 -0.17786004 -0.15225896 -0.27123624
000160 0f bd b4 3e 40 d1 b5 3d a5 43 f5 3d 64 1d 3b 3e
       0.3530049 0.08877802 0.11975793 0.1827293
000170 e2 b2 4c 3e fd 88 26 bd e8 a2 86 3d b6 f1 c0 39
       0.19990113 -0.040657986 0.06574041 0.00036801182
000180 85 ca df 3d d1 2b 69 3e 3f 5a 85 3e fc 19 65 bd
       0.109272994 0.22770621 0.26045415 -0.055932984
000190 90 f5 24 be 28 e4 ed bd 64 2b 07 bd ba fe 31 be
       -0.161093 -0.11615783 -0.033000365 -0.17382327
0001a0 23 ba b5 bd d1 46 ce bd bf d2 ce 3d 43 09 e5 3d
       -0.088733934 -0.10072101 0.100987904 0.11183407
0001b0 ac 2b 23 be bb a6 d1 3c c5 60 57 3e aa 30 88 3d
       -0.15934628 0.025592199 0.21033008 0.06649907
0001c0 78 97 e2 3c 11 fb d5 3d 31 76 79 3e de 05 aa bd
       0.027660117 0.10448278 0.24361493 -0.083019
0001d0 33 c2 89 be 1d c5 39 3e d2 a6 a6 3b 22 02 1c 3e
       -0.26905975 0.18141599 0.0050858045 0.15235189
0001e0 6b e3 3c bc 15 88 8f 3d 76 b2 b8 bc 8c 65 c9 bb
       -0.01152883 0.070083775 -0.022546034 -0.0061461385
0001f0 44 6f 85 3e 86 12 c7 bd 3b d7 41 bd 1c 2b 32 3c
       0.2606145 -0.0972033 -0.0473244 0.010874536
000200 09 ed 80 3e 17 d4 4b bd 58 b9 91 3d d5 3f 81 3d
       0.25180843 -0.04976281 0.0711543 0.06311003
000210 cb 60 3f bd 15 7f 83 be f4 6c 7e 3d 0f c0 1c be
       -0.04672317 -0.25682893 0.062115625 -0.1530764
000220 58 88 bb bc 9f e6 07 bd 57 fa e7 3d 53 87 33 be
       -0.022892162 -0.03317892 0.113270454 -0.17532091
000230 78 31 e2 bc 0c 72 92 bd 03 02 01 3d 67 bf c1 3e
       -0.02761148 -0.07150659 0.03149606 0.3784134
000240 2a 71 0a be a3 86 a8 bd ea 19 69 bc 81 d3 83 bd
       -0.13519731 -0.08228805 -0.01422737 -0.064368255
000250 1a 41 4f be 8e 69 c6 bd 57 a5 77 3c e1 87 24 bd
       -0.20239678 -0.09688102 0.015115104 -0.040168647
000260 44 09 9b bc 5a 5d 3e bd 98 e4 00 bd 47 71 6e bc
       -0.018925317 -0.046475746 -0.031468004 -0.014553375
000270 44 9d d3 3c e1 69 1f bc f0 f1 c2 bc d4 d1 de bc
       0.025831826 -0.009729833 -0.023797005 -0.027199663
000280 a8 56 03 be be cd 23 3d 28 96 16 be 90 88 b5 bd
       -0.12826025 0.039991133 -0.14705718 -0.08863938
000290 bd e6 4d bd 4c 1f 8c bd 9c c3 99 3e c9 10 b7 3c
       -0.050268877 -0.06841907 0.3003205 0.022346871
0002a0 b1 48 1c 3e 9e 68 d9 3d 34 30 09 3c 9e fe dd bc
       0.15262105 0.10615657 0.008373309 -0.02709895
0002b0 1f e9 1c be fd be 5d be 1a 7c a8 3d 77 97 12 be
       -0.15323304 -0.21654887 0.082267955 -0.14315592
0002c0 9d 1b 64 be 25 2f 8a 3e 54 8c 62 bd bd 52 50 be
       -0.22276159 0.26989093 -0.05530961 -0.20344062
0002d0 e7 66 ce bd 0b df 08 bd 01 f4 df 3d d3 28 4f be
       -0.10078221 -0.033415835 0.10935212 -0.20230417
0002e0 aa 0e da 3d ee fd 40 bc fd 57 36 3c fd a1 79 be
       0.10647328 -0.011779292 0.0111293765 -0.243782
0002f0 d8 89 23 3d ca a7 0e bd 66 2c 55 be 06 6d 25 bd
       0.03992638 -0.034827985 -0.20817718 -0.040387176
000300 38 f8 10 be 0f 5a b6 3d 9d 36 83 3e 37 3f 08 3e
       -0.14157188 0.08903896 0.25627604 0.13305365
000310 51 bb 9d bc a4 1a 0f 3e 52 30 29 be ae 4a aa 3d
       -0.019254358 0.13975006 -0.16522339 0.08315025
000320 c1 d5 98 3e cd bf 93 be be 36 4b be 0d a0 0a 3e
       0.2985058 -0.2885727 -0.19845101 0.13537617
000330 d7 22 ec 3c e2 40 84 bb ea 4a 2a be b6 96 6e be
       0.028825207 -0.004036055 -0.1663014 -0.23299679
000340 24 c5 d6 3c e1 bc ce be 07 97 42 bd 18 e7 07 3d
       0.02621705 -0.40378478 -0.047507312 0.033179373
000350 aa 33 25 3e 0b 75 49 be b8 3c 19 3e 26 27 3c be
       0.1613299 -0.19673555 0.14964569 -0.18374309
000360 72 4f 3c be f3 4d 48 be ec fd 7d 3d 3b 2c 6e bd
       -0.18389681 -0.19560985 0.062009737 -0.05814765
000370 96 3a 00 be 40 ce 50 3e 6e 98 24 be 4f d5 fc bd
       -0.12522349 0.20391178 -0.16073772 -0.12345373
000380 f6 52 43 be 4a f0 17 3e a1 6e a0 3d f6 4f 06 3d
       -0.19074616 0.14837757 0.07833601 0.0327911
000390 63 4c 34 3e d0 f3 03 3d 1d d1 aa ba 6c fe 47 be
       0.17607264 0.03221494 -0.0013032291 -0.19530648
0003a0 b4 4f d9 3d dd 16 11 3e 6f 1f 2d be de fb 25 be
       0.10610905 0.14168878 -0.16906522 -0.16209361
0003b0 bf ed 2d 3e d9 29 91 3e 11 c7 e2 bd 84 2e 0f 3e
       0.16985224 0.2835224 -0.11073125 0.13982588
0003c0 55 5b 2b be f7 6e 29 3d aa 36 f7 3d c7 27 5c 3d
       -0.16734059 0.04136559 0.12070973 0.053748872
0003d0 b6 f6 57 be 91 e1 cf 3d 3c ec 2f 3d 55 ee 14 bd
       -0.21090207 0.10150445 0.0429499 -0.036360104
0003e0 87 68 50 3e 71 96 7f 3c 65 c0 2b be 86 77 80 3d
       0.20352374 0.015599833 -0.16772611 0.06272797
0003f0 c0 84 93 3d 73 09 10 be 69 38 8d bd 49 de 57 3d
       0.072030544 -0.14066105 -0.06895525 0.052702222

fc3.bias f4 [64]
000000 bb d2 cd bb 9e 02 06 3d b2 bb 0b bc 5a 5b 3c 3c
       -0.0062812245 0.03271734 -0.008528637 0.011496389
000010 18 27 05 bc 35 b0 8f bb cc 30 27 bc 85 8b c3 bc
       -0.008126996 -0.004385019 -0.010204505 -0.023870239
000020 50 68 b9 3c 74 92 71 bc 0c fb 94 bb 83 33 c2 bc
       0.022632748 -0.01474439 -0.0045465287 -0.023706203
000030 09 0e 45 bc 12 74 38 bc 6e d6 fd bc 7c b9 00 bd
       -0.012027272 -0.011258142 -0.030986037 -0.03142689
000040 03 39 b8 bc a2 65 af 3c b3 e5 80 3c 3f 1c 45 bc
       -0.022488123 0.021410767 0.01573453 -0.01203066
000050 94 07 87 3d 94 71 03 3d b9 40 d9 bc ff df 24 bd
       0.06593242 0.03209074 -0.02652012 -0.04025268
000060 e1 c5 f4 3b 6f 97 5f 3b 1b 3c b8 3c ce db 0c 3c
       0.007469878 0.003411736 0.022489598 0.008597327
000070 49 9a 5b 3b 73 e7 55 b9 4a 60 8d bb 93 4a 48 bd
       0.003350871 -0.00020399484 -0.004314457 -0.048899245
000080 ad 85 f7 3c b1 bb 0f bd 0e d3 c7 bb bf 63 0c 3d
       0.030215109 -0.035091106 -0.0060981577 0.034274813
000090 ce fe 78 3c 79 03 03 3c 62 3f ad bd 8f 6e 25 3d
       0.015197469 0.007996433 -0.08459355 0.04038864
0000a0 9b 58 82 bc 6b 01 05 bb 76 5a bb bc 59 f7 92 bc
       -0.015911391 -0.0020295035 -0.022870284 -0.01794021
0000b0 8f b2 2c bd ef 69 2b bc 7b ef 8c bc 94 e8 08 bb
       -0.042162474 -0.010462268 -0.017204037 -0.002089058
0000c0 6b 00 12 3c dc ef 5c bc a4 71 36 bd df 67 b9 bc
       0.008911232 -0.013484921 -0.04454197 -0.022632537
0000d0 80 2c 63 bb ad 28 70 bc 57 c6 64 bb e9 8a 84 bd
       -0.0034663975 -0.014658135 -0.0034908259 -0.064718075
0000e0 99 e0 9a 3c ee 1a 07 3d 38 fc c1 3c 3b e8 bc bc
       0.018905925 0.032984667 0.023679838 -0.023059955
0000f0 9a 10 b2 bc 9d 02 85 3c 55 ce e3 3c bc 09 9c bb
       -0.021736432 0.016236598 0.027808348 -0.0047619026

fc4.weight f4 [23, 64]
000000 bf 2f ee 3e 32 e2 c8 3e 9e d6 3c be 99 52 0e bf
       0.46520802 0.39235073 -0.18441245 -0.55594784
000010 30 3d c4 3d 3f 8d c0 3d ff 06 64 be 15 f1 5b bd
       0.09581983 0.094019406 -0.22268294 -0.05369671
000020 67 32 33 be 64 0f 18 be 6c 1b 97 3e f9 f2 1e 3f
       -0.17499696 -0.14849621 0.2951311 0.62089497
000030 b4 ff d4 be 57 18 0b bf c4 e8 87 be 18 d8 5e be
       -0.41601336 -0.54334015 -0.26544774 -0.2176212
000040 42 56 ae bc 01 f5 04 bf ec 49 40 bf 00 9a 05 bf
       -0.021281365 -0.51936346 -0.75112796 -0.5218811
000050 71 fb 14 bf 48 8a d6 be 61 11 be bd d2 83 f0 be
       -0.5819617 -0.41902375 -0.092806585 -0.4697557
000060 50 96 0a bf 6b 70 3e 3e 09 6c 33 3e 14 be c5 be
       -0.5413561 0.18597572 0.17521681 -0.3862158
000070 2c c6 97 bd 1f e6 29 bd 45 12 4b bf 47 10 3c 3e
       -0.07410845 -0.041479226 -0.7932475 0.18365584
000080 0e b8 5c bf 41 d7 20 be cb 6b 8c be f2 64 1c 3e
       -0.86218345 -0.15707113 -0.2742599 0.15272883
000090 e3 c0 01 3f 86 bd da 3e b4 60 b5 3e 52 6d cf 3e
       0.50684947 0.4272272 0.3542534 0.40513092
0000a0 01 af 94 be 7c 76 00 bf 5a f6 f8 bd d5 be e5 3e
       -0.29039767 -0.5018079 -0.12156363 0.44872156
0000b0 5c 49 30 bf 44 5f ad be 34 dc b7 be b9 35 ce 3e
       -0.6886194 -0.33861744 -0.3591019 0.40275362
0000c0 c4 96 f3 bd 92 33 3b bf f2 22 a2 be 50 55 32 be
       -0.11893991 -0.73125565 -0.31667286 -0.17415357
0000d0 d3 a9 29 bf 86 4e f1 be 6e 6f 29 3f 52 dd fc be
       -0.66274756 -0.4713022 0.66185653 -0.49387604
0000e0 1d 3b fc 3d 8a c4 60 bf 85 44 96 be 77 55 a4 3d
       0.123159625 -0.87799895 -0.2934915 0.080241136
0000f0 c6 9c 94 be 07 e8 82 3e 8c a3 97 be 30 f5 11 bf
       -0.2902586 0.25567648 -0.29616964 -0.5701475
000100 dd c6 1a be ab 4d 35 be dc 1b a6 be 0b aa 4a 3e
       -0.15114923 -0.17705409 -0.3244313 0.19791429
000110 d1 06 1a 3e bf 8f 43 3e 07 2f b2 3d 02 0b 31 3e
       0.15041663 0.19097804 0.08700376 0.17289355
000120 2a a8 fa 3d 2c ff 3e 3c 33 8a 90 3d 61 d9 a7 bd
       0.12239106 0.011657517 0.070576094 -0.081957586
000130 65 8d b6 be 1e 85 cb be 6e c9 a3 3c 9b 08 31 3e
       -0.3565475 -0.39749998 0.01999351 0.17288439
000140 95 5c aa 3c a3 06 ee 3b e8 05 91 be f5 d2 82 be
       0.0207961 0.0072639748 -0.2832482 -0.25551572
000150 c5 b4 e5 bd b7 a2 ec be 67 09 93 bd 6a 3c 1f be
       -0.1121612 -0.46217892 -0.07179528 -0.1555039
000160 a8 dc d3 be 9f 9e ce bc 7c 85 ba 3d 0c 01 54 bd
       -0.41379285 -0.02522212 0.091074914 -0.05175881
000170 59 fb c6 be 97 6b 54 3e 42 96 15 3e 11 36 e0 be
       -0.38863638 0.20744167 0.146081 -0.4379125
000180 7f 8d 22 be 41 83 87 be 0e 6a 61 3d 62 19 96 bd
       -0.15874289 -0.26467326 0.055032782 -0.0732906
000190 4a 62 c8 be ac d2 6a be 84 75 1a 3e e1 98 37 3e
       -0.3913749 -0.22931927 0.15083891 0.17929412
0001a0 59 cc 2e bf 64 18 5d 3e 39 d7 ac be f1 ef a1 3e
       -0.6828056 0.21591336 -0.33757952 0.31628373
0001b0 ee 12 b1 be 64 c7 1e be a0 c3 b6 be eb 16 3a 3d
       -0.34584755 -0.15505749 -0.35696125 0.045432013
0001c0 35 15 30 be 40 3b a4 be 82 5b 24 3e 14 82 2b be
       -0.1719559 -0.32076454 0.16050532 -0.1674884
0001d0 85 74 6f bd 3d 9f a9 be 7e 21 42 be bf ce 37 be
       -0.05846073 -0.33129302 -0.18958089 -0.17949961
0001e0 ac f4 82 bb 54 64 06 3e 40 83 86 bd 00 27 13 be
       -0.0039964523 0.1312421 -0.06568003 -0.14370346
0001f0 37 12 d0 be 67 40 5b be d7 e5 56 bd d8 4c c9 be
       -0.40638897 -0.21411286 -0.052465286 -0.3931644
000200 0d 37 2c 3d 87 00 61 3e 44 a8 5d 3e c9 52 e8 be
       0.042044688 0.21972857 0.2164622 -0.4537566
000210 9a 02 1e be 7d d2 aa bd e7 ad c3 be a1 f2 9d bd
       -0.1543068 -0.08340929 -0.38218614 -0.077122934
000220 94 09 e2 be ef 4c 97 be c2 a1 b9 be dc 18 0a bf
       -0.44147933 -0.29550883 -0.36256224 -0.5394418
000230 cd 1e 51 be b6 7d dd be a3 80 09 bf 36 ec a2 3c
       -0.20421906 -0.43259972 -0.5371191 0.019888025
000240 93 31 46 3e 96 5b 2a 3d 67 6f 80 be ac 55 56 bc
       0.19354849 0.04159125 -0.25084993 -0.013081949
000250 1f 41 c4 3d 87 af 46 3e 80 1c 83 3e 7b f0 fa 3d
       0.09582733 0.19402896 0.2560768 0.12252899
000260 23 a5 9f be c8 53 19 bc 75 9f 56 3e 3e ee a6 be
       -0.31180677 -0.009358354 0.20959266 -0.3260364
000270 4c 49 b5 be 3f 6f 95 be a3 c5 dc be fe 4c f3 be
       -0.35407484 -0.29186437 -0.43119535 -0.47519678
000280 e7 01 a6 3d ee 13 00 bf 55 af 6f be d6 50 04 be
       0.081058316 -0.5003041 -0.23406728 -0.12921461
000290 67 8f ac be 63 df 3b 3e 70 25 d2 3d 5b e2 9a be
       -0.33703157 0.18346934 0.10261047 -0.3025082
0002a0 9c 79 94 3e 61 a1 9a 3c fa c4 17 3e 59 60 0b bf
       0.2899903 0.01887578 0.14821234 -0.5444389
0002b0 41 15 5b 3e 51 7d 9d 3e 38 47 1c bf 99 d8 1c be
       0.21394826 0.3075967 -0.6104617 -0.15317
0002c0 23 73 aa be ff 1b 82 3e 95 be ae be 73 7b 13 be
       -0.33290967 0.25411984 -0.34129778 -0.14402561
0002d0 7d c7 3f 3d 3f 01 53 3e da f9 c7 be bd 9d b1 3e
       0.046821106 0.20605944 -0.3905781 0.34690657
0002e0 60 ef 4a be 5d 24 21 3e 87 23 be 3e ce 99 6a be
       -0.19817877 0.15736528 0.3713648 -0.22910234
0002f0 57 ee 91 3c 41 94 06 3e de fc 01 3e ea b0 82 be
       0.017813845 0.13142492 0.12694117 -0.255256
000300 bd c8 fd 3d 1c 15 d0 3c da 2e b2 3e 14 31 35 3d
       0.123918034 0.02540069 0.3480137 0.044236258
000310 ad f7 d4 be 84 d1 9a bd 23 65 b1 bd 0b 00 83 3c
       -0.41595212 -0.07559493 -0.086618684 0.015991231
000320 c3 5d 40 bd 5c 39 49 be 29 8a 03 bf e2 ab bf 3e
       -0.04696442 -0.19650787 -0.5138269 0.37435824
000330 4c 28 74 3e 96 cc a5 bd 9d 34 97 be 6e 85 ba bd
       0.23843497 -0.08095662 -0.29532328 -0.09107481
000340 dc a8 19 be 76 e5 e7 bd 22 56 b3 3e c3 15 e8 be
       -0.15005821 -0.11323063 0.35026652 -0.45329103
000350 73 d4 4e be 80 3c 8d be 6c 59 93 3e 6c 6d 2d be
       -0.2019823 -0.2758522 0.2877916 -0.16936272
000360 2d 02 c9 bd c9 02 66 bf 9a 57 c3 3e 9b 21 d7 be
       -0.09814868 -0.89848 0.38152772 -0.42017826
000370 ab 2d 1d 3f b0 14 2e be ed 5c b6 3e 56 8d 81 3d
       0.6139781 -0.17000079 0.35617772 0.06325786
000380 f5 35 e4 3d 93 1a d6 3d 73 5a a2 3c 0c 53 3e bf
       0.11143104 0.104542874 0.01981852 -0.7434547
000390 d4 1b bf 3e 96 43 23 3f 13 b8 99 3e b3 9c a4 bd
       0.3732592 0.63775 0.3002325 -0.080377005
0003a0 a6 47 85 be d1 b2 d4 be 12 ee a8 3e 03 89 bd 3e
       -0.26031226 -0.41542676 0.32994133 0.37018594
0003b0 d0 d6 1d bc c3 54 c9 3d 2a ad 86 3e e0 c3 ef 3e
       -0.009633735 0.0983062 0.2630399 0.46829128
0003c0 dd 96 8b bd a3 54 20 bd bf 1d ac bd 89 e1 cd be
       -0.06815884 -0.039143216 -0.08404111 -0.40211132
0003d0 57 4a 7b 3e 42 45 43 be 03 6c c3 3e b5 f4 12 3f
       0.24540077 -0.19069389 0.38168344 0.57404643
0003e0 38 21 44 be a7 6e 89 be 98 47 18 be 74 a0 18 3e
       -0.19153297 -0.26842234 -0.14871061 0.14904958
0003f0 10 c2 3c 3d 1c 6a 0a be d1 0f c7 bc ee f1 c8 bb
       0.04608351 -0.1351704 -0.024299534 -0.006132356

fc4.bias f4 [23]
000000 7d b3 50 be 18 f3 9c 3d 6d b3 35 be 6f fb 4c 3e
       -0.2038097 0.07663554 -0.17744227 0.2001779
000010 30 21 6c 3e f0 4b 2d 3e 47 f6 9a be 13 62 ed be
       0.23059535 0.16923499 -0.3026602 -0.46363887
000020 02 20 fc 3c 26 40 a4 be 0a 8c c8 be 36 3a e0 3d
       0.030776981 -0.3208019 -0.3916934 0.10948603
000030 2b cd c7 3c 8e 7e 20 bf 37 34 f0 bd e3 9e ba bd
       0.024389824 -0.6269311 -0.11728709 -0.091123365
000040 31 40 5c be 89 10 d8 bc a8 bf 8a be d1 5a b5 be
       -0.21508862 -0.026375072 -0.27099347 -0.3542085
000050 6e e0 56 3e a1 41 1f 3e a7 a1 82 3b
       0.2098405 0.15552379 0.0039865556

bn1.weight f4 [256]
000000 df 4f 97 3f b5 ac 86 3f c1 30 71 3f 96 f8 83 3f
       1.182125 1.0521456 0.9421502 1.0310237
000010 85 fe 52 3f ec 1e 6e 3f 90 bd 6a 3f 9f 88 94 3f
       0.82419616 0.93015933 0.916955 1.1604193
000020 ab a3 58 3f 1b cd 83 3f 33 7d 49 3f b8 b7 69 3f
       0.8462474 1.0296968 0.78706664 0.9129596
000030 20 0b 52 3f 66 50 3f 3f de f0 64 3f 4f a7 7b 3f
       0.82048225 0.74732053 0.89430034 0.9830217
000040 3d f0 6f 3f 22 d0 76 3f fc 26 76 3f 87 dd 77 3f
       0.9372595 0.96411335 0.96153235 0.968224
000050 e3 5d 80 3f e9 87 80 3f 7d 42 6d 3f 0b d4 80 3f
       1.0028652 1.0041476 0.9267958 1.006471
000060 e6 f3 4a 3f c9 c7 63 3f 8a 61 6b 3f 0f d0 50 3f
       0.7927841 0.8897672 0.9194571 0.8156747
000070 70 c0 55 3f 6a 90 96 3f af ce 69 3f b4 89 59 3f
       0.8349676 1.1762822 0.91331 0.84975743
000080 21 38 4b 3f b3 2a 5d 3f 6a 1e 75 3f f3 96 82 3f
       0.7938252 0.8639328 0.95749533 1.0202316
000090 68 15 89 3f 9e 80 60 3f 9c 9e 66 3f a7 cb 77 3f
       1.0709658 0.87696254 0.9008577 0.96795124
0000a0 61 37 8f 3f 98 fe 82 3f 65 84 75 3f 11 4f 67 3f
       1.1188775 1.0233946 0.95905143 0.9035502
0000b0 54 a0 64 3f a1 5c 3d 3f 18 22 48 3f b0 24 4f 3f
       0.8930714 0.73969465 0.7817702 0.80915356
0000c0 29 f2 6e 3f 8b 64 53 3f d9 82 5d 3f 99 fa 92 3f
       0.9333826 0.8257529 0.8652778 1.1482726
0000d0 66 5e 61 3f 75 e8 60 3f 01 d3 70 3f 57 ef 57 3f
       0.88034666 0.878547 0.94071966 0.8434958
0000e0 60 1b 90 3f 70 e1 67 3f 8e 07 63 3f a6 3b 80 3f
       1.1258354 0.90578365 0.886834 1.0018203
0000f0 6b 35 89 3f c7 d6 62 3f 29 4c 7c 3f 67 0b 8d 3f
       1.0719427 0.88608974 0.9855371 1.1019105
000100 49 9a 72 3f 2b 5a 76 3f 9f 6a 7a 3f d1 ff 5e 3f
       0.9476667 0.96231335 0.9781894 0.87109095
000110 32 00 92 3f ba ec 53 3f 2d b7 6f 3f e2 38 6f 3f
       1.140631 0.8278309 0.9363888 0.9344617
000120 a1 58 7e 3f 09 4a 64 3f cf ce 84 3f 28 16 80 3f
       0.99353987 0.8917547 1.0375613 1.0006762
000130 c4 6b 7e 3f ad 92 59 3f 30 01 63 3f 7a d4 6b 3f
       0.9938319 0.84989434 0.88673687 0.9212109
000140 0a a9 43 3f 93 64 7c 3f d9 a6 84 3f 73 30 66 3f
       0.7642981 0.98590964 1.0363418 0.8991768
000150 cf 0b 69 3f 0a 93 66 3f 66 a8 6e 3f 4c cd 65 3f
       0.91033643 0.90068114 0.93225706 0.89766383
000160 8a 77 86 3f 27 f6 56 3f 91 7c 84 3f 00 54 5a 3f
       1.050523 0.8396935 1.0350515 0.85284424
000170 99 f5 75 3f 7c 82 80 3f 00 61 5b 3f 13 7e 54 3f
       0.9607788 1.0039821 0.85694885 0.83004874
000180 5c ed 50 3f 72 48 72 3f 21 cc 75 3f e8 24 62 3f
       0.8161218 0.9464179 0.960146 0.88337564
000190 2a 2e 5c 3f 8c 92 5d 3f 30 b7 55 3f cb 2f 65 3f
       0.8600794 0.8655174 0.83482647 0.8952605
0001a0 70 8c 7a 3f 4f b6 4e 3f 4f fd 4b 3f 09 80 5f 3f
       0.9787054 0.8074693 0.79683393 0.8730474
0001b0 63 c5 6b 3f 8b d9 5e 3f 48 48 34 3f 8f 2a 4c 3f
       0.92098063 0.87050694 0.7042279 0.7975244
0001c0 c1 7d 60 3f 80 20 53 3f ab 06 4a 3f e5 2d 6c 3f
       0.87691885 0.82471466 0.78916425 0.9225753
0001d0 28 e2 7c 3f e5 36 67 3f 30 35 70 3f 0c 88 75 3f
       0.9878259 0.9031814 0.9383116 0.95910716
0001e0 25 3a 50 3f 82 d7 61 3f 3f 7b 67 3f 89 44 60 3f
       0.8133872 0.88219464 0.90422434 0.87604576
0001f0 79 ff 88 3f 23 d9 6e 3f 9b 9a 52 3f 43 d6 4e 3f
       1.0702964 0.93300074 0.8226716 0.8079569
000200 f0 7f 52 3f 04 92 7f 3f 58 ef 50 3f e8 d5 56 3f
       0.8222647 0.9983218 0.8161521 0.83920145
000210 fe 08 9e 3f c2 d4 3e 3f b8 e6 6e 3f da 7d 53 3f
       1.2346494 0.7454339 0.933208 0.8261391
000220 80 36 7a 3f 02 67 76 3f 10 a1 54 3f dc ef 9c 3f
       0.9773941 0.9625093 0.8305826 1.2260699
000230 2d 79 4e 3f 0e e5 65 3f 98 d5 67 3f 2e 25 71 3f
       0.8065365 0.89802635 0.90560293 0.94197357
000240 5c 4e 59 3f f1 9f 80 3f 0a e4 6b 3f 6d 85 6e 3f
       0.8488519 1.004881 0.92144835 0.9317234
000250 2b 07 61 3f 6a 6c 53 3f 06 30 59 3f 7c c5 6e 3f
       0.8790156 0.825873 0.848389 0.9327009
000260 dc 92 5b 3f 81 7b 7c 3f bf 40 51 3f 7c 36 61 3f
       0.85770965 0.9862595 0.8173942 0.8797376
000270 36 bc 83 3f 23 ea 81 3f e5 7e 64 3f af 00 7f 3f
       1.0291812 1.0149578 0.89256126 0.9961042
000280 bb f3 8d 3f 7c a1 63 3f d4 47 65 3f b6 da 67 3f
       1.1090006 0.8891828 0.89562726 0.905681
000290 c1 ec 4e 3f b3 5d 40 3f 56 fd 6e 3f 68 22 83 3f
       0.8083001 0.75142974 0.9335531 1.0244875
0002a0 58 05 83 3f c2 75 51 3f fc 09 92 3f e7 fb 83 3f
       1.0236006 0.8182031 1.1409297 1.031125
0002b0 3e 2f 79 3f 06 2e 54 3f f1 2d 83 3f 2a d1 74 3f
       0.9733771 0.82882726 1.0248395 0.9563166
0002c0 5c dd 86 3f bb 33 76 3f 32 75 80 3f f6 e3 77 3f
       1.0536304 0.96172684 1.0035765 0.96832216
0002d0 85 98 82 3f b7 f2 4c 3f bc 46 84 3f 7b 85 8c 3f
       1.0202795 0.80057853 1.0334086 1.0978235
0002e0 6d 33 6b 3f 22 ca 66 3f c6 18 55 3f 43 98 73 3f
       0.91875345 0.9015218 0.83240926 0.9515421
0002f0 ea 25 5a 3f c6 ff 56 3f ec 18 6e 3f 6d 82 74 3f
       0.852141 0.8398403 0.9300678 0.95511514
000300 23 09 9c 3f 08 60 5b 3f d7 b9 5c 3f f3 c4 8b 3f
       1.2190288 0.8569341 0.8622107 1.0919479
000310 3d f0 4e 3f 45 97 55 3f 1f 5f 7a 3f ef 27 91 3f
       0.80835325 0.83433944 0.97801393 1.1340312
000320 2b c0 4d 3f 74 ca 83 3f 57 34 5e 3f 7e 5e 53 3f
       0.8037135 1.0296159 0.86798614 0.8256606
000330 7f 71 7a 3f c7 85 76 3f 83 0a 91 3f 5f 46 85 3f
       0.9782943 0.9629788 1.1331333 1.04121
000340 8c d5 83 3f b4 3f 60 3f 92 c3 5a 3f 6f 89 85 3f
       1.0299544 0.87597203 0.85454667 1.0432566
000350 46 92 7c 3f 02 65 8f 3f 58 f0 5b 3f 8d c9 5e 3f
       0.98660696 1.12027 0.8591361 0.8702629
000360 44 90 67 3f 7e 57 84 3f 9a 79 79 3f d4 fa 5d 3f
       0.90454507 1.03392 0.97451174 0.8671086
000370 62 3c 5a 3f fd 84 88 3f 37 30 63 3f d8 f9 61 3f
       0.85248387 1.0665585 0.88745445 0.88271856
000380 35 25 4d 3f a7 23 72 3f bf e9 50 3f 8e 50 72 3f
       0.801349 0.9458565 0.8160667 0.94654167
000390 12 e8 5f 3f c3 5c 6f 3f 78 18 72 3f 20 3c 4f 3f
       0.87463486 0.9350092 0.94568586 0.8095112
0003a0 13 1f 7d 3f b4 29 37 3f a6 0c 72 3f bf e9 79 3f
       0.9887554 0.7154801 0.9455055 0.97622293
0003b0 3d a4 3c 3f 68 9a 83 3f dc c6 78 3f 76 4a 6c 3f
       0.7368811 1.0281496 0.97178435 0.9230112
0003c0 1d 41 6e 3f ea 3a 4d 3f dc 28 76 3f 84 dc 7b 3f
       0.93068105 0.8016802 0.96156096 0.98383355
0003d0 8c 82 5c 3f 33 e1 7a 3f 8c da 66 3f fc ab 8c 3f
       0.861367 0.97999877 0.90177226 1.0989985
0003e0 bb 7a 62 3f ad 26 82 3f ad 07 77 3f 78 df 62 3f
       0.8846852 1.0168053 0.9649609 0.88622236
0003f0 46 d9 6d 3f 4a 04 6e 3f 62 b9 9d 3f 73 8d 6f 3f
       0.9290966 0.92975295 1.2322199 0.9357521
