Parte II/TEC_AD_TP2/models/fcn_best.pt (torch, 228539 bytes, 20 tensors)

fc1.weight f4 [256, 41]
00000000: 0337 c4be ce74 2a3e 6778 2fbe 6160 b53d
00000010: 6821 a53e 3007 a13e af76 063e ac6d a23d
00000020: b321 8bbe 69cb 653e 5e8e 673d e6f0 90be
00000030: 0f29 fabc 4251 afbb d49a 013d fe83 963e
00000040: 5c2e ab3e 863b d33d ee27 003d 1728 d93d
00000050: 46bb a63c ae58 a7be 2f5e 54be 70db ad3d
00000060: add4 4f3e 89b6 973d 4cf1 16be 73df 8e3e
00000070: fe82 aabe 330e 363e 5e02 283e d543 013e
00000080: 1f11 72bd 4ed5 c83d f279 78be 6214 e8bd
00000090: c15d 363e 1153 9c3e 0cb2 8dbe e6f2 08be
000000a0: fbb1 dfbe 6ea2 40be ef4d a63e e000 bd3d
000000b0: 89cb 1bbe ff89 033f eba1 7abe 37c9 093f
000000c0: 713d 82bd 2dbc 113e 4c7d 923e a5d6 7dbd
000000d0: aef3 243e 0569 2f3e 293e 39bd eb59 043e
000000e0: 9b6c b93e 6c68 b43e c7d5 b33d 5ac8 09bf
000000f0: a1a1 25be 19c4 b5be 0404 2e3c 81d6 7ebd
00000100: 9b0b 363e 8e0d 7e3e b559 c03d 06f1 5cbe
00000110: ec5d 483e 5d9a 6cbd 8d24 3e3e 4f1a ac3e
00000120: 2369 df3d b421 87be 2082 273e e84a 9dbe
00000130: 513d 2a3d 2083 e33e b6f6 993e 51ef e3be
00000140: b9c7 393d 0ce1 23bb 5659 02be f958 353e
00000150: bda9 dfbd fefa f93c b6f9 5dbe 64d3 a0bd
00000160: d0c5 203e 35bc 90bd 73d3 6cbd ff44 713e
00000170: ba4c c8bd 5503 7c3e 8baa 94bd b66e 8abe
00000180: 66d7 843c e71a d13d ff81 4dbe 064f 0b3e
00000190: 14ff 4bbe 4b18 84be cf18 953e 550b c43e
000001a0: ebdc b53e cd83 4bbe 2ea6 ac3c 0b13 683e
000001b0: 8a4d 09bf 35b5 de3e 5481 95be df4f 1bbd
000001c0: 9161 45be 18a8 9bbe 82e8 b03e 07c3 f2bd
000001d0: f59f f9bd d0bd 39be 45d9 be3c 5f43 3d3d
000001e0: 7fa1 4ebe 4cfe 943d 4599 5cbe 0908 0e3e
000001f0: c348 85be 2c41 48be 0c53 77be 8694 c73e
00000200: 638d 9a3e d8e7 45bf c228 473e cf82 e2be
00000210: be32 d43d b3e9 583e a1fa bebd 4591 0a3e
00000220: 5ad6 493e ae0d 38be dabf 11bf 21dd fa3c
00000230: 648a 46be 6e69 54ba dc41 263e 8672 8c3e
00000240: 23d5 1dbe a3f9 9fbe bbe7 31be 3440 c7be
00000250: 6a56 4c3e edfa cbbd 08c5 06be 527d 95bd
00000260: 6fbd b23d 2769 0f3c 86e1 0cbd e490 bdbd
00000270: ac03 56be c8d7 fbbd 6309 613e 4ef2 5fbe
00000280: 0551 213e cb5e a63c 977f 97bb 4faf 333e
00000290: 5aff babe 7ef0 72be f012 983e 0ef1 66bd
000002a0: 6454 e1be c3a3 d03d e33c bfbc 0a99 3dbe
000002b0: 07bd f9be d9b7 193e 46a3 39be 41c7 2ebe
000002c0: d9cc 18be cb59 863d 85cf 64bd 1dcf 2dbe
000002d0: 6659 463e d884 b2be 7074 513e 3ea5 a23e
000002e0: 624c b33e dd9e 96be 9458 b1be 828e 063b
000002f0: 483b 813d e446 b2bd a796 943c a279 ccbe
00000300: 120f 843e 83c6 b13e 5b37 f3be ad3a 013e
00000310: e32b 30bd 1cd9 b83e f18c 523e e0f8 52be
00000320: 7f5a da3d 064e 753e 8391 b0be 51fd eb3c
00000330: 9d6a b13e d558 7b3e be68 c53d 529d 0fbe
00000340: 3fea 04be f895 f5be 58a0 4b3e af39 25bf
00000350: 263d 78be 98fd 5fbe e43d 2e3e ddd8 5e3e
00000360: 3326 3f3d 6ed3 aebe cc0b 5cbd 91f7 0c3e
00000370: a894 9fbe 9e00 31be f10a 1cbe cca5 3dbe
00000380: 060e 5dbd 90b2 933d 8302 753e bdcc 653d
00000390: 97a0 453e 7362 8abe b6e4 22bc d523 873c
000003a0: df1c 0f3e aa75 9d3e 3ab8 423e 0eb1 35be
000003b0: 3f2e 873d 7af7 af3e 1e25 4b3e bb5f 973e
000003c0: 64d0 6bbe b5ce 9f3e 503d d1bd 724f 30bf
000003d0: 905f aebe 46fb 12be 89af 2a3e 2db9 25bf
000003e0: 061c 4a3d 6df4 4dbe 9f33 1a3f 6f40 5dbd
000003f0: 83fb afbe 5724 243e 8910 00be d7d5 a1be
-0.3832322 0.1664612 -0.17135774 0.088562734 0.3225205 0.31450796 0.13131212 0.079310745
-0.27174148 0.22440876 0.056532256 -0.2830879 -0.030537156 -0.005350263 0.031641796 0.29397577
0.33433807 0.103140876 0.03128808 0.1060335 0.02035297 -0.32684845 -0.20739053 0.0848912
0.20295973 0.07407863 -0.14740485 0.27904853 -0.33303064 0.17778854 0.16407153 0.12623532
-0.05909836 0.0980631 -0.24265268 -0.11332013 0.17809202 0.30532125 -0.276749 -0.13373908
-0.43690476 -0.18811962 0.32481334 0.092286825 -0.15214361 0.5138244 -0.2447583 0.53822654
-0.06359375 0.1423194 0.2861122 -0.06197228 0.16108581 0.17129906 -0.045225296 0.12924926
0.36215672 0.35235918 0.08781009 -0.5382134 -0.16174938 -0.35501173 0.010621075 -0.062216286
0.17777865 0.24809858 0.0939211 -0.21576318 0.19567078 -0.0577644 0.1856863 0.33613822
0.10908725 -0.263929 0.16358232 -0.3072121 0.041562382 0.44435978 0.30071038 -0.4451852
0.045356486 -0.0025005965 -0.12729391 0.17709722 -0.10921047 0.03051519 -0.21677288 -0.078528196
0.1570046 -0.07067148 -0.05781884 0.23561476 -0.097802594 0.24610646 -0.07259091 -0.2703759
0.016215991 0.10210209 -0.20069121 0.13604364 -0.19921523 -0.25799784 0.2912049 0.38289896
0.3552011 -0.19874497 0.021075334 0.22663514 -0.5363394 0.43497625 -0.29200232 -0.037917968
-0.192755 -0.30401683 0.3455239 -0.11853605 -0.121887125 -0.18138814 0.023296962 0.04620683
-0.20178793 0.07275066 -0.21542843 0.13870253 -0.26032075 -0.19556111 -0.24152774 0.38980502
0.30185995 -0.7730689 0.19449142 -0.44240424 0.10361241 0.21182899 -0.093251474 0.13531978
0.19710675 -0.17973968 -0.5693337 0.03062302 -0.1938873 -0.00081028685 0.16236061 0.27431124
-0.15413336 -0.31245145 -0.17373554 -0.3891617 0.1995484 -0.0995997 -0.13161099 -0.072992936
0.08727538 0.008753098 -0.034394763 -0.09256151 -0.20899838 -0.122970164 0.21976237 -0.21869776
0.15753563 0.020308873 -0.004623364 0.17547344 -0.36522943 -0.23724553 0.29701948 -0.05638223
-0.44009697 0.10187485 -0.023344463 -0.18515411 -0.4877703 0.15011539 -0.1812869 -0.17068197
-0.14921893 0.065600954 -0.05586197 -0.16973539 0.1937004 -0.34866977 0.20454574 0.31766695
0.35019213 -0.29418078 -0.34637892 0.0020531719 0.06310135 -0.087049276 0.018138243 -0.39936548
0.25792748 0.34721765 -0.4750317 0.1262004 -0.043010604 0.3610314 0.20561577 -0.20602751
0.10661792 0.23955545 -0.34486017 0.028807314 0.34651652 0.24545605 0.096391186 -0.14024857
-0.12979983 -0.4796598 0.19885385 -0.64541143 -0.24242076 -0.21874082 0.17015797 0.21762414
0.04666729 -0.34145683 -0.053722188 0.13766314 -0.31168103 -0.17285392 -0.15238549 -0.18520278
-0.053968452 0.072117925 0.2392674 0.056103457 0.19299541 -0.27028236 -0.009942224 0.016496578
0.13975857 0.30753833 0.1901559 -0.17743322 0.066006176 0.34368497 0.19838378 0.29565224
-0.23028713 0.31212392 -0.102167726 -0.68871224 -0.34057283 -0.14353666 0.16668524 -0.6473568
0.04934313 -0.20112772 0.6023502 -0.054016527 -0.34371576 0.16029488 -0.12506308 -0.3160846

fc1.bias f4 [256]
00000000: e4e4 a93c 3759 d938 0565 59bc 45a1 93bc
00000010: 6468 5c3d 7f92 7ebc 4360 92bc 6211 763c
00000020: cb59 8abd b252 15bc e1fe 413b 46e5 333b
00000030: eb43 1bbd 5c3b 1c3c d820 88ba b8e9 ba3b
00000040: 6c76 d5ba 47d1 d03a 9d8c 743a f102 af3a
00000050: 050e 66bc c48d 3cba 48df a53c 52de 583a
00000060: 40a4 d1bb 6b2b cebb 0f9c 693c 5d7f b8bc
00000070: fdf5 87bb f858 0abb d38e febc a699 c3ba
00000080: a361 19bb bf31 4cbd 0522 1f3c 5991 3c3b
00000090: 6f3d 263c 393f 45bc b10f d4bc b7e5 bc3b
000000a0: 2049 863c ae65 143b f8d2 27bc 58cc 8bbc
000000b0: 7f4d fd3b f8d9 9e3b 97df 56bc 6f0b f03c
000000c0: b920 c0bc 4262 363b e845 25bc a0b6 f3bb
000000d0: 3fa5 11ba 2d4e 53bb f3a2 14bb 031c 94bb
000000e0: 3f0d 1b3c 5f04 b7bc 33c1 5ebc 5af2 e43a
000000f0: 2258 593b 37f0 333c 77c8 613c e2dc 2cbb
00000100: 27be 8e3b d8cd 69b9 554a 1c3b ae95 63bb
00000110: dc99 063a 24dd 66bc 2d2a 70bc da2e 2d3b
00000120: 3b2f 3c3a c4a9 80bc c88c 693c 315f a23c
00000130: 8bd2 523c b1de 713c 27e9 f23a e3ee 8cbc
00000140: 4f93 7fbb 9230 403c 06e6 b63c 0657 d83a
00000150: 4301 e83a 2874 2d3c ff7d 07bc ed10 19bc
00000160: 16c0 1a3c 2add 243b adf9 bcbb 14f7 383c
00000170: cf68 4a3b 8149 1cbc 4679 9dbb 3b85 023c
00000180: 6a90 9bbb 741e aabb 8d03 77bc 87ff 1bbc
00000190: 12ab e53c 22c6 2bbb ce92 f739 f17a c53b
000001a0: aa5a 4fbc 89d1 3cbb efed 74ba 37e2 22bc
000001b0: e048 1f3c d346 743c 4f60 1dbb 488c 06bb
000001c0: 4f0c 013a 1545 553b 74cc a4bc 97ad 8abb
000001d0: 98cc 8d3c 3bf7 0f3c f4bb dc3c 55ae 683b
000001e0: 30cf 95ba 9539 9dbb 6cdb f4ba 43ff a63c
000001f0: ae3e 1cbc 6df5 4d3c 8ab1 aebc 6e08 dbbc
00000200: b2a6 23bc 4255 453c 7ff6 3e3c 531c abbc
00000210: bc2e 44ba 0a5b 35bb 5eff 7ebc 1617 47bc
00000220: e3b5 f2bb 7b10 3a3c efbc 253d 5ce6 d53a
00000230: 042b 52bc 3b82 5ebc bfc3 02bc 10cc 083c
00000240: 95d8 723b 275f 1539 4681 6d3c b4b4 643b
00000250: 9231 27bc 0283 fdbb 03c8 3f3b 6fa7 f2ba
00000260: 2171 533b 9139 08bc b515 e33b 0029 d33b
00000270: ac02 b8bc 7abc 46ba 534e e63b 8800 10bc
00000280: 5d06 3c3c c4e2 123a a120 343c 7062 94bc
00000290: a3b8 1c3c 7db0 64ba e013 f03a 9958 e538
000002a0: b1d5 083c a59b 9e3a 39a3 593c c9a5 183c
000002b0: 453e c03b 5741 9cbc dc52 d1bc ae54 a4bc
000002c0: 0950 05bc e501 2a3b 35ac 803c 98bf 67bc
000002d0: 0f55 b2bb 2404 9a3b 34c1 9739 9ea1 4c3c
000002e0: 87a0 11bd e693 0f3b f521 1bbc 6618 773b
000002f0: e84c 5a3c e8cb 323c ad03 22ba c33d a53b
00000300: c19d 103c 0607 5bbc edb8 c1bb 819c bf3c
00000310: 7042 e93a 0665 9ebb cc27 84bc 43c3 69bc
00000320: 570b 8cbc 6085 82bb aba7 60bb 8d62 293b
00000330: d93c 833b a374 c2bc 38e8 3c3d 63bb cf3b
00000340: 1aac 57bd 1c2a c03c ffb1 20bc a52e 873a
00000350: 6ed1 013c 466a 3a3a 1c49 ce3c 0208 bfbb
00000360: 8f21 873a a629 aabc 35cc 50bb c2c8 b33b
00000370: 9c9a 573c 725a 84bc 6e3c 66ba 7347 1b3c
00000380: e92d 073c ddf6 12bc 622b 333b 69b9 17bb
00000390: 2227 053c 9ae7 64bc ae5d 40bc 6c1f 90bb
000003a0: 6207 173c 835b 7c3b c796 d5bb 4164 bf3b
000003b0: 00c9 83bd f962 8d3a e618 bdbb 4d07 a6bc
000003c0: 5409 00bc ec30 98bc 02ea 733c 7943 beba
000003d0: 057e a73d d47c 133c e36d e6bb 2860 dfb9
000003e0: c193 6ebc bf04 bdbc c8b5 a43b 1d24 3d3a
000003f0: 4f12 0cbc d019 043d 8987 163c 7fd1 453c
0.020739026 0.00010363984 -0.013268714 -0.018021235 0.053810492 -0.015537857 -0.017868167 0.015018793
-0.06755408 -0.009113954 0.0029601383 0.002744989 -0.03790657 0.009535637 -0.0010385765 0.005704131
-0.0016285903 0.001593151 0.00093288143 0.0013352317 -0.014041428 -0.00071927556 0.02024807 0.00082728744
-0.006397754 -0.006291797 0.014258399 -0.022521669 -0.004149197 -0.0021110158 -0.031073963 -0.001492311
-0.0023404143 -0.04985213 0.009712701 0.0028773157 0.010146483 -0.012038999 -0.025886388 0.005764689
0.01639229 0.0022643614 -0.01024317 -0.017065212 0.0077301855 0.0048477612 -0.013114831 0.029302327
-0.023453103 0.0027829562 -0.010087468 -0.007437542 -0.00055559346 -0.0032242641 -0.0022680133 -0.004519941
0.009463607 -0.022340951 -0.013595867 0.0017467246 0.0033164104 0.010982565 0.013780705 -0.0026376774
0.004356164 -0.00022297294 0.0023848016 -0.0034726667 0.0005134621 -0.01409081 -0.014658493 0.002642563
0.0007178669 -0.01570595 0.014254756 0.019820781 0.01286758 0.014762566 0.001853262 -0.017203754
-0.0038997715 0.01173033 0.02232648 0.0016505427 0.0017700571 0.010586776 -0.008269786 -0.009342414
0.009445211 0.0025156238 -0.0057670684 0.011289377 0.0030885225 -0.009539009 -0.0048057167 0.007966335
-0.00474744 -0.0051916186 -0.01507653 -0.009521372 0.028035674 -0.0026210626 0.0004722089 0.0060266186
-0.012655893 -0.0028811416 -0.0009343316 -0.009941629 0.009721965 0.014909464 -0.0024013703 -0.0020530391
0.00049227936 0.0032542397 -0.020117022 -0.0042321193 0.017309472 0.008786972 0.026945092 0.00355043
-0.0011429545 -0.004798124 -0.0018681115 0.02038539 -0.009536428 0.012570721 -0.021324892 -0.026737418
-0.009988474 0.012044253 0.011655449 -0.02088753 -0.00074837706 -0.0027672672 -0.015563814 -0.0121515
-0.0074069365 0.011356468 0.040463384 0.0016319263 -0.012827639 -0.013580854 -0.00798124 0.008349434
0.0037055362 0.00014245194 0.014496153 0.0034897747 -0.01020469 -0.0077365646 0.0029263503 -0.0018513034
0.0032263475 -0.008314506 0.006930078 0.0064440966 -0.022462212 -0.0007581186 0.00702838 -0.008789189
0.0114761265 0.0005603249 0.010994107 -0.018113345 0.009565505 -0.00087238086 0.001831647 0.000109360735
0.008351729 0.0012100829 0.013283544 0.00931687 0.005866798 -0.019074125 -0.025552206 -0.02005991
-0.008136758 0.002594107 0.015707115 -0.014144801 -0.0054422687 0.0047002006 0.00028944912 0.012489704
-0.03555348 0.0021908223 -0.009468545 0.0037703752 0.013324 0.010912873 -0.00061803573 0.005042763
0.008826674 -0.013368374 -0.0059119374 0.023390057 0.0017796289 -0.0048338203 -0.016132258 -0.014267745
-0.017095251 -0.0039831847 -0.0034279625 0.0025846094 0.0040050563 -0.023737257 0.0461199 0.006339477
-0.052654363 0.02345758 -0.009808063 0.0010313584 0.007923467 0.0007111173 0.025181346 -0.005829812
0.0010309684 -0.020771813 -0.0031859998 0.0054865787 0.01315942 -0.016156409 -0.00087828084 0.009477484
0.008250692 -0.00896999 0.002733909 -0.0023151285 0.008127006 -0.013971234 -0.011741085 -0.004398277
0.009218069 0.0038506694 -0.006518218 0.0058408086 -0.06434822 0.0010786942 -0.0057707904 -0.020267153
-0.007814724 -0.018578015 0.014887335 -0.0014515958 0.08178333 0.009001929 -0.0070321425 -0.00042605517
-0.014561594 -0.023073552 0.005026553 0.0007215159 -0.008549287 0.03225118 0.009187588 0.012073874

fc2.weight f4 [128, 256]
00000000: 5ff6 e6bb 80db e4ba 61f9 803c a795 e23d
00000010: 6e03 503e 1caa 97bc 696a dfbd c0d4 b13d
00000020: 726c 0ebe 8467 b03d 36f0 923d c61c 083d
00000030: 5a2d 0dbd d452 8fbd 4efb 763b 7663 703d
00000040: 07eb 053c afc0 e8bd 36a3 1e3e 5507 4a3c
00000050: 7869 2ebe 5277 a1bd 826a 233d c063 993b
00000060: 145a d03d bf54 be3d 0023 eabb 8290 043e
00000070: a60c c6bc f090 66bd 557f 36be 1d5a 83bd
00000080: aa9d 093d d403 d63d 29c5 f63c a2b1 04be
00000090: 9898 dd3d 6839 4a3c e5ac 9bbe ef69 7f39
000000a0: a9b1 173d 5142 10bc 083d c13d d5cd 87bd
000000b0: 8144 013c f498 0f3e 26fe 59bd c508 143e
000000c0: 59cc 353d 06fc d1bd 325b 51be be6e 0a3e
000000d0: 34e2 233d 3093 7bbd eef7 fb3c fa78 96bd
000000e0: 0f94 0e3e a852 35bd 8e26 173e 7e42 903c
000000f0: 230c 433d 8bad edbd de5c dcbc f59a 6f3d
00000100: 7835 abbd b4e7 dd3d c0b0 c7bb 37d1 67bc
00000110: e721 b5bc 9723 ac3d 8711 37bd af75 2ebd
00000120: 46f7 fabd 975b 4f3e 6802 c0bc bc0b c6bd
00000130: 3291 283e 356d a0bd b6d7 993d d93c 87bc
00000140: 2bbf 813c 02a1 973d ca0f 383e 0ca2 3b3e
00000150: a578 f4bd 625e a1bc 30dd 0a3e 4cf9 afbd
00000160: 39ca bc3d 51c2 52bc 352b d8bd dd8e f9bd
00000170: fdc7 a4bc 9968 2a3e f4aa 3cbc 0378 a0bd
00000180: 83e1 f6bc c317 33bc 1dc1 623d 3299 d53c
00000190: 246d 823c 11c8 adbd 86d6 093e 77ba 8bbd
000001a0: c183 81bc 90bc f73d 31ba 3abe b641 e1bd
000001b0: ae87 853d b4cc ea3c 3c1b 223d 2ac5 3bbe
000001c0: 4cb3 203d 8b11 863d 5e01 833d 156b c23d
000001d0: 1aca b73d 388f 36bc 8dbb 5a3d f444 6b3e
000001e0: 3cf2 f7bb f67a 983d 670b c73d dd1a 8abd
000001f0: d870 b3bc 2576 2e3e 1c83 0c3e 5cf7 e23d
00000200: 79be 1b3d b3b3 19bd d263 a83d 5301 2f3e
00000210: 7cbb f6bd e674 5c3d 619e 033c 9471 173e
00000220: 80e8 933d 5729 7c3b a45f f93d 2ce3 5b3e
00000230: cf5e 2d3e bdb7 003e 5c6a 0c3e 6795 c2bd
00000240: 843d 753d 7e1e b7bd 9ac6 313e e3ba 94bd
00000250: 0b59 85bd 862b 1d3d 5d5d 47be 3e94 9cbc
00000260: 4e75 873d 5d59 093e 6392 e6bd 1772 a9bd
00000270: 6d25 e43d bc4b e5bd 8a50 be3d ab27 143d
00000280: 9e7d 4e3e 6056 213e b137 8f3d 2340 a23d
00000290: 453f 7abd 779d 35be 0978 593d 6448 0d3e
000002a0: 2939 09bd 05f0 5c3d 6710 513e d1cc 8e3e
000002b0: e4d9 08be 0e06 2d3e 92c8 53ba 6cb0 e43c
000002c0: 4971 9b3c e49a ef3d bd06 073e 157e b6bd
000002d0: f81e de3d fb35 273e cfa1 67bd 4bf0 ae3d
000002e0: 3397 053e 5a31 de3d ce61 23bd a272 143e
000002f0: 04df 62bd 90d3 873d 255d ef3d 4f5a fd3d
00000300: 331a 5b3e 7f36 10be ffdc bebd 7190 a83d
00000310: 0a8c 9abc 3577 033d ad38 c33c 8c03 ab3d
00000320: a8b3 873b 83a9 933d e300 c6bc 0c5b 253e
00000330: 9aff b43d 7f4b 483d fcf0 d93d 1386 0b3e
00000340: 8f26 02be f02a a03d 2baa f5bd 73a7 7cbb
00000350: 8cc2 b9bd 77e5 e9bd 1e9f bdbd 509f bb3d
00000360: 3f46 853d 69db 56bd 9f0c 873d 710e 4f3d
00000370: b1ca 04bd 1b35 05bd ce5a 66bc d06f d33c
00000380: 357a e43d 5471 d0bd 0731 b63b c939 ff3d
00000390: de55 6fbe 68e1 ce3d e075 443d ffcc 34bd
000003a0: d08b f0bd 44dc 9b3d 3281 11be be09 993d
000003b0: 7850 623e b38e e43b 12d1 1abb a54b e63d
000003c0: 05fd 563d 38fa 683e 6b85 43bd 0928 28be
000003d0: b615 2bbd dbee be3c 9eb7 653d 5031 fbbd
000003e0: e83d 4abc ba60 a83c 3664 963c 9220 3ebc
000003f0: 0b6f 9fbd be35 2e3e 489a f53d af91 a8bd
-0.0070484127 -0.0017460436 0.015743913 0.110637 0.20313808 -0.018513732 -0.10908968 0.08683157
-0.13908556 0.08613494 0.07174723 0.033230565 -0.03446708 -0.0699822 0.003768641 0.058688603
0.008173711 -0.113648765 0.15491948 0.01233085 -0.1703242 -0.07884087 0.039896496 0.0046810806
0.10173431 0.09293508 -0.0071452856 0.1294575 -0.024175953 -0.056290567 -0.17822011 -0.06413672
0.033597626 0.10449949 0.03012331 -0.12958387 0.108201206 0.012342788 -0.30405346 0.00024358158
0.037034664 -0.008804874 0.09435469 -0.06631056 0.007889868 0.1402319 -0.05322089 0.1445647
0.044384334 -0.10253148 -0.20444945 0.13518807 0.040010646 -0.061419666 0.03075787 -0.07347293
0.13923667 -0.04426828 0.14760801 0.017609831 0.047618996 -0.11605366 -0.026899751 0.058497388
-0.08359808 0.108352095 -0.0060940683 -0.014149002 -0.022110892 0.08405226 -0.04469445 -0.0425927
-0.12254195 0.20249783 -0.023438647 -0.09670207 0.16461638 -0.078333296 0.07511847 -0.016508507
0.015838226 0.07403757 0.17974773 0.18323535 -0.119370736 -0.019698326 0.13560939 -0.085924715
0.092182584 -0.012863711 -0.10555116 -0.12185452 -0.020114893 0.16641463 -0.011515368 -0.078353904
-0.03013683 -0.010930958 0.05535995 0.026074026 0.015921183 -0.08485425 0.1346074 -0.06822675
-0.015809895 0.12096512 -0.18235089 -0.109988615 0.065200195 0.028662063 0.039576754 -0.18336931
0.03923349 0.06546315 0.06396745 0.094930805 0.08974095 -0.011142544 0.05340152 0.22975522
-0.0075667184 0.07445328 0.09718972 -0.06743405 -0.021904394 0.17037256 0.1372189 0.11082336
0.038023446 -0.03752489 0.08222164 0.17090349 -0.120474786 0.05382242 0.008033366 0.1478942
0.0722208 0.003847679 0.12176445 0.21473378 0.16930698 0.1257009 0.13712448 -0.095011525
0.05987312 -0.08941363 0.17360917 -0.07262208 -0.06511124 0.038371585 -0.19469209 -0.019113656
0.06614171 0.13412996 -0.1125839 -0.08273714 0.11139951 -0.11196086 0.09292705 0.036170643
0.20165107 0.15755606 0.06993044 0.07922389 -0.061095495 -0.1773585 0.05309299 0.13797146
-0.033501778 0.053939838 0.20416413 0.27890638 -0.13364369 0.16896841 -0.00080788985 0.027916156
0.018974917 0.11699465 0.13186164 -0.08910767 0.108457506 0.16329186 -0.056550797 0.08541926
0.13045959 0.10849257 -0.039888196 0.14496854 -0.055388466 0.06632149 0.11687688 0.123707406
0.21396713 -0.14083289 -0.093194954 0.08230675 -0.018865604 0.032096107 0.023830736 0.08350286
0.0041412897 0.07210066 -0.024170345 0.16148013 0.08837815 0.048900124 0.10641667 0.13625364
-0.12710021 0.0782069 -0.119953476 -0.0038551956 -0.0907031 -0.1142072 -0.09258865 0.09161246
0.06507539 -0.05245534 0.06594204 0.05055088 -0.032419864 -0.03252135 -0.014059735 0.025810152
0.11156122 -0.101778656 0.0055600437 0.124621935 -0.233726 0.101015866 0.047963977 -0.044140812
-0.11745417 0.07610372 -0.1420944 0.07472561 0.22101009 0.006975019 -0.002362315 0.11244897
0.052487392 0.22751701 -0.04773466 -0.16421522 -0.041768752 0.023307255 0.056083314 -0.12265265
-0.012343861 0.020553935 0.018358331 -0.011604445 -0.07784852 0.17012689 0.119923174 -0.08230912

fc2.bias f4 [128]
00000000: 80cf e83c fcbf 8fbb 035d 57bc e54e 563b
00000010: cfb9 cbbb ce08 46bb a211 60bc b848 3fbc
00000020: 453e 11bb 9633 2e3c 42a7 4f39 f61a 14bb
00000030: 52e7 cebc 21b1 ed3b cd11 70bc d365 69bc
00000040: 1b92 b33c 5e49 34bc 9ffa a6bc f1bd 40bc
00000050: a907 363c 6260 60bb 0e93 c33c 2f5d a5bb
00000060: 4691 edbb 9309 12bc ab88 4f3b c13b 25bc
00000070: de83 3a3c 1006 c73c 840c 8f3c d298 4bbb
00000080: d077 873c cb17 363c 5c20 d43b 9009 7abb
00000090: 68d1 6fbc d9c0 8f3c f018 233c f297 923b
000000a0: ebf9 6ebc 8ef0 12bc c1f2 6dbc ae7e a9bc
000000b0: e4a4 983a d281 86bb 8ee1 203c caf9 7ebc
000000c0: 7120 27bc dc65 45bd c994 d33c d9d6 8d3c
000000d0: ae2b b5b9 3d91 15bc 6900 a9b8 0f08 85bc
000000e0: cfbb 84bc ec3d 1ebc 5e67 85bc 6fb1 e83c
000000f0: 9cd0 9b3b 9567 bcbc 87a5 6fbc 68ae 0fb8
00000100: a475 afbb e6c4 243b b4e5 1ebd 6c09 b7bc
00000110: 5d3a 97bb 634a ba3a 1bc9 d63a 0210 93bc
00000120: 6e1d 7c3c 2349 8bb9 fe4c 0bbd 46ba 19bc
00000130: cfc5 a63c ffb4 bfbc 794e 8fbc fde4 0c3c
00000140: 0917 303c 28ff 7bbc ab1f ba3c 219c 0e3c
00000150: 7c8f 89bc e395 29bc 2fa2 8a3c c3a2 cc3b
00000160: 7abe 203c 2b4b b23b d111 36bd 89e3 26bc
00000170: 911b ca3b 40bb 183d 9537 92bb 5fc1 e2bc
00000180: b0c5 78bb 172a 8fbc 38db e93c a6c9 5e3c
00000190: 795d 2c3c 543f 25bd 9147 ff3b a515 d2bc
000001a0: ad8a f4ba 32d2 feb9 6d98 0cbc d328 693b
000001b0: 48de 98bb b7cd 493c f434 aaba e360 f13b
000001c0: e3be f0bc 1127 82bc d5bc 813c 988c eebb
000001d0: 1337 e0bc af2c dfb9 efdb 88bc bcee 813c
000001e0: b1d0 0abd 55a6 a13c 5f91 2bbc e39b 8f3c
000001f0: df69 b039 61d2 b63c 9030 2bbd ee60 1fbc
0.028419256 -0.0043869 -0.013144734 0.0032700833 -0.0062172185 -0.003021765 -0.013676079 -0.011675052
-0.002216236 0.010632416 0.00019803367 -0.0022599078 -0.025256786 0.0072537814 -0.014652682 -0.014245468
0.021920254 -0.01100382 -0.020383177 -0.011764036 0.011110225 -0.0034237136 0.023873832 -0.0050465087
-0.007249984 -0.0089134155 0.0031667154 -0.010085047 0.011383979 0.024294883 0.017462023 -0.003106643
0.016536623 0.011114071 0.006473584 -0.0038152672 -0.014637329 0.017548012 0.009954676 0.0044736797
-0.014585952 -0.0089684855 -0.014523209 -0.020690288 0.0011645821 -0.0041048313 0.009819401 -0.015562484
-0.010200606 -0.048192844 0.025827782 0.017314361 -0.00034555554 -0.009128866 -8.0586244e-05 -0.016239194
-0.016202835 -0.009658318 -0.01628464 0.02840492 0.004755093 -0.02299861 -0.014626867 -3.4256285e-05
-0.0053546 0.0025141775 -0.03879328 -0.02234336 -0.0046151117 0.0014212843 0.0016386838 -0.017951969
0.015387876 -0.00026566637 -0.034008972 -0.00938279 0.020357994 -0.023401735 -0.017493473 0.008599517
0.0107476795 -0.015380658 0.022720179 0.008704216 -0.016792051 -0.010350677 0.016923038 0.0062449886
0.009811038 0.0054410896 -0.044450585 -0.010186085 0.006167837 0.03728795 -0.0044621923 -0.027680097
-0.0037959628 -0.017476125 0.028546914 0.013597881 0.0105203325 -0.040343598 0.007790514 -0.025645087
-0.0018657051 -0.00048603263 -0.008581263 0.0035577312 -0.00466517 0.012317113 -0.0012985752 0.007366286
-0.029387897 -0.015887769 0.015837112 -0.0072799437 -0.027370011 -0.00042567166 -0.016706435 0.015860908
-0.03389043 0.019732634 -0.010471671 0.017530387 0.00033648216 0.022317113 -0.04179436 -0.0097277

fc3.weight f4 [64, 128]
00000000: c2e5 263e 099f c83d 354e 503e d1a3 fabd
00000010: 0bb3 5b3d 0609 7cbe ec76 163e e6d4 a6bd
00000020: 3ad6 da3d 51a3 cf3a d76c 5bbe c3ce fabc
00000030: ba80 173e 21bd 713d 09be 92bc a3cd ac3c
00000040: ce7d 763d 8281 bbbc 218d b8bd b585 c13d
00000050: 26ea 6a3d 3920 60be 963a 9dbe 07d3 17be
00000060: 8c35 813d 442e e9bd 9576 a43d bf22 c73d
00000070: be77 a93d 83e2 1ebe c35b 61be 1179 06be
00000080: 3fe8 95be b3e2 cdbd 2e62 263e 7e10 54bd
00000090: 5566 a33d ff74 d5bd 83ec 0fbe 9336 55be
000000a0: 5c9b 2dbd 310e 0cbd 0a76 8abd 604a 20be
000000b0: 5dfd 44be 7189 8c3e f326 683d 57cd 443e
000000c0: a203 dd3d 8aec 803e 55a0 fa3d 802a 2bbe
000000d0: dffd b9bd 7d67 c33c 511a 0f3e 4b50 3b3b
000000e0: 724d 36be 5f93 813e 6947 82bc cb7b f43d
000000f0: 1345 30be e054 153d 27bd e2bd 97fc 0e3e
00000100: 8c59 7fbc a1a6 af3d 10c8 3b3e c2dc 12be
00000110: ee82 44be f5c2 58be 93e7 e63d b51f 753e
00000120: 23af fa3c 7290 473d 04fb f83d f814 e4bd
00000130: 551c fb3c 6d91 db3d ddf8 613d 8ae5 7bbe
00000140: ce49 7cbe 6a5f 4abe 5a41 5cbd 5aa5 ec3d
00000150: a596 bb3d eea0 81be 1c95 583d 70ad 4d3e
00000160: 3cb0 153e 32dd 40bd da4f 823e 7991 043e
00000170: c47e a93d f9ff 78be d3f5 8bbe cc28 403e
00000180: 3f32 84bd 5c96 a33d 0b19 f43c fce8 b8bd
00000190: 07b9 043e 7c0c 84bd 4744 ba3d bd5c 203d
000001a0: 449f 1b3e b016 25bd 64ec 8a3e cb4f e13d
000001b0: 9a3e 3cbe db45 8ebe 7b0d ca3a 139e c23b
000001c0: b5ee 91bd 626e fdbd a44c 01be eddf 3c3e
000001d0: 1f61 123e 9218 3a3e 7268 2abe f423 2b3d
000001e0: 3c0d bfbd 384e 633d 71c0 ae3d e5a4 07bc
000001f0: 539a bcbd 1f71 923c 23ea fb3d 63f9 e53d
00000200: 3c94 453e a60c d0bd 4a0c 89bd 0b61 adbd
00000210: 90da 36be 31b2 6bbd ddec 473e c58d 84bc
00000220: 6ee2 4dbe d8d1 993c b4bd af3c 02c7 9d3e
00000230: 613e 21be cef5 5d3c 68a3 8dbe f017 dd3d
00000240: b405 07be 6c1a 753e 4ee5 b9bd 4a3e bbbd
00000250: 924a 6fbe aad9 0abe ed18 753e ea78 ea3c
00000260: bb73 b5bd b49b 48be bf45 24be 2aaa ddbd
00000270: 6f06 a13e a9ee 02bc d8fa 8b3c 230b 1abe
00000280: b456 0bbe b334 593d a03f 00be 5513 32be
00000290: b72a 2d3b 6f4d 90be 0c9b f03c 9e6f 58be
000002a0: 7180 b03e ab1b 883d 4c12 d0bd e388 713e
000002b0: 4101 6b3d 46a3 05be d683 5d3d 96a9 323e
000002c0: e609 1e3d 9714 abbd 53fe 343c 045a 3dbb
000002d0: f29b 613e 6a21 12be 9684 313e f4a0 d1bd
000002e0: fec5 9fbe faa8 a53d 499c 2d3d 40e2 8f3d
000002f0: 7f4d 183e 7f73 bb3d 732e 5d3d 0c66 06be
00000300: 0730 71be 2bc0 f43d 360f 613e 3baa 93bd
00000310: 00a5 0a3e 4853 67bd ed75 6fbb 8638 70be
00000320: 47af 25be c0c1 14be e292 c03d ef43 193d
00000330: 8ce2 eebc 00b1 1fbd 1c51 43be 9491 ea3d
00000340: ca29 2e3b 01e3 8fbc fb5e a9bd 99e3 dabd
00000350: 0169 b33d 9955 81bc 2a39 213e 70d9 143d
00000360: d4e0 813c f407 23bd dde9 af3b af5e f9bd
00000370: 5ca4 e2bc ef15 db3d c1ab a1bc 6137 5abe
00000380: ff4e 8fbe 2456 813d 8d86 62be cde1 62be
00000390: 3140 b23b d8b8 37be a2da 81bd fa0b 403e
000003a0: 2c0d 043e 644f c33c 87d1 c7bd 10cc 323d
000003b0: c7b3 3ebe 37e4 dd3d beb5 ca3c 7b9d 5d3d
000003c0: c38b 623e 0679 94bc 71fc 943d af43 04bd
000003d0: e8b2 07be d47b 11bd ac5f 31be 7e7a 60be
000003e0: a30c 01be 6720 b9bd 8110 ffbd 2ee2 f8bd
000003f0: 48d9 8fbd edf6 84bd 4a8d 6abd 4b90 6b3e
0.16298583 0.097959585 0.20342334 -0.12238277 0.053637546 -0.24612817 0.14693803 -0.08146076
0.10685392 0.0015841519 -0.21428238 -0.03061617 0.14795199 0.059018258 -0.017912881 0.021094149
0.06017857 -0.022888903 -0.09011293 0.09449331 0.057352208 -0.21887292 -0.3070876 -0.14826594
0.063090414 -0.113857776 0.0803043 0.09723424 0.08274792 -0.15516095 -0.2200766 -0.1313212
-0.29278752 -0.10053005 0.1624839 -0.05177354 0.07978503 -0.10422706 -0.14055066 -0.208216
-0.04238449 -0.03419322 -0.067607954 -0.15653372 -0.19237275 0.2744861 0.05667777 0.19218956
0.107917085 0.25180465 0.12237612 -0.16715431 -0.09081625 0.023853058 0.13974883 0.0028581794
-0.1780298 0.25307748 -0.015903192 0.11937674 -0.1721385 0.036457896 -0.11071234 0.13963543
-0.0155853145 0.08576704 0.18338037 -0.14342025 -0.1919057 -0.2116812 0.11274638 0.23937877
0.03060109 0.04872174 0.121572524 -0.11136812 0.030653158 0.10721097 0.055168975 -0.24599281
-0.24637529 -0.1976296 -0.05377326 0.11554976 0.091595925 -0.25318092 0.052876577 0.20085692
0.1461801 -0.04708595 0.25451547 0.12946118 0.08276132 -0.24316396 -0.27335986 0.18765563
-0.06454896 0.07987663 0.029797098 -0.09028813 0.12961207 -0.06447694 0.09095054 0.039150942
0.15197474 -0.04030484 0.27133477 0.110015474 -0.18383256 -0.2778767 0.0015415394 0.005939254
-0.07125608 -0.123745695 -0.12626892 0.18444796 0.14294861 0.18173435 -0.16641405 0.041782334
-0.09328696 0.055494517 0.08532799 -0.00827906 -0.092091225 0.017876206 0.123005174 0.11229207
0.19294828 -0.101586625 -0.06691797 -0.08465775 -0.17856812 -0.057542983 0.1952395 -0.016180882
-0.20105907 0.01877682 0.021452762 0.30815893 -0.15746452 0.013547374 -0.27663732 0.10795581
-0.1318577 0.2393586 -0.090769395 -0.0914274 -0.2336829 -0.13559595 0.2393529 0.02862211
-0.088599645 -0.19590646 -0.16042231 -0.10823472 0.3145022 -0.007991471 0.017087385 -0.15043311
-0.13607293 0.053028774 -0.12524271 -0.17390187 0.0026423165 -0.28184077 0.029370807 -0.21136329
0.34472993 0.06645902 -0.1015974 0.23587374 0.057374243 -0.13050565 0.054080807 0.17447504
0.03858366 -0.083535366 0.011046964 -0.0028892765 0.22032145 -0.14270559 0.17335734 -0.102357775
-0.31205744 0.0808887 0.042385373 0.07025576 0.14873312 0.091528885 0.053999376 -0.13124865
-0.23553477 0.11950716 0.21978459 -0.07210203 0.13539505 -0.056475908 -0.0036538795 -0.23459062
-0.16180144 -0.14527035 0.09403016 0.037418302 -0.02916076 -0.03898716 -0.1907391 0.11453548
0.0026575201 -0.017564299 -0.08270069 -0.10687942 0.08760262 -0.015787886 0.15744463 0.036340177
0.015854277 -0.039802507 0.005368455 -0.121762626 -0.027666263 0.10697543 -0.019735219 -0.21310188
-0.27989957 0.06315258 -0.2212164 -0.22156449 0.005439781 -0.17941606 -0.06340529 0.18754569
0.1289565 0.023841567 -0.09756761 0.04365164 -0.18623267 0.10834544 0.024744865 0.054105263
0.22123627 -0.018124115 0.07274712 -0.03229111 -0.13251841 -0.035518482 -0.17321652 -0.21921727
-0.12602477 -0.090393834 -0.1245432 -0.12152515 -0.07023865 -0.0649241 -0.05726365 0.23004262

fc3.bias f4 [64]
00000000: 5184 563c 4605 55bd 454d 0cbd 3cab 593b
00000010: d9ed 053d 215b 91bc d3ff b8bc 8768 04bc
00000020: 51f6 0a3b 5e39 6bbd 1ef7 6d3c 3394 1eba
00000030: 0d99 b4bc 164f abbc 6a8f 083d 9431 8c3c
00000040: 1c92 c6bc d63b 29bc e21b da3b 11f4 46bc
00000050: 5939 183a 8501 46bc 0a78 52bb 4cae 813d
00000060: 292f 633c 35f8 c03c 715d 043c edec 1dba
00000070: 2a0b c63c 8e0e ddbc 450d f6bc 416c 263c
00000080: 6e89 ac3c 26da 023d cc29 4cbd c11c 983b
00000090: 9bad a6bb 6eeb b9bc e7d8 89bb e913 9ebc
000000a0: 65ae d03c f7a1 383c a689 523c a148 01bd
000000b0: 3b2e 9a3a 9e01 cb3c 9549 31bc bf3d 0cbc
000000c0: 53be e33b efd3 f63b ad50 f93a bd3b 85bd
000000d0: 5701 7e3c 5948 babc 1909 0b3a 7ba0 85bd
000000e0: 7f34 da3b fcc7 9bbb c356 afbc d953 4c3b
000000f0: 589f 693c d653 bdbc 68a2 1bbd 70af e4bc
0.01309307 -0.052006982 -0.034253377 0.0033213636 0.032697532 -0.017743649 -0.022582924 -0.008081562
0.0021203945 -0.057427756 0.014524249 -0.0006049305 -0.022045637 -0.020911735 0.033339895 0.017113484
-0.024239592 -0.010329207 0.006656156 -0.012143151 0.00058068853 -0.012085323 -0.0032115006 0.063320726
0.013866224 0.023555854 0.008078919 -0.00060243794 0.024175245 -0.02698448 -0.030035624 0.010157646
0.021061625 0.031946324 -0.049844548 0.0046420996 -0.0050866134 -0.02269527 -0.004206765 -0.019296603
0.025473783 0.011269084 0.012850201 -0.031563405 0.0011763045 0.024781045 -0.010820766 -0.008559643
0.0069501786 0.0075325887 0.0019021236 -0.06505535 0.015503249 -0.022739576 0.0005303785 -0.0652475
0.00665909 -0.0047540646 -0.021403676 0.0031177907 0.014259182 -0.023111265 -0.03799668 -0.027915686

fc4.weight f4 [23, 64]
00000000: b3fb 2abf 1648 1ebf 4ac2 e3bc a7ff ab3e
00000010: 8c9a 183f b17b 5cbf 1d4b e2be 958d 65be
00000020: a235 0fbf e90d 10bf 8e70 a9be 95e2 17bf
00000030: d81b 2abf 7ac6 f4be 1e9a 523d 602c 1d3f
00000040: 5557 e8be e109 0dbf 0bb5 cbbe 1076 78bf
00000050: d623 86be ba8f 143f 53ca 8fbe fab6 1a3f
00000060: a02f 173f b03b 71bf f51c dcbd 60e6 4e3e
00000070: 6075 c93d d9f4 26bf 7241 5abf 4b14 bbbe
00000080: fa4a b8be 133b 77bf d36b 973e 1c2c 373e
00000090: 6aaa 14bf 7a09 cabe dc2f 17be dcea 0bbf
000000a0: a8e4 0a3f db5c 93be bb7f 6ebb decf c3be
000000b0: 0d68 b63e 3e78 40bf 3fc0 3b3f 1e04 53bf
000000c0: 5cb2 31bf 3a84 c7be 52d9 c2bd 1f25 9dbe
000000d0: b589 c53e 0b63 21be 0084 c9be a7c9 6e3e
000000e0: 6a28 95be c652 03bf b8e9 7ebe d72c 053e
000000f0: 6dc6 f23e 71ee 71be 9dbd 03bf 1720 bfbe
00000100: c3ab 993e dd58 6a3e dec9 2a3e d8a0 0e3e
00000110: 272c a6bd d06d ffbd b6f0 233e 14f3 a7be
00000120: b3e2 96bd 5271 a53d 5c6c dd3d 46be ecbe
00000130: 57bb 56bd e644 e5be ac09 c93d b56b 513d
00000140: 26d1 83be 826e 1fbe cb16 eebd ce44 793e
00000150: 9115 053e 4173 e13d 3daf 133e 2971 07bc
00000160: 8659 ee3d 09f1 aebe 5c3c 57bd a9d7 0bbe
00000170: ff32 9ebe 6dfb 07bf 9879 0e3d e6a4 4e3e
00000180: 016f a1be 6e04 aabb 87de 893e 975e 173e
00000190: 989d d43d 4afb 62be 5e39 9fbd 1300 53be
000001a0: cb79 363e 6da2 963d ae9a f53c 9dcc 5abd
000001b0: df75 3bbf 1ccc c2bc 084a a2be 8c37 5ebd
000001c0: 3764 483e 2efc d1bd 2239 75be 7e7a a3bb
000001d0: 5dcd 28bc a664 56be 88d6 30bd 5d1a cc3d
000001e0: b5c4 d13c 8816 b4bc 9c76 6a3d 07f6 58be
000001f0: f651 53be 7d48 abbe 8d96 8cbe 28ad 5c3d
00000200: bf0a fcbb ca2d d43c dc53 95be 95d0 89be
00000210: 278a 06bf ac83 16be e8e4 38bf ff0d 5f3d
00000220: 1ca9 c8be 6909 8e3e 3ba6 00bf 316e 983e
00000230: 9abb 143d 5ead 8b3d 4ac9 d0bd da88 09bf
00000240: a0b3 d13e a496 953c 33b1 71be 7cdb 22be
00000250: 1fb1 88bd abee 80be d593 a5be ab17 a23d
00000260: 2cbb bc3b 3202 afbe f20d d9bd aa0a cdbe
00000270: 4797 0a3e dcef 743e 014b a73e b84a 07bd
00000280: ef2b 2b3d 3925 c4be aa6c f6bd 4d95 5f3e
00000290: dd75 d33e 2624 afbe a093 9abe 07d0 113e
000002a0: 5613 9dbe a717 783d c1f9 07be 00e1 993d
000002b0: 6484 713d 98e2 5a3e 86f5 0fbf 301b 94be
000002c0: 2142 8b3e a371 8b3e e158 fdbe 5b91 653e
000002d0: 1ddd 07bf 00f2 993c bf90 813e 9536 babe
000002e0: 31be 53be d05f aabe 243a 83be 0f30 85be
000002f0: 63a8 783e bc4e 68bc 37e8 45be 0e60 b23d
00000300: 35b2 b2be 0302 cf3d 32d2 72be b8da db3d
00000310: 481f 5e3f 177b 8bbe e59b 65be 5ff4 17be
00000320: c656 c7bd 5c3f d3bd 87b0 b0bd 5a9d 363d
00000330: b38e 95be cc6a b8bd 534b cc3d 6038 463e
00000340: 1948 3f3e 049c 0f3c a759 2d3e 8aeb 463d
00000350: 7648 abbe 2317 313e d4aa 53be 8e1f 023e
00000360: a053 1ebf 702c 983e cf97 753c 2ded 02be
00000370: 87a9 afbd f846 e13c 4562 f43e 6c21 833d
00000380: 66bd bebd 03d5 6bbc 47a6 18bd 1fda 12be
00000390: 2bde a13e 0b1b e7bd aa4b ea3e 0dfc c9ba
000003a0: 9c69 413e 49fd 673d 636e eabe 9562 4abe
000003b0: 3df7 b53e 4f12 71be dbf1 083f 4c41 403e
000003c0: 49fe 263e ba7a f0bd c624 c5be 7fcd de3c
000003d0: 0805 c03e 3b4f 96bd f8d8 a9bc b160 1f3f
000003e0: 2467 0ebf 01af c33d 08cc 9cbb 37a8 ee3c
000003f0: 5e5c 423e 3b26 e2bd 0a0e 7dbd e432 90be
-0.6679031 -0.61828744 -0.027802605 0.33593485 0.5961082 -0.8612624 -0.44197932 -0.2241729
-0.5594121 -0.56271225 -0.33093685 -0.5933011 -0.66448736 -0.47807676 0.05141651 0.61395836
-0.4537913 -0.550932 -0.39786562 -0.9705515 -0.26199216 0.5803181 -0.2808405 0.6043545
0.59057045 -0.942317 -0.107477106 0.20205069 0.09836841 -0.6521736 -0.8525611 -0.3653892
-0.35994703 -0.96574515 0.2957445 0.1788792 -0.5807253 -0.39460355 -0.1476435 -0.5465524
0.5425515 -0.2878178 -0.0036392051 -0.38244528 0.3562626 -0.75183475 0.7334022 -0.8242816
-0.6941278 -0.38968068 -0.09514107 -0.30692384 0.38581625 -0.15760438 -0.3935852 0.23319112
-0.29132396 -0.5129818 -0.24893844 0.13005386 0.47417012 -0.23626114 -0.514612 -0.3732917
0.30013856 0.22885461 0.16678569 0.13928545 -0.0811389 -0.12472117 0.16009793 -0.3280264
-0.07367458 0.08078255 0.108116835 -0.46238917 -0.052424755 -0.44779128 0.09816298 0.051128108
-0.25745505 -0.15569499 -0.11625441 0.24342653 0.12996508 0.11008311 0.14422317 -0.008266726
0.11638169 -0.3416827 -0.052547798 -0.13656487 -0.30898282 -0.5311802 0.03478393 0.20180091
-0.31530002 -0.0051885163 0.26927587 0.14782177 0.10381621 -0.22166172 -0.07774614 -0.20605497
0.17819898 0.07355199 0.029980984 -0.05341779 -0.7322673 -0.023778968 -0.31697106 -0.054252192
0.19569479 -0.102531776 -0.23947576 -0.0049889674 -0.010302869 -0.20936832 -0.043173343 0.09965966
0.025606493 -0.0219834 0.05724202 -0.21187602 -0.20636734 -0.33453742 -0.2745861 0.053876072
-0.0076917107 0.02590074 -0.29165542 -0.26916948 -0.52554554 -0.14698666 -0.72224283 0.054456707
-0.3919152 0.27741554 -0.5025365 0.2977157 0.036311723 0.068201765 -0.10194643 -0.53724444
0.40957355 0.018260308 -0.23602752 -0.15904039 -0.06674408 -0.2518209 -0.3233935 0.079146706
0.0057596173 -0.34181362 -0.10598363 -0.400472 0.1353427 0.23919624 0.3267441 -0.03303024
0.041789945 -0.3830965 -0.12032445 0.21834297 0.4130086 -0.34207267 -0.30190754 0.14239512
-0.30678815 0.06056943 -0.13278867 0.075136185 0.05896415 0.21375501 -0.56234014 -0.28926992
0.2719889 0.27235135 -0.49481872 0.2241873 -0.5307177 0.018792152 0.25305745 -0.36369768
-0.20678021 -0.33276224 -0.25630295 -0.26013228 0.24282984 -0.014178928 -0.19326864 0.08709727
-0.34901586 0.101078056 -0.23712996 0.10735077 0.8676648 -0.27242348 -0.2242275 -0.14839314
-0.097333476 -0.10314819 -0.0862742 0.044583656 -0.29210433 -0.09004745 0.099753045 0.19357443
0.18679847 0.008765224 0.16928731 0.04856447 -0.3345372 0.17293982 -0.20670635 0.1270735
-0.6184635 0.29721403 0.014989807 -0.12785788 -0.08577257 0.02749966 0.47731224 0.06402859
-0.09313469 -0.014394048 -0.03726795 -0.14341019 0.31614813 -0.11284455 0.45760852 -0.00154102
0.18887943 0.056638036 -0.45787343 -0.19764169 0.3554019 -0.2354214 0.5349404 0.18774909
0.1630794 -0.11742158 -0.38504618 0.027197598 0.3750384 -0.07339331 -0.020733342 0.62256914
-0.5562613 0.09554864 -0.0047850646 0.029132945 0.18980548 -0.11042448 -0.061780967 -0.28163826

fc4.bias f4 [23]
00000000: 17d0 b9bc 3abd ac3d efae 8b3d b89d b23e
00000010: e0e2 4b3d 0308 a3bd 0728 43be b102 b8bc
00000020: 50f9 863d fc7a 50be cbf6 01be d26a 0f3d
00000030: fc42 08be bf08 e7be 4e2e 3abe 065a 2abe
00000040: 6f20 f6bd aa3a e33d 8bb2 1fbe bab4 86be
00000050: 739b 853d 8796 c13d 0299 093e
-0.022682233 0.084345296 0.06820475 0.34885955 0.04977691 -0.079605125 -0.19058238 -0.02246222
0.06590521 -0.20359415 -0.126918 0.03501398 -0.13306803 -0.4512386 -0.18181726 -0.16635904
-0.12017905 0.11095174 -0.15595452 -0.26309758 0.0652379 0.09452539 0.13437274

bn1.weight f4 [256]
00000000: 6232 623f ed07 8c3f f84c 753f 53f3 8b3f
00000010: e9f0 793f 4855 553f c790 853f 30d5 813f
00000020: fb7f 8e3f e1ad 593f c1be 8b3f 5da2 883f
00000030: 76f7 713f 8d8c 823f 0d10 623f ece2 873f
00000040: f825 733f 17a7 7e3f 5511 613f 166a 663f
00000050: 02a8 723f 17cd 7c3f 8f0d 6e3f 1564 703f
00000060: f59a 843f f9a8 823f 9b23 703f 8ed8 783f
00000070: 9fe8 8b3f 4959 663f ff97 8e3f eeda 5d3f
00000080: e198 5d3f 2873 9a3f df22 6c3f 0c0a 5a3f
00000090: b979 523f 8063 523f c3e1 823f 9394 673f
000000a0: f930 5e3f dd0a 613f bf06 643f 6d3c 683f
000000b0: 7de9 7c3f a46f 843f 173f 8f3f a356 683f
000000c0: 2249 883f 98a7 7f3f aca0 663f 6b08 493f
000000d0: 6f37 893f e9c1 993f fd7c 583f 59fa 803f
000000e0: efd0 6a3f 2471 8c3f c139 553f 006e 753f
000000f0: ab7e 663f 4939 6f3f 6b40 673f e528 793f
00000100: ffac 693f aa2b 7f3f 9e61 803f 0ed1 5c3f
00000110: be93 5e3f 0ef1 5e3f a701 8e3f 448b 693f
00000120: 50dc 643f f9b6 5a3f 3307 6b3f e43d 833f
00000130: 319a 753f 2683 8e3f 0e93 643f 0f75 733f
00000140: 34f7 673f 0513 853f 656e 813f 4c00 903f
00000150: 1c1a 803f c18a 813f 54e8 833f 0cbc 693f
00000160: f632 513f b3cb 6b3f cb54 5f3f f746 5e3f
00000170: deed 4c3f c795 733f db23 7b3f 9b43 533f
00000180: 7505 7e3f e05d 643f 03f2 913f 4c51 623f
00000190: 6ddd 8c3f 6a84 633f f6f2 6f3f c103 713f
000001a0: 7b5b 813f fc67 5c3f b94e 6a3f 3233 7c3f
000001b0: e457 803f 47d6 683f c90b 623f 3843 6f3f
000001c0: b47f 6d3f 2ec3 813f 85de 813f 8092 6f3f
000001d0: 04e7 553f 3f71 883f ef3c 993f 0aff 893f
000001e0: c8af 613f b8ea 6b3f 1fe0 783f d782 883f
000001f0: e064 813f c3d3 623f 4a43 743f 2951 683f
00000200: 938e 943f f050 6a3f ff44 5b3f da21 653f
00000210: 6f8e 7f3f abb9 6c3f e208 903f bccc 763f
00000220: 4d36 633f 5336 5b3f e71c 733f df1c 6f3f
00000230: 8e25 643f acce 623f 21c9 713f 9d26 653f
00000240: f5b2 5f3f e9c4 6e3f aa02 753f 6a33 673f
00000250: ad3e 613f 2080 5d3f 311e 643f 17ad 7b3f
00000260: 806a 8a3f 22b2 8d3f bfb7 773f 3dce 7e3f
00000270: 6827 733f a540 753f abb5 7e3f d129 603f
00000280: 42ac 733f e672 5e3f 883b 973f 19f3 663f
00000290: 53ef 463f ecbc 8e3f 9a77 6c3f 7100 663f
000002a0: 464c 583f a4e7 613f 419d 813f fd11 983f
000002b0: 79d8 753f bbeb 4a3f 049a 733f e47d 703f
000002c0: 281f 613f 2d07 6e3f c584 6b3f 84a3 703f
000002d0: fa55 5b3f c53d 6d3f 1454 473f f9df 583f
000002e0: fa1b 803f 951e 633f 76da 743f de72 583f
000002f0: 0543 653f 1c60 7c3f f2d8 863f 2f9a 6a3f
00000300: b960 723f c335 703f 467e 613f 6a6d 563f
00000310: 9f95 613f cc49 853f a1fb 653f 9ed1 673f
00000320: 0274 6b3f f2d2 8f3f 3b0e 4c3f 5e9c 943f
00000330: 5019 6a3f 55c5 813f de74 5b3f 5fb0 8c3f
00000340: 55f7 903f 000d 6f3f 0aaf 523f aedf 653f
00000350: 6464 6b3f b4a3 503f d38a 793f ff06 5c3f
00000360: 6eb6 843f a7f8 733f 82cc 613f 9215 7e3f
00000370: a094 643f 3943 763f cdba 4a3f 48e2 7b3f
00000380: 9ca1 983f 0dff 543f cc5b 803f 7f31 6f3f
00000390: 6817 733f bf72 513f 1ded 573f 1e46 693f
000003a0: 3cc1 6c3f 6603 5f3f 46dc 763f 6b32 513f
000003b0: 167e 8f3f 9a2a 6c3f 0d8b 4f3f 460c 6e3f
000003c0: 87ce 683f 0b39 733f 19e3 8b3f f8d7 7b3f
000003d0: a747 6b3f 7a77 543f 01cc 693f d251 703f
000003e0: 1101 933f af1d 853f 6a48 683f a6a0 653f
000003f0: 1ded 5a3f 5a89 6d3f efaa 733f ab82 6a3f
0.8835813 1.0939919 0.9582057 1.0933632 0.97633225 0.83333254 1.0434808 1.0143185
1.1132807 0.85030943 1.0917588 1.0674549 0.9451822 1.0199143 0.8830574 1.0616126
0.9497981 0.9947371 0.8791707 0.90005624 0.9478761 0.9875044 0.9298944 0.93902713
1.0359789 1.0207816 0.9380433 0.97205436 1.0930365 0.8997999 1.1140136 0.86662185
0.865614 1.2066393 0.9224071 0.8517158 0.82216984 0.82183075 1.0225147 0.9046108
0.86793476 0.879072 0.89072794 0.907172 0.98793775 1.034657 1.1191128 0.907572
1.0647318 0.998651 0.90088916 0.7852847 1.0720042 1.2012302 0.84565717 1.00764
0.9172506 1.0972028 0.8329125 0.9587097 0.9003703 0.93446785 0.9033267 0.97328025
0.91279596 0.99676 1.002979 0.8625649 0.86944187 0.8708657 1.1094254 0.9122813
0.8939867 0.85435444 0.9180786 1.0253263 0.959384 1.1133773 0.8928689 0.9510049
0.9061158 1.0396429 1.0111815 1.1250091 1.0007968 1.0120469 1.0305276 0.9130256
0.81718385 0.92107695 0.8723876 0.86827034 0.80050457 0.9515042 0.98101586 0.8252503
0.99227077 0.8920574 1.1401981 0.884053 1.1005074 0.8887392 0.93730104 0.94146353
1.0106043 0.8609617 0.9152637 0.9851562 1.0026822 0.9095196 0.8829923 0.9346194
0.92772985 1.0137689 1.0146033 0.93582916 0.83555627 1.065956 1.197172 1.0780957
0.88158846 0.9215503 0.9721698 1.0664929 1.010891 0.8860437 0.95415175 0.9074884
1.160601 0.9152975 0.85652155 0.8950478 0.9982671 0.92470807 1.1252711 0.9640615
0.8875473 0.8562977 0.94965976 0.9340343 0.89119804 0.88596606 0.94447523 0.89512044
0.8738244 0.9326921 0.9570719 0.90312827 0.8798626 0.8652363 0.8910857 0.9831099
1.0813751 1.1069987 0.9676475 0.99533445 0.94982004 0.95801765 0.99495953 0.87563807
0.9518472 0.8689407 1.1815042 0.9021469 0.7770893 1.1151404 0.9237 0.89844424
0.84491384 0.8824408 1.0126115 1.188049 0.96033436 0.79265946 0.95156884 0.93942094
0.87938166 0.929797 0.91999465 0.93999505 0.85678065 0.9267238 0.7786267 0.84716755
1.0008538 0.8871854 0.95645845 0.84550273 0.8955539 0.9858415 1.0534956 0.91641515
0.9467884 0.93832034 0.880833 0.837607 0.8811893 1.0413146 0.8983708 0.90554225
0.9197389 1.123625 0.79709214 1.161022 0.91444874 1.0138346 0.857252 1.0991324
1.132548 0.9337921 0.8229834 0.89794433 0.9195006 0.8149979 0.97477454 0.85948175
1.0368173 0.9530129 0.8820268 0.99251664 0.89289284 0.96196324 0.79191285 0.9839215
1.1924319 0.83201677 1.0028014 0.934349 0.9495759 0.81815714 0.8434618 0.91122615
0.9248235 0.8711456 0.9642986 0.81717557 1.1210353 0.92252505 0.8107155 0.9298748
0.90940136 0.95008916 1.092868 0.9837642 0.9190621 0.82994807 0.9132691 0.9387485
1.14847 1.0399684 0.90735495 0.89698255 0.85518056 0.92787707 0.951827 0.91605633

bn1.bias f4 [256]
00000000: 0a8e 92bd be24 6a3e d92f adbc 456b 243e
00000010: 8c82 c3bd 096d 2dbe d307 8b3d 0fe2 f5bd
00000020: aff2 b7bd e314 6bbd 418c 053d c61d 14bd
00000030: 37a6 88bd bfc9 5cbd d867 c1bd 4663 33bd
00000040: 3d68 8bbd b728 943d 09d0 c7bd 98cd 31bc
00000050: 424a 1cbd 3620 873d 4b60 c73c d903 87bd
00000060: 3cde ad3d 46ba 093d 6402 e0bd 9d40 03bd
00000070: 200f 99bd e9d6 5dbd db51 213e 504e 59bd
00000080: 54f9 15be b242 1bbe 9e52 163d 2a4c f0bd
00000090: 5ecc 4fbd de29 25be 18df 87bd 7f9b 61bd
000000a0: 1f61 cabd 3028 eebc e828 c0bd f4f0 33be
000000b0: 1423 e03c b289 c93d baea 59bd 49c8 3f3d
000000c0: d892 30bd a2e0 64bd 85ca c3bc b368 25be
000000d0: 3ce8 ce3d 3451 8f3c c8ca 133b 4460 8aba
000000e0: 02e5 62bd fa38 e1bb e14c cbbc 8035 373d
000000f0: 0910 39bc a310 a2bd a03c 07bd e956 04bd
00000100: 5ab4 3abd c821 a73b 2300 0fbe 6784 10bd
00000110: 8ea8 55be b3ed 94bd dfe8 fc3d 68c7 34bc
00000120: 4d69 dbbc 3074 fabd d9f1 9bbd 1134 113e
00000130: e377 8fbc 98cf 0c3e 1925 08be 2eef 4fbe
00000140: 5e7a 68bd c190 53bb cf3c a4bc 9684 6cbd
00000150: d708 a2bd c8bf 273d 30b6 823c 1e04 6dbd
00000160: 217a 8dbd 86b1 dbbd d23f 0fbe cd3a ddbd
00000170: 0c50 cdbd 049c c1bd 77be afbd 51f6 a7bd
00000180: 80df 51bd ad55 4ebe d1e3 0a3e 58db e2bd
00000190: 444f a1bc 9123 ffbd d75f 51bd c470 c8bc
000001a0: b475 febc c28c b2bd 4276 74bd 6d63 aabc
000001b0: aee3 10be d807 fcbd 5d6e a8bd 4e65 ffbd
000001c0: bbca 86bd 4252 693d 8036 4cbd 3edc 92bd
000001d0: 9279 b7bd 99f8 c1bd f7f5 0ebe 1597 413b
000001e0: 7792 beba 529b bbbd d65e 613e dc5a bf3d
000001f0: 6584 863d 8dc7 b2bd 09bc 323c 4537 423d
00000200: 26e3 033e caf0 fbba 52e2 d8bd 1ab1 0dbe
00000210: bfec bdbc 8c13 f9bd 4bd0 4a3d ffbd cdbd
00000220: 104a 64bc be90 873d c6c2 ef3d c751 05be
00000230: c24a 7bbd f5ea 11bd 5678 49bc c1ef a7bd
00000240: dcb5 f3bd bef2 00bd dbe3 cd3b 2021 1bbe
00000250: 9ce4 47be ef7c bfbd 1402 9dbd 2be4 19bd
00000260: 03ba 5e3d be80 dc3c 9d4d 853c b4cb 80ba
00000270: 9558 9cbd 71a6 053c f9ae febd b7ab 84bd
00000280: a71b 7bbd 50c0 773d e151 ff3d 8683 76bc
00000290: accd 52be 35f4 b03d 796f b1bd 60d4 13be
000002a0: 76df 86bd 7914 d5bd 49b4 973c eb22 8d3b
000002b0: fb2a e3bd fbc0 e3bd bb5f a23d 1deb 233d
000002c0: 122c 4abd db11 c6bd 8e33 763d 951a 19be
000002d0: cd9f 37bd 7396 1dbe 6eb5 a8bd 8caf a7bd
000002e0: 1d1c 233a eb44 40be bfea 0dbe 48e2 e2bd
000002f0: a2e7 a8bd ac4f 0bbe 993e af3d 8e2b 89bd
00000300: a5d5 9dbd a0d3 96bd 726a 8ebc 94ab 4fbe
00000310: f352 0cbe 1e02 43bd 1272 143c c76c 6d3e
00000320: d8e6 8b3c c090 8c3e 8540 c5bd f7f8 e7bd
00000330: 0edb a1bd ebd8 3d3c 4705 74bd 278e 243d
00000340: 573d 38be f0da 533c f8dd 54be 77af e1bd
00000350: 30c6 2fbe f795 5cbe ee78 21be 55e6 4abd
00000360: a021 a53c 7262 3cbd b50b e4bd 5314 8fbd
00000370: fe13 83bd 1e54 213e c534 87be 62b9 4c3d
00000380: 9f34 cf3d f2b3 59bd 781f 95bd 8060 44bc
00000390: 7951 d43d cea0 01be 4a2a a8bd 05b2 b7bd
000003a0: ffa6 3fbe 7d1c 0fbb 5b63 7fbd 7716 3cbe
000003b0: 7fe9 09bd cb9f 3dbe 6543 0bbe 839d 18be
000003c0: 01cc b9bc bed0 01bd ed4c a0bd 81a0 99bd
000003d0: 6489 523d 6816 11be c222 d6bd 2390 463d
000003e0: 0bd7 02bd e3ac 0d3e d9b7 b9bd 4263 dfbd
000003f0: c900 d33c 714a 59bd cf51 f43d c36d 06be
-0.07155998 0.22865579 -0.02114098 0.16056545 -0.09546384 -0.16936125 0.06788602 -0.12006008
-0.08981835 -0.057392966 0.03260446 -0.036161207 -0.06672328 -0.053903338 -0.09443635 -0.043795846
-0.06806991 0.07234328 -0.097564764 -0.01085224 -0.038156755 0.065979406 0.024337908 -0.06592531
0.084896535 0.03362491 -0.10937956 -0.032044042 -0.07473588 -0.054160032 0.15753882 -0.0530532
-0.14645892 -0.15162161 0.036699884 -0.11733277 -0.05073201 -0.16129252 -0.06634349 -0.055079933
-0.09881806 -0.029071897 -0.09382802 -0.17572385 0.027360477 0.098407164 -0.05320237 0.046821866
-0.04310879 -0.05587829 -0.02390028 -0.16153221 0.10102889 0.017494775 0.0022551287 -0.0010557254
-0.05539418 -0.006873247 -0.024816932 0.044728756 -0.011295327 -0.079133295 -0.0330168 -0.032309446
-0.045582153 0.0051004626 -0.13964896 -0.03528252 -0.2086508 -0.072719 0.12349104 -0.01103387
-0.02678361 -0.12229192 -0.07614488 0.14180018 -0.017513221 0.13751066 -0.13295402 -0.20306084
-0.056757323 -0.0032282325 -0.020048527 -0.05774363 -0.07911842 0.04095438 0.015956014 -0.057865255
-0.0690806 -0.10727219 -0.1398919 -0.10802231 -0.10025033 -0.09453586 -0.0858125 -0.08201278
-0.051238537 -0.2014987 0.13563468 -0.11076993 -0.019691117 -0.12457956 -0.05111679 -0.024467833
-0.031061985 -0.08718254 -0.059683092 -0.020799363 -0.14149353 -0.123061836 -0.08224175 -0.12470494
-0.065816365 0.056963213 -0.049856663 -0.07170914 -0.089587346 -0.09471244 -0.13961016 0.0029539515
-0.00145395 -0.091604844 0.22008833 0.09343502 0.06568221 -0.087294675 0.010909089 0.04741599
0.12879619 -0.0019221541 -0.10590042 -0.1383709 -0.023184178 -0.121619314 0.04951505 -0.100460045
-0.0139336735 0.06619404 0.11707072 -0.13019477 -0.06135059 -0.035624463 -0.012296757 -0.08200026
-0.11899921 -0.031481497 0.006283266 -0.15149355 -0.19520801 -0.09350001 -0.07666412 -0.037571114
0.054376613 0.026916858 0.01627236 -0.0009826333 -0.07634083 0.0081573585 -0.12435717 -0.064780645
-0.06130567 0.060486138 0.12466789 -0.015046006 -0.2058627 0.08640329 -0.0866384 -0.14436483
-0.065855905 -0.104042955 0.018518584 0.004307141 -0.11092182 -0.111207925 0.079284154 0.040019143
-0.049358435 -0.096713744 0.06010776 -0.14951546 -0.044830132 -0.15389423 -0.0823773 -0.0818778
0.0006222146 -0.1877629 -0.1385908 -0.11078316 -0.082473055 -0.13604611 0.085568614 -0.066977605
-0.07706765 -0.07364583 -0.017384741 -0.20280296 -0.13703518 -0.04760944 0.0090604 0.23186027
0.017077848 0.27454185 -0.09631447 -0.11326783 -0.079031095 0.011587362 -0.059575345 0.04017463
-0.1799215 0.012930617 -0.207878 -0.110197954 -0.17165446 -0.21541582 -0.15768787 -0.049536068
0.020157635 -0.045992322 -0.111350454 -0.069862984 -0.064002976 0.15754744 -0.26407447 0.049981482
0.101174586 -0.053150125 -0.07281393 -0.011985898 0.10367102 -0.12658998 -0.08211191 -0.089695014
-0.18716048 -0.0021837049 -0.062350612 -0.18367945 -0.033669945 -0.18517987 -0.13599928 -0.14903836
-0.022680284 -0.031693213 -0.078271724 -0.07501317 0.051400557 -0.14168704 -0.10455848 0.048477303
-0.031943362 0.13835482 -0.09068269 -0.10907604 0.02575721 -0.05304951 0.11929666 -0.13127808
