Parte II/TEC_AD_TP2/models/fcn_best_run_09_seed_99.pt (torch, 229038 bytes, 20 tensors)

fc1.weight f4 [256, 41]
-0.28746814 -0.64302456 0.21119264 0.20444073 -0.69845337 0.15142508 0.19387409 -0.122362584
0.32986447 -0.17195164 -0.16401953 -0.25824687 0.22364481 -0.13300192 -0.31661305 -0.36418402
-0.30814993 0.22376624 0.21601821 0.1653279 0.039812732 -0.08871486 0.0058401544 -0.18200639
0.03726431 -0.071121685 -0.3081709 0.23587798 0.05392742 0.040811844 -0.42796522 0.122282304
0.38232937 -0.07664959 0.06494987 -0.05108193 -0.24415448 -0.15118328 -0.5161517 -0.06802803
0.073525436 0.06975185 0.21490385 0.1762075 0.048793808 -0.20701459 -0.28058094 0.123289414
0.19305782 -0.16758873 -0.29182246 0.12992388 0.3468426 -0.076993056 0.27036434 -0.3491439
0.029558191 0.048543412 -0.21536905 -0.048302315 -0.18528207 0.13390663 -0.32300496 -0.06900097
-0.18627603 0.0840418 -0.3103296 -0.05201542 -0.11976912 0.37815294 -0.03371926 0.24538459
-0.22552593 0.02122746 0.014120259 0.2181441 0.37963107 0.22051834 0.051254854 -0.73592407
0.28466135 -0.21991377 -0.079468824 -0.044140384 0.30326524 -0.29128575 -0.31189102 -0.37243047
0.24765112 -0.13490193 -0.3341097 -0.14080225 0.13556924 0.14842911 -0.44780877 0.26580727
0.09779705 -0.47087508 -0.07702939 -0.03906981 0.4263781 -0.33100215 -0.21127853 0.3456923
0.014295873 0.29140288 -0.0744447 0.041233372 -0.12421507 -0.029662829 0.38310608 -0.2034806
-0.17220072 0.062241975 0.1562221 0.40420392 0.09452459 0.16756986 0.08816376 0.24134871
-0.21347988 0.20957686 0.2929379 -0.23081687 0.088611014 0.23792727 -0.1300825 0.2878602
-0.23188163 -0.2661794 -0.185063 -0.4820572 -0.08532638 -0.29486167 0.35492206 0.043643016
0.14431807 0.31288588 0.1027943 -0.36120692 0.11224897 0.19777969 0.38848275 -0.05038144
-0.1034632 0.10327977 -0.15153769 -0.18020034 0.22584209 0.2902307 -0.1005772 0.18231322
-0.054649852 0.23240818 -0.20806679 -0.22154744 0.4004011 0.29992452 -0.2019011 -0.41198182
0.29678503 -0.34294993 0.012852231 0.03735487 0.14121859 -0.008129254 0.2793303 -0.2635407
-0.37706193 -0.24134949 -0.13858883 -0.056290004 0.2835215 0.120733485 -0.02316544 0.24262208
-0.2810801 0.3437488 -0.27367896 0.24693197 -0.09742741 0.2380296 -0.20100021 0.16160615
-0.34098443 0.12768255 -0.33789653 0.033168666 0.03635748 0.010220272 0.1699909 0.20988673
-0.18349652 -0.0484926 0.28257036 -0.49166736 0.34640446 -0.07795835 0.15748298 0.23754121
-0.19271316 0.1333628 -0.6154777 0.39417338 0.15668593 -0.13558729 0.42346206 0.0009704767
-0.19482644 -0.05793949 0.013040349 0.39970747 0.034232195 0.2638504 -0.26343626 0.11000731
0.18132354 0.07113934 0.06205589 0.2210587 -0.26029417 -0.13329984 0.1699105 0.095428295
-0.41006625 -0.16449492 0.10807941 -0.41541076 -0.25019437 0.44452256 0.41571173 -0.02616134
0.02130542 -0.10212627 0.2583156 0.14591913 -0.26991704 -0.15478045 -0.21786158 -0.018140756
-0.3805403 0.3589589 -0.22874196 -0.1973839 0.06167071 -0.19489966 0.17162266 -0.049865615
-0.3317932 -0.03770538 0.42388484 -0.023065342 -0.17156853 -0.2769864 -0.01962876 -0.11689476
00000000: 062f 93be 429d 24bf e242 583e e958 513e
00000010: d7cd 32bf 2d0f 1b3e ee86 463e 3c99 fabd
00000020: ffe3 a83e 1714 30be bcf4 27be ef38 84be
00000030: 2503 653e a831 08be 1b1b a2be 5476 babe
00000040: d4c5 9dbe fa22 653e e133 5d3e b84b 293e
00000050: ad12 233d 23b0 b5bd c45e bf3b e25f 3abe
00000060: 76a2 183d 3fa8 91bd 94c8 9dbe ff89 713e
00000070: 00e3 5c3d 522a 273d 421e dbbe 256f fa3d
00000080: adc0 c33e 76fa 9cbd 7004 853d 493b 51bd
00000090: a203 7abe cacf 1abe 8522 04bf 4852 8bbd
000000a0: 8194 963d 0fda 8e3d c10f 5c3e bd6f 343e
000000b0: 04dc 473d a2fb 53be 4ea8 8fbe 297f fc3d
000000c0: f3b0 453e 619c 2bbe c169 95be c40a 053e
000000d0: 5a95 b13e 89ae 9dbd 326d 8a3e fdc2 b2be
000000e0: 0524 f23c 75d5 463d b489 5cbe a6d8 45bd
000000f0: 95ba 3dbe d21e 093e e860 a5be 6150 8dbd
00000100: 25bf 3ebe 1b1e ac3d 85e3 9ebe 1f0e 55bd
00000110: 8349 f5bd 439d c13e 351d 0abd 1946 7b3e
00000120: 45f0 66be 36e5 ad3c a958 673c 2b61 5f3e
00000130: 015f c23e 8fcf 613e 9cf0 513d 8565 3cbf
00000140: 22bf 913e 1331 61be 8dc0 a2bd 8ccc 34bd
00000150: 9545 9b3e 6823 95be 2eb0 9fbe 35af bebe
00000160: 4198 7d3e bb23 0abe 6d10 abbe 772e 10be
00000170: aad2 0a3e cdfd 173e 3147 e5be e417 883e
00000180: d249 c83d 8a16 f1be 96c1 9dbd aa07 20bd
00000190: 3b4e da3e 1d79 a9be 6659 58be 95fe b03e
000001a0: 3d39 6a3c c232 953e 7676 98bd 53e4 283d
000001b0: 7864 febd 76ff f2bc 7b26 c43e 385d 50be
000001c0: 6355 30be 71f1 7e3d b0f8 1f3e d1f3 ce3e
000001d0: 1c96 c13d 6f97 2b3e 348f b43d 1e24 773e
000001e0: 789a 5abe 519b 563e f5fb 953e 425b 6cbe
000001f0: b179 b53d 35a3 733e 5934 05be 6a62 933e
00000200: 6172 6dbe ab48 88be 2881 3dbe 34d0 f6be
00000210: 99bf aebd 1cf8 96be 58b8 b53e 05c3 323d
00000220: 1ec8 133e 9432 a03e d185 d23d 1df0 b8be
00000230: cae2 e53d c286 4a3e 36e7 c63e c55c 4ebd
00000240: 84e4 d3bd 5884 d33d b22c 1bbe 7086 38be
00000250: 2643 673e 1e99 943e 6bfb cdbd 51b0 3a3e
00000260: 86d8 5fbd 69fc 6d3e 760f 55be 55dd 62be
00000270: 5f01 cd3e b58f 993e 29bf 4ebe 48ef d2be
00000280: 35f4 973e 2297 afbe 2a92 523c 6c01 193d
00000290: 9b9b 103e 9030 05bc 6204 8f3e ceee 86be
000002a0: 430e c1be 5224 77be 3bea 0dbe 5990 66bd
000002b0: bb29 913e 1e43 f73d 73c5 bdbc ec71 783e
000002c0: bbe9 8fbe d8ff af3e a61f 8cbe bcdb 7c3e
000002d0: 0688 c7bd 08be 733e 00d3 4dbe 157c 253e
000002e0: 8395 aebe 37bf 023e c600 adbe dedb 073d
000002f0: 95eb 143d ed72 273c 1812 2e3e 8cec 563e
00000300: 83e6 3bbe 2da0 46bd 10ad 903e d3bb fbbe
00000310: ed5b b13e a1a8 9fbd 3843 213e 013e 733e
00000320: 9956 45be 4290 083e f28f 1dbf 18d1 c93e
00000330: 4772 203e 65d7 0abe 05d0 d83e 9767 7e3a
00000340: 9580 47be f551 6dbd 30a7 553c 75a6 cc3e
00000350: 0f37 0c3d 6617 873e 1ee1 86be 834b e13d
00000360: e1ac 393e 81b1 913d 512e 7e3d 365d 623e
00000370: 4745 85be c17f 08be 05fd 2d3e e96f c33d
00000380: 34f4 d1be 5b71 28be bd58 dd3d b8b0 d4be
00000390: 7a19 80be 7698 e33e 2bd8 d43e 4e50 d6bc
000003a0: b488 ae3c 9427 d1bd f141 843e d36b 153e
000003b0: 9132 8abe c47e 1ebe 1b17 5fbe ec9b 94bc
000003c0: 2ed6 c2be 76c9 b73e 553b 6abe 011f 4abe
000003d0: 6d9a 7c3d c793 47be dabd 2f3e e33f 4cbd
000003e0: cce0 a9be f570 1abd 6f07 d93e 87f3 bcbc
000003f0: a9af 2fbe 29d1 8dbe 7ecc a0bc 8566 efbd

fc1.bias f4 [256]
0.01031157 0.00035230923 -0.011262167 -0.011233871 -0.0029880402 -0.0081953695 0.014491129 0.011912404
0.014772393 -0.006393468 0.005894234 -0.0045387405 0.006411518 0.0015248922 -0.011568851 0.012459218
-0.0071682404 0.029050807 -0.009563036 -0.0036439332 -0.0036537142 -0.004617179 0.00707138 -0.008872719
-0.0054063206 0.00021689049 -0.00243886 -0.0072272085 0.007877649 0.00034022168 0.018827926 -0.004645005
-0.005261114 -0.0020715462 -0.007961667 0.0040413723 -0.015705185 0.0029786157 -0.009928593 0.0069063636
0.029081775 -0.045093913 0.005339359 0.022737889 0.016382348 -0.015606324 -0.01899256 0.007986808
0.006152325 -0.0045845537 -0.022941446 0.0032970968 -0.012617845 0.0015477438 0.013814652 0.0054194476
-0.0059857853 0.004523656 -0.0037867683 -0.003270958 0.003490239 0.010385331 0.011456163 -0.0016756948
0.010973097 0.0014825328 0.006531411 0.007314187 -0.021115817 0.0040914207 -0.0020608227 0.0024375576
-0.00012834984 -0.008242055 0.0053900764 0.0029640207 0.008057223 0.00076641433 -0.007179441 0.0032621787
0.008154112 0.011724361 0.011725713 -0.014764208 0.022648867 0.0034331654 -0.013136922 -0.011477185
0.023207542 0.0018363488 0.006273946 0.0008068979 -0.0013068946 2.7222386e-05 0.014217725 -0.027513908
0.0073730987 0.0108978655 -0.0022248488 0.0036955655 -0.00406956 0.025807908 -0.0010296666 -0.0015914611
-0.027819531 0.0107116215 0.008078808 0.018337268 0.0010047852 0.0033270863 0.003939369 0.00409699
-0.03144261 0.021144528 -0.00392921 0.011819486 0.0038612315 -0.0028421236 0.013647204 -0.030955948
0.016962133 0.0058005042 0.010863223 0.020860793 0.0042394237 0.009829873 -0.006745198 0.0033018978
-0.0022203329 -0.0060870564 -0.0011466759 0.0058726533 -0.0022314447 0.01276787 0.0025501447 -0.0056013996
-0.0011202145 0.021043662 -0.0021596018 0.015284588 -0.0064297835 -0.0058080372 -0.021754405 0.001522285
-0.006548125 -0.0014760266 -0.008325194 0.0042399294 0.0034148537 0.015659912 0.0071631116 0.009886254
-0.0013061964 -0.0017262361 0.0036264607 0.0014543392 -0.0012070411 0.023452157 -0.00520042 -0.012722543
0.011817596 0.0003460372 0.0011867639 -0.008716677 -0.0040042703 -0.030080896 -0.00454712 0.0059294
-0.010742947 -0.00051761436 -0.00886022 -0.0021483891 -0.044046734 -0.012452698 -0.00038158993 -0.006821348
-0.008062876 -0.0033956545 0.00039146247 -0.009420064 0.0015322468 0.0010116113 -0.0068602464 0.0056458306
0.004809242 -0.00201878 -0.0039193076 -0.0038816694 0.0110185575 -0.020240039 0.004789667 0.0029534015
-0.0037983889 -0.017103516 0.0130473105 0.0047845566 0.00020759991 0.00228894 0.009877862 0.0009986775
0.0008596588 0.0008381049 -0.0014087971 0.0041607576 -0.013156249 -0.0024398908 -0.015196184 -0.0019295455
0.0026131815 0.010842905 0.008198197 0.0017501304 0.007259011 -0.0026792898 -0.0033922214 0.0059652035
-0.0018783589 -0.026622659 0.007246856 0.0015912377 -0.0012232122 -0.008766185 -0.0008036257 -0.05126757
0.009595274 0.009316672 0.022639379 -0.018562337 0.0074076485 0.0026172572 0.02078613 -0.0020040753
0.0189482 -0.00053347927 -0.0062466636 0.00084584457 0.0154922465 -0.006751781 0.005967709 -0.0035664907
0.0029106468 -0.0049785064 -0.015808232 -0.0077861375 0.017138623 -0.016811393 0.0047637024 -0.0072479015
-0.00046167005 -0.0008367609 0.0018469795 -0.0025221314 0.032034133 0.015969275 -0.02296465 0.0026442974
00000000: dcf1 283c 25b6 b839 f484 38bc 450e 38bc
00000010: ffd2 43bb df45 06bc 336c 6d3c 3e2c 433c
00000020: e807 723c 4c80 d1bb 6b24 c13b b7b9 94bb
00000030: b617 d23b e4de c73a 478b 3dbc bf21 4c3c
00000040: 8fe3 eabb f5fb ed3c 48ae 1cbc 0ecf 6ebb
00000050: 2773 6fbb b44b 97bb 09b7 e73b e15e 11bc
00000060: 8127 b1bb 196d 6339 48d5 1fbb 38d2 ecbb
00000070: 4111 013c c85f b239 063d 9a3c 2035 98bb
00000080: 6c65 acbb c7c2 07bb a771 02bc 7d6d 843b
00000090: 29a8 80bc e134 433b 8aab 22bc c74e e23b
000000a0: e73c ee3c 65b4 38bd caf5 ae3b cf44 ba3c
000000b0: 4634 863c abb1 7fbc 4996 9bbc 1adb 023c
000000c0: 7199 c93b 063a 96bb b3ef bbbc 1b14 583b
000000d0: 14bb 4ebc aadd ca3a da56 623c 9f95 b13b
000000e0: 6824 c4bb 2d3b 943b 6e2b 78bb 925d 56bb
000000f0: 7ebc 643b 3c27 2a3c a1b2 3b3c fda2 dbba
00000100: 81c8 333c 8c51 c23a 7205 d63b d9ab ef3b
00000110: 14fb acbc 5311 863b de0e 07bb 6ebf 1f3b
00000120: a695 06b9 af09 07bc 3d9f b03b 0440 423b
00000130: 7102 043c 32e9 483a 8441 ebbb 47ca 553b
00000140: d398 053c 8917 403c 341d 403c 94e5 71bc
00000150: 1e8a b93c f5fe 603b 3f3c 57bc ce0a 3cbc
00000160: be1d be3c a4b1 f03a ac95 cd3b 0086 533a
00000170: 1b4c abba a15b e437 76f1 683c d964 e1bc
00000180: 099a f13b f68c 323c c5ce 11bb 4d31 723b
00000190: f259 85bb 1b6b d33c e1f5 86ba 9398 d0ba
000001a0: c9e5 e3bc cc7f 2f3c fa5c 043c 0a38 963c
000001b0: ffb2 833a 3f0b 5a3b d315 813b 0b40 863b
000001c0: f7c9 00bd 4a37 ad3c 9ac0 80bb 84a6 413c
000001d0: b70c 7d3b ec42 3abb 8698 5f3c 5497 fdbc
000001e0: 2cf4 8a3c 2812 be3b a9fb 313c 41e4 aa3c
000001f0: ddea 8a3b 7a0d 213c d206 ddbb a764 583b
00000200: 0183 11bb ee75 c7bb 0f4c 96ba 636f c03b
00000210: 6e3d 12bb 5430 513c 5420 273b f28b b7bb
00000220: 29d4 92ba c263 ac3c 1b88 0dbb 356c 7a3c
00000230: efb0 d2bb 5951 bebb 4b36 b2bc 6987 c73a
00000240: a791 d6bb 3c77 c1ba 6566 08bc 1bef 8a3b
00000250: bdcb 5f3b 3749 803c 89b8 ea3b f4f9 213c
00000260: ae34 abba df42 e2ba eaa9 6d3b 879f be3a
00000270: 9435 9eba bd1e c03c 4968 aabb 3772 50bc
00000280: 979e 413c 546c b539 308d 9b3a 65d0 0ebc
00000290: 4136 83bb 366c f6bc 0200 95bb 6a4b c23b
000002a0: 3003 30bc 83b0 07ba 752a 11bc fdcb 0cbb
000002b0: 596a 34bd 6706 4cbc 2210 c8b9 9d85 dfbb
000002c0: 271a 04bc a189 5ebb 343d cd39 9d56 1abc
000002d0: acd5 c83a 0b98 843a ebcb e0bb a900 b93b
000002e0: d996 9d3b 824d 04bb 896d 80bb 9b63 7ebb
000002f0: 2e87 343c 70ce a5bc a4f2 9c3b db8d 413b
00000300: 64ee 78bb ac1c 8cbc 63c4 553c c5c7 9c3b
00000310: 2daf 5939 0a02 163b c2d6 213c 0ee6 823a
00000320: ba5a 613a 45b4 5b3a 63a7 b8ba f756 883b
00000330: 4f8d 57bc 93e6 1fbb 6af9 78bc cee8 fcba
00000340: e941 2b3b 71a6 313c bb51 063c a264 e53a
00000350: ffdc ed3b 0697 2fbb 0850 5ebb c177 c33b
00000360: 4433 f6ba c317 dabc 0977 ed3b 1491 d03a
00000370: 3154 a0ba 0ba0 0fbc 68aa 52ba f2fd 51bd
00000380: 7f35 1d3c f4a4 183c 3876 b93c 0b10 98bc
00000390: dcbb f23b 4a86 2b3b ad47 aa3c ce56 03bb
000003a0: 4139 9b3c 30d9 0bba d0b0 ccbb abbb 5d3a
000003b0: 31d3 7d3c 0b3e ddbb c58c c33b c9bb 69bb
000003c0: 8dc0 3e3b bd22 a3bb 4480 81bc db22 ffbb
000003d0: 4c66 8c3c 0cb8 89bc d518 9c3b ce7f edbb
000003e0: 4e0c f2b9 135a 5bba 5916 f23a 584a 25bb
000003f0: 3936 033d ffd1 823c 5d20 bcbc f34b 2d3b

fc2.weight f4 [128, 256]
-0.107695684 -0.11166754 -0.16233769 -0.14129262 0.009762047 -0.011179675 0.1178797 -0.092977725
0.116958894 -0.036957752 0.06318409 -0.14210951 -0.066997014 -0.033722587 -0.07861618 0.06124641
-0.13395701 0.15300736 0.08019436 0.06375534 -0.074878216 0.048895836 0.23070271 -0.03195483
0.017335981 -0.10269688 -0.05854425 -0.07168582 -0.08944331 0.10999418 0.10923254 0.09632073
0.13199182 0.1133633 0.0667402 0.0026249776 -0.05772902 0.0074095847 0.26343253 0.033318426
0.056893215 -0.05215462 0.060502414 0.015833043 0.15532649 -0.13460042 -0.09705435 0.020135196
0.117776684 -0.17772505 -0.14586289 -0.13234861 -0.115456834 0.017079983 -0.0075908275 0.0027097154
-0.15913655 -0.05148915 0.13180578 -0.182083 0.17820235 -0.0054512145 0.06938865 0.008017293
-0.023285575 0.019944103 0.11826907 -0.03940539 0.09184452 -0.046439327 -0.1822907 0.010878501
-0.016581083 -0.07958172 -0.14337353 -0.043196734 0.046140656 0.0023080134 0.10986184 -0.08172618
0.21716143 -0.062670745 -0.03204765 -0.17686088 -0.08759277 -0.09432111 0.023299387 0.035642184
0.012730746 0.06400477 -0.07588595 0.0359129 -0.16113855 -0.0047423663 0.038764615 -0.19178079
-0.116468996 0.0031415618 -0.10135083 -0.017817948 0.022451786 -0.034320027 -0.10361012 0.15041077
0.040765937 0.002863021 0.12619093 0.11745596 -0.10242056 0.09788146 0.0042606876 -0.13510947
-0.10927179 -0.01619476 0.047277935 -0.11083471 0.058045037 0.009902382 -0.016260963 0.06883299
-0.029728457 0.0003410532 0.14769752 -0.022160366 -0.096820205 -0.12138419 0.044017397 -0.16982678
0.28935584 0.058412485 -0.14001678 -0.04376619 0.12565012 -0.10406501 -0.12862808 0.031826247
0.08428857 0.1266165 -0.08137708 -0.04352258 0.1519741 0.2219236 0.12293761 -0.05762907
0.043508332 0.04211779 0.009757691 0.037572946 -0.057201024 0.10913599 0.05323162 0.0655657
-0.11874922 0.005912657 -0.126526 0.08417967 -0.1081744 0.0067943814 -0.08058436 -0.116924495
-0.14793392 0.018416915 -0.10419587 -0.08343411 -0.111759275 0.027827585 -0.09634449 0.005122433
-0.03351019 0.010636504 -0.13176584 0.10152808 -0.004998985 -0.09912548 0.08227338 0.09427063
0.121124834 0.18515967 0.029261597 -0.048865423 0.040846106 -0.08127312 0.050105188 -0.043604445
0.048008986 0.038817555 0.0077540423 -0.16589113 0.012723143 -0.040625088 -0.022539563 -0.12255518
-0.10110325 0.039049286 0.05885983 -0.024959723 -0.101569265 0.05947429 0.073478684 -0.051336955
0.03242937 -0.18521479 -0.14443085 -0.2158862 -0.080065645 -0.027593296 0.07730596 0.15469828
-0.19291443 -0.04827778 -0.036839128 -0.16697079 -0.1530056 0.011932918 -0.09003402 -0.0042816787
0.12757921 -0.062084258 0.13340929 0.1867691 -0.10921831 0.029390099 -0.00016498248 -0.12228478
-0.02638687 -0.123147056 -0.023291737 -0.11823502 -0.028052898 0.024037397 -0.2396748 0.10576091
0.0047659944 0.06431654 0.15569375 -0.0775747 0.17734309 -0.037503336 -0.04643312 0.06520053
0.006757145 0.04635373 0.18806261 -0.10425778 -0.11553954 0.10754893 0.07865982 -0.01246468
0.13528496 0.02636151 -0.01845705 -0.13642232 0.115060605 -0.19528481 -0.084797904 0.13078527
00000000: 8e8f dcbd f4b1 e4bd da3b 26be 03af 10be
00000010: fef0 1f3c f52a 37bc ea6a f13d 1b6b bebd
00000020: 2588 ef3d 0361 17bd a966 813d 2885 11be
00000030: bb35 89bd b220 0abd 8501 a1bd 84dd 7a3d
00000040: 072c 09be f6ad 1c3e f13c a43d 2992 823d
00000050: c059 99bd 0047 483d 553d 6c3e 11e3 02bd
00000060: 3004 8e3c be52 d2bd 18cc 6fbd 04d0 92bd
00000070: 0e2e b7bd a144 e13d 4fb5 df3d ce43 c53d
00000080: dd28 073e 052b e83d 16af 883d d107 2c3b
00000090: 4475 6cbd 1acc f23b a1e0 863e e778 083d
000000a0: dc08 693d 15a0 55bd 61d1 773d 4cb4 813c
000000b0: e80d 1f3e b1d4 09be 6ec4 c6bd 91f2 a43c
000000c0: e734 f13d 8efd 35be 155d 15be 6586 07be
000000d0: a274 ecbd 52eb 8b3c 7abc f8bb 7b95 313b
000000e0: b1f4 22be 49e6 52bd 18f8 063e f773 3abe
000000f0: ad7a 363e 1aa0 b2bb a31b 8e3d f75a 033c
00000100: 64c1 bebc d161 a33c 0e37 f23d 8c67 21bd
00000110: fb18 bc3d 2a37 3ebd 6aaa 3abe be3b 323c
00000120: 0dd5 87bc befb a2bd 83d0 12be 0fef 30bd
00000130: fcfd 3c3d 0a42 173b 3fff e03d 0e60 a7bd
00000140: 915f 5e3e 8559 80bd 6644 03bd 051b 35be
00000150: d763 b3bd 6d2b c1bd 5bde be3c 8afd 113d
00000160: 9e94 503c ef14 833d 186a 9bbd 6819 133d
00000170: 8101 25be da65 9bbb a5c7 1e3d 2f62 44be
00000180: 4c87 eebd a9e2 4d3b 0691 cfbd f2f6 91bc
00000190: cfec b73c 2893 0cbd 8b31 d4bd 4805 1a3e
000001a0: 2ffa 263d 86a1 3b3b 3238 013e c08c f03d
000001b0: dfc1 d1bd 1376 c83d 3d9d 8b3b 235a 0abe
000001c0: e3c9 dfbd e0aa 84bc 82a6 413d 4ffd e2bd
000001d0: a2c0 6d3d 9a3d 223c b635 85bc 50f8 8c3d
000001e0: 1889 f3bc 63cf b239 053e 173e a889 b5bc
000001f0: ac49 c6bd 4698 f8bd 964b 343d 12e7 2dbe
00000200: 7326 943e ee41 6f3d 8f60 0fbe 2d44 33bd
00000210: 6daa 003e 0920 d5bd 14b7 03be 3d5c 023d
00000220: 7c9f ac3d c1a7 013e 07a9 a6bd bc44 32bd
00000230: 199f 1b3e f13f 633e b7c6 fb3d 760c 6cbd
00000240: cb35 323d b483 2c3d b9de 1f3c 17e6 193d
00000250: 9f4b 6abd b182 df3d 6609 5a3d 4f47 863d
00000260: cb32 f3bd f6be c13b 0890 01be 6466 ac3d
00000270: 8a8a ddbd 67a3 de3b 6a09 a5bd 1c76 efbd
00000280: fd7b 17be 12df 963c a564 d5bd 81df aabd
00000290: 0ce2 e4bd adf6 e33c 4350 c5bd 15da a73b
000002a0: fb41 09bd bb44 2e3c a0ed 06be f4ed cf3d
000002b0: 87ce a3bb 4d02 cbbd f27e a83d f610 c13d
000002c0: 4c10 f83d 7f9a 3d3e 04b6 ef3c 1c27 48bd
000002d0: 3f4e 273d 8672 a6bd 193b 4d3d 939a 32bd
000002e0: 12a5 443d 28ff 1e3d 9f15 fe3b 5ddf 29be
000002f0: bb74 503c 7e66 26bd e4a4 b8bc 36fe fabd
00000300: 390f cfbd 25f2 1f3d 0117 713d 5578 ccbc
00000310: 8c03 d0bd 509b 733d fe7b 963d b346 52bd
00000320: a9d4 043d f2a8 3dbe aee5 13be 4611 5dbe
00000330: 75f9 a3bd 560b e2bc 9652 9e3d 3a69 1e3e
00000340: 5c8b 45be ecbe 45bd a0e4 16bd 64fa 2abe
00000350: 80ad 1cbe 4982 433c c263 b8bd 534d 8cbb
00000360: 20a4 023e 104c 7ebd 729c 083e 6640 3f3e
00000370: d9ad dfbd 81c3 f03c 26ff 2cb9 7170 fabd
00000380: 4729 d8bc 8634 fcbd 50ce bebc 3425 f2bd
00000390: 31cf e5bc 13ea c43c 506d 75be 2d99 d83d
000003a0: 0f2c 9c3b 64b8 833d 2f6e 1f3e 7cdf 9ebd
000003b0: 6d99 353e 199d 19bd a830 3ebd db87 853d
000003c0: 0a6b dd3b 69dd 3d3d 7c93 403e 1a85 d5bd
000003d0: ff9f ecbd 9d42 dc3d 6618 a13d a838 4cbc
000003e0: 2488 0a3e 18f4 d73c 3d33 97bc 4bb2 0bbe
000003f0: e5a4 eb3d bef8 47be 86aa adbd 93ec 053e

fc2.bias f4 [128]
-0.0153976055 0.004809641 0.03750557 -0.03827749 -0.0053286618 -0.02646694 -0.008283477 -0.0044809827
-0.016360916 0.013343496 -0.0058183623 -0.005415505 -0.02506782 -0.02955288 0.011761228 -0.007181365
0.007595011 -0.013618451 -0.0123616075 -0.0317718 -0.018787306 0.006771102 0.008366992 -0.0031430754
-0.015065011 0.013408261 -0.03246827 -0.025483847 -0.0142397955 0.024098607 0.010030889 0.025413392
0.032943152 0.0038535867 -0.00986465 -0.014738465 -0.033020128 -0.014905365 -0.019521393 -0.009244538
-0.008349516 -7.3204035e-05 -0.0129984105 -0.011527108 0.0039030681 -0.009242128 -0.014632454 -0.006279481
0.011275672 0.01027114 0.008872228 -0.0066986424 -0.0042028707 -0.011800288 0.01072486 0.01802097
-0.0030806428 -0.024303423 0.0135485055 -0.026282314 0.023792928 0.0027569146 0.0100242 -0.026349857
-0.011194461 -0.02334073 0.0014631028 -0.0050320453 -0.017638478 -0.015055763 -0.0045280247 -0.005390054
-0.0046647107 0.0034105056 -0.009694206 -0.014404373 0.010897161 0.018063739 -0.036248412 -0.0102777
0.011749829 0.0017207804 0.016009318 -0.012278019 0.021678286 -0.0025625138 -0.029126527 0.016230894
0.0010915578 0.027982324 0.012663531 -0.021339115 0.0032641785 0.004750127 -0.014488615 0.025911478
0.0018337438 -0.015418967 -0.012252304 -0.006629708 -0.01147641 -0.018446507 0.020737309 -0.01850962
-0.019963762 -0.034335107 -0.035684295 -0.013065494 -0.008354819 -0.01196745 -0.018748082 -0.008756064
0.018042283 -0.003286951 0.006856389 0.014061612 0.022184853 0.028837591 -0.015189534 0.013550689
0.027200243 0.008738599 0.01295889 -0.0089146765 -0.008559058 0.01078089 -0.010462277 0.014585938
00000000: 3d46 7cbc 319a 9d3b 719f 193d dbc8 1cbd
00000010: 0e9c aebb 32d1 d8bc 6cb7 07bc 35d5 92bb
00000020: 5407 86bc ae9e 5a3c f6a7 bebb 8c74 b1bb
00000030: 075b cdbc e218 f2bc 2ab2 403c a851 ebbb
00000040: 92df f83b ec1f 5fbc 5788 4abc 2623 02bd
00000050: d6e7 99bc 1fe0 dd3b b515 093c 0efc 4dbb
00000060: 3cd3 76bc 53ae 5b3c 73fd 04bd 80c3 d0bc
00000070: 084e 69bc 716a c53c 9958 243c bf2f d03c
00000080: 66ef 063d 758c 7c3b 579f 21bc 9a79 71bc
00000090: 1d40 07bd a235 74bc 54eb 9fbc 6776 17bc
000000a0: 69cc 08bc 1e85 99b8 49f7 54bc 32dc 3cbc
000000b0: 9eca 7f3b 4b6c 17bc f6bc 6fbc 1bc4 cdbb
000000c0: 99bd 383c 4948 283c d25c 113c 4980 dbbb
000000d0: 3cb8 89bb ff55 41bc 53b7 2f3c b7a0 933c
000000e0: 9ce4 49bb f917 c7bc 8dfa 5d3c 024e d7bc
000000f0: 63e9 c23c 5aad 343b 8b3c 243c a8db d7bc
00000100: f968 37bc 0f35 bfbc 95c5 bf3a dbe3 a4bb
00000110: 927e 90bc 72ac 76bc d35f 94bb 0d9f b0bb
00000120: 6eda 98bb ca82 5f3b 72d4 1ebc 5200 6cbc
00000130: 028a 323c 68fa 933c 3779 14bd cc63 28bc
00000140: 5b82 403c cf8b e13a f925 833c bf29 49bc
00000150: a996 b13c d9ef 27bb c19a eebc a7f6 843c
00000160: 9a12 8f3a 303b e53c b37a 4f3c 5ecf aebc
00000170: d4eb 553b f4a6 9b3b a861 6dbc 4f44 d43c
00000180: 3b5a f03a d69f 7cbc e3bd 48bc 063e d9bb
00000190: 8d07 3cbc 211d 97bc 4ae1 a93c 7da1 97bc
000001a0: 0b8b a3bc f8a2 0cbd b229 12bd a710 56bc
000001b0: a7e2 08bc 2013 44bc 9495 99bc 9875 0fbc
000001c0: 69cd 933c e369 57bb 8fab e03b ad62 663c
000001d0: 02bd b53c d03c ec3c 86dd 78bc b603 5e3c
000001e0: 0bd3 de3c 572c 0f3c 8651 543c dd0e 12bc
000001f0: 4b3b 0cbc 54a2 303c f869 2bbc dcf9 6e3c

fc3.weight f4 [64, 128]
0.19837427 0.08574981 -0.1901926 0.015990421 0.027587092 0.19945486 0.14301653 0.1599766
-0.10751315 0.21054535 0.020318175 0.16043453 -0.043434516 0.099876665 0.20859592 -0.039356653
-0.26215598 -0.11622584 0.034008436 0.05751694 0.22165686 0.046209525 -0.14265089 -0.090132415
0.059005573 0.055136327 -0.011116707 0.008250692 0.047115643 0.022646816 -0.20068271 0.08782721
-0.21272609 -0.11366943 0.19744128 -0.02066748 -0.0024898984 0.10005265 0.1924991 -0.21087113
-0.07967958 -0.03550196 0.0842605 -0.09003493 0.21407537 -0.081236556 -0.04058161 0.034193538
-0.019501777 -0.16211686 -0.08901939 0.22428855 0.14727333 -0.08488352 0.060945008 0.08047712
0.036904097 -0.14364654 -0.106173165 -0.24732828 0.18917124 0.20222986 -0.042062417 0.31140864
0.03295995 0.19010174 0.15907179 -0.08295482 -0.05089144 -0.13246325 -0.06547895 0.1745477
0.016453413 0.11580232 0.0712361 0.022034489 0.22037287 0.109638095 0.08408264 -0.061387386
0.03151378 0.04561645 0.18696849 0.0048549576 0.04253554 -0.012118069 -0.097145654 -0.08233491
0.124516636 0.072584495 -0.120567635 -0.20023412 0.07387456 -0.0014516443 -0.15648608 -0.08467605
0.09623127 0.02134202 0.16349384 -0.17159589 -0.027836384 0.31359 -0.093291946 0.1623875
0.23513019 0.25343567 0.14967385 -0.099472225 0.1368263 -0.17824237 -0.050163563 0.0364488
-0.08696739 0.19335215 -0.11912192 0.056473933 -0.2333231 0.11627902 0.081844024 -0.137208
-0.07076346 0.096066095 -0.07952404 0.12957393 -0.1802247 0.11164111 -0.07775425 0.06069469
0.06384034 -0.21559843 -0.17883332 0.049361426 0.13170083 0.01895993 0.07052564 0.08799176
-0.09937107 -0.1336702 -0.09504961 0.17955974 -0.18271533 -0.21901903 0.075602084 -0.19087073
0.17997456 0.19734862 0.08871499 -0.13501127 0.032608468 -0.025222538 0.1834377 0.026823562
-0.09903336 0.09057624 -0.0569552 -0.07567357 0.080922335 -0.2440084 0.21707194 0.15285993
-0.12743765 0.14919817 -0.1382858 -0.1954804 -0.03309852 0.03734348 0.22614202 -0.047322754
0.0572536 -0.14562306 0.031777903 -0.01890731 -0.092409156 0.09356689 0.03707511 0.026560996
0.21690874 -0.04340013 -0.091202274 0.12063702 -0.072320335 0.06093781 0.09788663 0.23346463
0.1617423 -0.00036654537 0.227463 -0.2688865 0.071864136 -0.0022455086 0.20409437 0.050649323
0.118409455 0.0053980127 -0.1909173 -0.13895568 -0.1637954 0.31065986 0.06882202 0.033391695
-0.054935347 0.16415146 -0.09801868 -0.17590468 0.22719741 -0.13345382 -0.1002862 -0.15062097
0.09155995 -0.090915576 -0.15699296 0.13057226 0.05927883 0.06636939 0.10136185 0.04334517
-0.16817372 -0.11502502 -0.27236244 -0.058163825 0.12647718 -0.07135142 0.0033722608 -0.11265466
-0.040651772 -0.008815938 0.15113166 0.18197645 0.031808525 -0.06101411 -0.001616669 0.13821448
-0.06992901 -0.13418208 0.2382726 0.24242522 0.07908076 0.100499436 -0.16936025 -0.04325097
0.090258114 -0.09315821 0.08236101 0.15066588 -0.065976344 0.22424099 0.3226675 0.017597113
0.0926015 0.1519902 0.04036852 -0.16814737 0.058536474 -0.21858083 -0.15339753 -0.0059172
00000000: a022 4b3e 999d af3d d9c1 42be 58fe 823c
00000010: 53fe e13c e53d 4c3e ed72 123e e8d0 233e
00000020: db2f dcbd 3399 573e 4d72 a63c f348 243e
00000030: 64e8 31bd 238c cc3d 2b9a 553e 7134 21bd
00000040: 4f39 86be d007 eebd 6e4c 0b3d e296 6b3d
00000050: 04fa 623e 3346 3d3d 1313 12be 5897 b8bd
00000060: d4af 713d a1d6 613d d922 36bc e92d 073c
00000070: 55fc 403d d185 b93c c57f 4dbe c1de b33d
00000080: ded4 59be 85cb e8bd 0c2e 4a3e d94e a9bc
00000090: 902d 23bb 67e8 cc3d 7c1e 453e 9aee 57be
000000a0: 0c2f a3bd 816a 11bd c590 ac3d 3c64 b8bd
000000b0: 9336 5b3e 5a5f a6bd e738 26bd 860e 0c3d
000000c0: 31c2 9fbc f601 26be cc4f b6bd e6ab 653e
000000d0: d2ce 163e 69d7 adbd 79a1 793d 30d1 a43d
000000e0: c028 173d 1418 13be 5171 d9bd a043 7dbe
000000f0: 1bb6 413e 5815 4f3e a449 2cbd f470 9f3e
00000100: 0301 073d 08aa 423e b7e3 223e 37e4 a9bd
00000110: 8b73 50bd 72a4 07be d419 86bd a2bc 323e
00000120: 4fc9 863c c429 ed3d 3be4 913d ac81 b43c
00000130: 6da9 613e f089 e03d 8533 ac3d 5771 7bbd
00000140: 9814 013d 51d8 3a3d ab74 3f3e 5616 9f3b
00000150: bf39 2e3d de8a 46bc 4df4 c6bd 359f a8bd
00000160: 9402 ff3d 2ea7 943d 2aec f6bd 2c0a 4dbe
00000170: 8c4b 973d 1a45 beba e33d 20be a36a adbd
00000180: e614 c53d 76d5 ae3c ee6a 273e d5b6 2fbe
00000190: 2109 e4bc de8e a03e d90f bfbd e948 263e
000001a0: f8c5 703e 52c2 813e 1a44 193e 18b8 cbbd
000001b0: 321c 0c3e 2b85 36be 4f78 4dbd 564b 153d
000001c0: f51b b2bd 1bfe 453e 31f6 f3bd 3651 673d
000001d0: 40ec 6ebe b223 ee3d d79d a73d 4180 0cbe
000001e0: 6fec 90bd 4dbe c43d 80dd a2bd 07af 043e
000001f0: d38c 38be 18a4 e43d 9f3d 9fbd ff9a 783d
00000200: b9be 823d d6c5 5cbe 1520 37be 352f 4a3d
00000210: 95dc 063e db51 9b3c bf6f 903d 0635 b43d
00000220: 0f83 cbbd d7e0 08be 5fa9 c2bd 82de 373e
00000230: ba19 3bbe 8646 60be 44d5 9a3d 9e73 43be
00000240: 404b 383e c215 4a3e 34b0 b53d 6540 0abe
00000250: 7590 053d 7f9f cebc 18d7 3b3e 16bd db3c
00000260: 01d2 cabd 0980 b93d db49 69bd bffa 9abd
00000270: 9cba a53d 57dd 79be 1b48 5e3e 5087 1c3e
00000280: 047f 02be 68c7 183e cb9a 0dbe 042c 48be
00000290: 5092 07bd 7af5 183d c691 673e 81d5 41bd
000002a0: c082 6a3d 361e 15be 8c29 023d 81e3 9abc
000002b0: 0341 bdbd ff9f bf3d 12dc 173d 7296 d93c
000002c0: 531d 5e3e 56c4 31bd 42c8 babd 8b10 f73d
000002d0: af1c 94bd ed99 793d c978 c83d 5a11 6f3e
000002e0: c69f 253e e32c c0b9 10ec 683e 7eab 89be
000002f0: 812d 933d 6229 13bb 1dfe 503e aa75 4f3d
00000300: a880 f23d d0e1 b03b d37f 43be 664a 0ebe
00000310: fbb9 27be cf0e 9f3e 8ff2 8c3d bbc5 083d
00000320: e303 61bd 5217 283e 05be c8bd 5b20 34be
00000330: 70a6 683e 1ea8 08be da62 cdbd 623c 1abe
00000340: c883 bb3d f231 babd c3c2 20be bcb4 053e
00000350: 5cce 723d adec 873d cd96 cf3d b48a 313d
00000360: bb35 2cbe 3d92 ebbd 1773 8bbe 313d 6ebd
00000370: 3c83 013e b120 92bd 2601 5d3b 7db7 e6bd
00000380: 7982 26bd b970 10bc 42c2 1a3e 0958 3a3e
00000390: a849 023d eee9 79bd 69e6 d3ba 1988 0d3e
000003a0: f136 8fbd 0767 09be bcfd 733e 513e 783e
000003b0: 18f5 a13d a6d2 cd3d c66c 2dbe ee27 31bd
000003c0: 3fd9 b83d bbc9 bebd e4ac a83d 2848 1a3e
000003d0: 9b1e 87bd 6e9f 653e ad34 a53e d227 903c
000003e0: dba5 bd3d 52a3 1b3e 7659 253d d32e 2cbe
000003f0: f1c3 6f3d a7d3 5fbe 3e14 1dbe 12e5 c1bb

fc3.bias f4 [64]
-0.01308195 -0.008937452 0.021632344 -0.0047621015 -0.003994508 -0.014256087 0.008689229 -0.0022843874
0.0061454717 -0.004319426 0.016712917 -0.0010775141 0.032867048 -0.033755988 0.031904086 0.0182475
-0.00022116736 -0.027785828 0.017198216 0.011309778 -0.020845588 0.0041603157 0.035613608 -0.006442361
0.013541492 0.018939406 0.01962275 -0.007172976 -0.023787238 -0.048702963 0.0050382623 -0.04054708
0.00875369 0.018465295 0.040952206 -0.054351777 0.0015520469 -0.012862013 0.0103011 -0.035799976
-0.0361892 0.010149249 -0.051173437 0.009387111 0.030765029 -0.019890513 0.026942689 0.028969144
-0.007353543 0.013266933 0.06123146 0.018999126 0.007238767 -0.01855577 0.0017484087 -0.0093049975
-0.039669145 -0.0072100284 -0.0018958865 -0.019883422 0.010727112 -0.016586823 -0.003156272 -0.0039028816
00000000: ad55 56bc 646e 12bc 5036 b13c 670b 9cbb
00000010: 5de4 82bb 5d92 69bc 455d 0e3c a9b5 15bb
00000020: f45f c93b f989 8dbb 87e9 883c 603b 8dba
00000030: 999f 063d b843 0abd dcad 023d c87b 953c
00000040: 29e9 67b9 1b9f e3bc 46e3 8c3c a64c 393c
00000050: 5ec4 aabc 4253 883b 93df 113d 711a d3bb
00000060: 22dd 5d3c d026 9b3c e4bf a03c 490b ebbb
00000070: 74dd c2bc c27c 47bd 0218 a53b b214 26bd
00000080: a36b 0f3c 8844 973c 80bd 273d f89f 5ebd
00000090: 0d6e cb3a 31bb 52bc f2c5 283c ffa2 12bd
000000a0: 203b 14bd 0949 263c 3d9b 51bd 66cc 193c
000000b0: f106 fc3c 6ef1 a2bc eab6 dc3c b350 ed3c
000000c0: fdf5 f0bb 8d5d 593c d7cd 7a3d 0ea4 9b3c
000000d0: 2e33 ed3b 4502 98bc dc2a e53a fd73 18bc
000000e0: 1d7c 22bd 1a42 ecbb 657f f8ba 8fe2 a2bc
000000f0: c5c0 2f3c 17e1 87bc 75d9 4ebb 7dc7 7fbb

fc4.weight f4 [23, 64]
-0.16488603 -0.008495273 -0.61828655 -0.19400893 0.035893235 0.11099591 -0.4646947 0.35808384
-0.30702478 -0.24605344 -0.7095516 -0.40307918 -0.4752449 -0.48160937 -0.67547566 -0.46043032
-0.40726784 0.06433361 -0.052567348 -0.31231457 0.49731097 -0.047803923 0.07940206 0.27651516
-0.47938666 -0.08993598 -0.37235385 0.36616552 -0.503631 -0.40681392 0.5054574 0.030211331
-0.2341891 0.35979885 -0.20421712 -0.3486269 -0.19941893 0.27119073 -0.051475737 -0.32186246
-0.21632212 0.44505864 -0.42251208 0.5534013 0.09480941 -0.29958454 -0.5546047 0.04775823
-0.49189818 -0.052141603 -0.18457758 -0.42513576 -0.32548943 -0.39297193 -0.053945426 0.34809104
-0.39865306 -0.28164217 0.62967455 -0.16399261 0.22982945 -0.22509372 0.45547244 0.22438437
-0.2554975 0.21779945 -0.07044235 -0.1511898 0.20060451 -0.02919934 -0.48517054 -0.0072347494
0.129915 0.04369924 -0.38380343 -0.26822838 -0.03976353 -0.41434288 0.16769512 -0.05976017
-0.21045262 0.12962312 0.23140554 -0.23547949 -0.16752768 -0.08075011 0.2229571 -0.10070893
0.10691116 -0.1833248 0.01991771 0.22356115 0.053932987 -0.045224212 -0.2824256 0.124404766
-0.29563466 0.101711474 -0.20692736 -0.37281424 0.17756036 -0.23112729 -0.37072706 -0.20755544
-0.35773838 0.14720136 -0.20010035 -0.17944355 -0.057143275 -0.0268873 0.039792843 -0.16473025
-0.23223871 -0.15129542 -0.08090312 0.2827728 0.19844703 0.1890277 -0.034510802 0.20481396
-0.12404723 -0.099933915 -0.18067504 -0.22647141 -0.009143453 -0.23950164 -0.17928138 0.20892657
-0.04609374 0.21526943 -0.04365213 -0.2470135 -0.26323155 0.24919727 0.2367668 -0.24195442
0.130645 0.072780624 0.23778713 -0.21458635 0.3012015 0.23175031 0.31883213 0.07726838
0.10694997 -0.22433144 -0.21005715 -0.07799395 -0.3761715 -0.29133794 -0.20840047 -0.5179781
-0.19117849 0.20471314 -0.16559768 -0.28199634 -0.07581377 -0.43724763 -0.45098057 0.02155802
0.43698478 -0.24842972 -0.17866516 0.09959941 0.013642462 -0.24599382 0.07538165 -0.42800924
0.2909123 0.083230294 0.26190403 -0.40756062 -0.07085223 -0.2828632 0.22426808 0.111718826
0.17833385 0.07772123 -0.26261452 0.0033792614 -0.35635048 -0.2801044 -0.59279716 -0.13471268
-0.012682699 0.12764934 -0.39760053 0.15584205 -0.41601467 0.41049308 -0.38473812 0.12573503
-0.2800351 0.17226593 -0.009330154 -0.04928648 -0.16644828 0.09378043 -0.0268682 0.1805663
-0.22324798 -0.3169432 0.24744458 -0.17773256 0.021340594 -0.3096793 -0.08036009 -0.023848541
-0.18407594 -0.23766431 -0.091772474 0.46265888 -0.024373364 -0.02956736 -0.04184567 -0.32815695
-0.34063768 -0.099990964 0.18477078 0.14538306 -0.2996781 0.30071408 0.56966084 0.16988109
-0.070200466 0.058268018 -0.3392253 -0.1981428 -0.24033691 -0.1403827 0.14319824 0.16661763
0.32135963 -0.00678438 -0.0070954715 0.28052405 -0.18234771 0.2895227 0.603048 0.31987852
0.05876757 0.2793215 -0.55539286 0.22892758 0.21731324 0.18409055 -0.18481295 0.2471413
0.03253411 0.10969953 0.3768576 -0.013187078 -0.32931098 -0.22025064 0.2502495 0.28574294
00000000: e2d7 28be c22f 0bbc 0748 1ebf 47aa 46be
00000010: c904 133d d351 e33d 77ec edbe c456 b73e
00000020: 5a32 9dbe 6ff5 7bbe 2ca5 35bf 6560 cebe
00000030: 4d53 f3be 8195 f6be f9eb 2cbf 86bd ebbe
00000040: 6985 d0be 57c1 833d dc50 57bd b2e7 9fbe
00000050: 8b9f fe3e 0cce 43bd 8c9d a23d 6593 8d3e
00000060: 2b72 f5be 5b30 b8bd 2aa5 bebe 0c7a bb3e
00000070: f6ed 00bf ea49 d0be a865 013f c17d f73c
00000080: 44cf 6fbe 8e37 b83e 4b1e 51be 3a7f b2be
00000090: 7a34 4cbe 83d9 8a3e 39d8 52bd 28cb a4be
000000a0: 8c83 5dbe bade e33e 8153 d8be b5ab 0d3f
000000b0: 702b c23d 2563 99be 93fa 0dbf 229e 433d
000000c0: 14da fbbe 6f92 55bd e801 3dbe 65ab d9be
000000d0: 8da6 a6be 9e33 c9be e1f5 5cbd fd38 b23e
000000e0: 411c ccbe 6733 90be 5a32 213f aeed 27be
000000f0: 6958 6b3e f87e 66be af33 e93e 04c5 653e
00000100: 91d0 82be d206 5f3e 1444 90bd 80d1 1abe
00000110: 456b 4d3e 7433 efbc 4668 f8be 7a11 edbb
00000120: 7008 053e f9fd 323d e281 c4be 3b55 89be
00000130: 15df 22bd c024 d4be 45b8 2b3e 14c7 74bd
00000140: e480 57be ecbb 043e 93f5 6c3e 8921 71be
00000150: 608c 2bbe 5060 a5bd de4e 643e 7c40 cebd
00000160: 3df4 da3d 7fb9 3bbe 772a a33c 37ed 643e
00000170: d6e8 5c3d 063d 39bd 179a 90be edc7 fe3d
00000180: 6d5d 97be 1b4e d03d c4e4 53be 82e1 bebe
00000190: 62d2 353e a2ac 6cbe f0cf bdbe 6a89 54be
000001a0: 7c29 b7be f4bb 163e 1be7 4cbe 0dc0 37be
000001b0: 110f 6abd c142 dcbc d2fd 223d 0caf 28be
000001c0: fccf 6dbe 30ed 1abe 89b0 a5bd 99c7 903e
000001d0: b335 4b3e 7a90 413e 335b 0dbd c0ba 513e
000001e0: 790c febd 27aa ccbd e102 39be 1fe8 67be
000001f0: 6cce 15bc eb3f 75be 8a95 37be d9f0 553e
00000200: cacc 3cbd 976f 5c3e 93cc 32bd 1bf1 7cbe
00000210: 49c6 86be 922d 7f3e ff72 723e e6c2 77be
00000220: cec7 053e 020e 953d 787e 733e 86bc 5bbe
00000230: 1537 9a3e f44f 6d3e f73d a33e e23e 9e3d
00000240: 9608 db3d 24b7 65be 3919 57be 4bbb 9fbd
00000250: 8d99 c0be 3f2a 95be ef66 55be 369a 04bf
00000260: 4bc4 43be 52a0 513e 7092 29be d361 90be
00000270: 4044 9bbd ecde dfbe ede6 e6be 729a b03c
00000280: 78bc df3e 5c64 7ebe 00f4 36be c7fa cb3d
00000290: a284 5f3c cee5 7bbe b261 9a3d 0724 dbbe
000002a0: 75f2 943e a574 aa3d 4918 863e c9ab d0be
000002b0: f91a 91bd 72d3 90be 88a6 653e d7cc e43d
000002c0: 269d 363e 4f2c 9f3d 6975 86be 9976 5d3b
000002d0: 9273 b6be d869 8fbe 8ec1 17bf 1ff2 09be
000002e0: 18cb 4fbc 82b6 023e 4c92 cbbe 0f95 1f3e
000002f0: e0ff d4be 262c d23e 65fc c4be afc0 003e
00000300: c360 8fbe 7b66 303e 81dd 18bc 9fe0 49bd
00000310: 6b71 2abe f40f c03d b31a dcbc 5fe6 383e
00000320: 1e9b 64be 6146 a2be 1d62 7d3e 86ff 35be
00000330: 78d2 ae3c 498e 9ebe d593 a4bd 045e c3bc
00000340: 677e 3cbe 465e 73be 35f3 bbbd a0e1 ec3e
00000350: a6aa c7bc 4037 f2bc 5e66 2bbd 3004 a8be
00000360: 1068 aebe 10c8 ccbd 8d34 3d3e 4cdf 143e
00000370: 686f 99be 32f7 993e 4bd5 113f 4ff5 2d3e
00000380: 43c5 8fbd 72aa 6e3d f0ae adbe f2e5 4abe
00000390: e11a 76be 7cc0 0fbe 8fa2 123e d09d 2a3e
000003a0: 4089 a43e 814f debb 2181 e8bb d9a0 8f3e
000003b0: 5cb9 3abe 523c 943e 5b61 1a3f 1ec7 a33e
000003c0: 43b6 703d 3a03 8f3e 3a2e 0ebf fe6b 6a3e
000003d0: 5d87 5e3e 3c82 3c3e 9b3f 3dbe 9c12 7d3e
000003e0: 7d42 053d 26aa e03d 7bf3 c03e 9d0e 58bc
000003f0: 739b a8be 6289 61be b420 803e e64c 923e

fc4.bias f4 [23]
-0.09334814 0.09258902 -0.0401149 0.3459861 -0.084484816 -0.047348965 -0.2650671 -0.12673888
0.060004607 -0.18639684 -0.36107603 0.09182203 -0.04365568 -0.25586578 -0.0022824516 -0.20124196
-0.12935476 -0.0084937 -0.14397088 -0.024391975 0.097521946 0.06765337 0.096899636
00000000: 4f2d bfbd 509f bd3d 854f 24bd 1725 b13e
00000010: 6006 adbd fdf0 41bd e0b6 87be d6c7 01be
00000020: 64c7 753d d0de 3ebe f5de b8be 300d bc3d
00000030: 4cd0 32bd d700 83be 2f95 15bb 5f12 4ebe
00000040: 9375 04be 2929 0bbc 1a6d 13be aed1 c7bc
00000050: 96b9 c73d da8d 8a3d 5173 c63d

bn1.weight f4 [256]
0.9720187 1.006993 0.89034873 1.0199093 0.9623959 0.86848927 0.9561572 0.8354018
0.9985229 0.8343885 0.92043257 0.83161974 0.9451497 1.0152735 0.94576824 0.97316396
0.818906 0.9260204 0.9787239 0.91703665 0.9802471 0.93076926 1.028913 0.93972427
0.98849994 0.94336647 0.922286 1.007068 0.92489445 0.92892826 0.94815433 1.0706079
0.8773826 0.8787852 0.8264477 1.0205007 0.9507255 0.8269729 0.98524076 0.83905554
0.9858904 1.2232585 0.9074064 1.0247957 0.9172 1.0780932 1.1682069 0.943938
0.8562297 0.98363274 0.92893356 0.8609439 0.9323093 0.89139056 1.0642765 0.9487179
0.8536052 1.1509191 0.96061784 0.84907156 0.9147924 1.0245297 0.82926834 1.0043033
0.95694613 0.91886324 0.7704047 0.96860296 0.94677883 1.2484329 0.9311739 0.93832624
0.94289744 1.0028776 0.9738782 0.96680915 1.0574945 0.9400496 1.0951203 0.9440599
0.9714944 0.9246653 0.8716164 0.9587239 0.92315155 1.0248492 1.0527878 0.95881087
0.955678 0.9079729 0.9263967 0.9417871 0.85939294 0.98977447 0.92788446 1.040002
0.9060113 1.0581504 1.0537674 0.9294497 0.9092184 1.0316992 0.9026957 0.8874121
1.2007282 0.8756874 0.9085807 0.966082 0.9676856 0.89215946 0.9007371 0.83169174
0.94642466 0.8811074 0.87429327 0.8847197 1.0298542 0.95246637 0.9664484 0.965011
0.90951145 0.90623486 0.92147255 0.9300584 0.9789637 1.0697217 0.9510454 0.87735015
0.9379177 1.0929148 0.911943 1.0278841 0.87062746 0.9294029 0.9537935 0.9022899
0.9760264 0.9907759 0.86785924 0.8579208 1.0297233 0.85794085 0.98994946 0.77417296
0.9228742 0.910074 1.0500035 0.93751955 0.8605986 0.85582715 0.89893544 0.9165469
0.9144954 0.91856825 1.0219575 0.97138673 0.9056827 0.91851085 0.89855707 0.8813775
1.0121677 0.9598091 0.91453916 1.1033344 0.9044821 0.9861725 1.0401636 0.9633699
0.91350496 0.8451709 0.9220677 0.8804181 0.992083 0.97323364 0.90706503 0.9960476
0.9251304 0.88811857 0.87197524 0.90421045 0.97418165 0.9805138 0.9450786 0.89680815
0.9162023 1.0764874 0.85018873 0.91979545 0.9471901 1.1076647 1.0450741 0.91848904
0.96032214 1.121235 0.9289877 1.085171 0.94752717 1.0057209 0.8775568 0.91864496
0.9399677 0.9799191 1.0223496 0.97501296 0.885553 1.0461135 1.0165207 1.115982
1.1444923 0.9865025 0.95300823 1.0798934 1.0079019 0.8930997 0.8894052 0.9968324
1.0809652 1.0793751 1.001303 0.9201059 0.98257685 0.9494658 1.0461545 0.92710567
0.9854313 0.93968856 0.9827827 1.1237077 1.0284592 0.8560434 0.99931717 0.9120654
1.018878 0.8831863 0.9986362 0.94317335 1.0586323 0.9360638 0.95563376 0.8450948
1.0426128 0.9018347 0.9234034 0.9461219 0.9645262 0.7975589 0.99457365 0.9343852
1.0320625 0.98140925 0.96306396 0.9973403 1.0945892 0.8398528 1.0223753 0.9201109
00000000: 38d6 783f 26e5 803f e5ed 633f 638c 823f
00000010: 945f 763f 5055 5e3f b8c6 743f e4dc 553f
00000020: 329f 7f3f 7c9a 553f 78a1 6b3f 08e5 543f
00000030: 55f5 713f 7bf4 813f de1d 723f 4621 793f
00000040: d3a3 513f ac0f 6d3f a68d 7a3f eac2 6a3f
00000050: 79f1 7a3f e546 6e3f 6cb3 833f c591 703f
00000060: 550e 7d3f 7780 713f ef1a 6c3f 9be7 803f
00000070: e2c5 6c3f 3ece 6d3f 3eba 723f ae09 893f
00000080: 259c 603f 11f8 603f 1492 533f c49f 823f
00000090: bf62 733f 7fb4 533f bd38 7c3f 58cc 563f
000000a0: 5063 7c3f bc93 9c3f c94b 683f 812c 833f
000000b0: 9fcd 6a3f f5fe 893f ce87 953f eca5 713f
000000c0: df31 5b3f 5bcf 7b3f 97ce 6d3f d266 5c3f
000000d0: d3ab 6e3f 2c32 643f 363a 883f 2ddf 723f
000000e0: df85 5a3f 5151 933f 0deb 753f c15c 593f
000000f0: d62f 6a3f ca23 833f ee4a 543f 038d 803f
00000100: 6cfa 743f 9f3a 6b3f 3e39 453f 5df6 773f
00000110: 1960 723f a6cc 9f3f 6a61 6e3f 2636 703f
00000120: ba61 713f 4b5e 803f 1550 793f ce80 773f
00000130: fb5b 873f 17a7 703f e72c 8c3f e9ad 713f
00000140: dbb3 783f ddb6 6c3f 4122 5f3f ee6e 753f
00000150: a953 6c3f 422e 833f c0c1 863f a174 753f
00000160: 50a7 743f e970 683f 5628 6d3f f618 713f
00000170: 2d01 5c3f dc61 7d3f d689 6d3f c91e 853f
00000180: 5bf0 673f 7971 873f dae1 863f 6af0 6d3f
00000190: 89c2 683f b80e 843f 1117 673f 702d 633f
000001a0: 76b1 993f 0d2d 603f bf98 683f 2651 773f
000001b0: 3eba 773f 9064 643f b596 663f c0e9 543f
000001c0: e348 723f 4190 613f afd1 5f3f fe7c 623f
000001d0: 43d2 833f d6d4 733f 2a69 773f f60a 773f
000001e0: bed5 683f 02ff 673f a0e5 6b3f 4f18 6e3f
000001f0: 5d9d 7a3f a4ec 883f b677 733f 059a 603f
00000200: 601b 703f a2e4 8b3f 1975 693f b591 833f
00000210: 71e1 5e3f 59ed 6d3f d02b 743f 79fc 663f
00000220: dedc 793f 7da3 7d3f 062c 5e3f b3a0 5b3f
00000230: f9cd 833f 03a2 5b3f 546d 7d3f 3330 463f
00000240: 7c41 6c3f 9cfa 683f 8466 863f 4801 703f
00000250: 3150 5c3f 7d17 5b3f a220 663f d1a2 6a3f
00000260: 5f1c 6a3f 4a27 6b3f 81cf 823f cdac 783f
00000270: d2da 673f 8723 6b3f d607 663f f5a1 613f
00000280: b68e 813f 0db6 753f 3d1f 6a3f 103a 8d3f
00000290: 248c 673f cd75 7c3f 1524 853f 699f 763f
000002a0: 76db 693f 1f5d 583f a10c 6c3f 1563 613f
000002b0: 27f9 7d3f d725 793f 6a35 683f fafc 7e3f
000002c0: 59d5 6c3f bd5b 633f c539 5f3f 567a 673f
000002d0: f863 793f f402 7b3f acf0 713f 3895 653f
000002e0: 3c8c 6a3f 57ca 893f f8a5 593f b777 6b3f
000002f0: 0d7b 723f f5c7 8d3f fdc4 853f 1922 6b3f
00000300: acd7 753f a184 8f3f 23d2 6d3f e2e6 8a3f
00000310: 2491 723f 76bb 803f 90a7 603f 512c 6b3f
00000320: b9a1 703f fadb 7a3f 5adc 823f 739a 793f
00000330: 9ab3 623f 0ce7 853f 5a1d 823f 80d8 8e3f
00000340: b97e 923f 6e8b 7c3f 59f8 733f f239 8a3f
00000350: ee02 813f 2fa2 643f 0fb0 633f 6830 7f3f
00000360: 115d 8a3f f728 8a3f b22a 803f 0f8c 6b3f
00000370: 288a 7b3f 3110 733f 64e8 853f cc56 6d3f
00000380: 3a45 7c3f 6e8f 703f a697 7b3f a7d5 8f3f
00000390: 8da4 833f a925 5b3f 40d3 7f3f 1e7d 693f
000003a0: 986a 823f 7f18 623f 9fa6 7f3f cf73 713f
000003b0: 4381 873f e1a1 6f3f 6aa4 743f 2258 583f
000003c0: 5674 853f a4de 663f 2a64 6c3f 0b35 723f
000003d0: 30eb 763f d22c 4c3f 619c 7e3f de33 6f3f
000003e0: a01a 843f a33d 7b3f 5c8b 763f b251 7f3f
000003f0: 801b 8c3f 9800 573f 32dd 823f 638c 6b3f

bn1.bias f4 [256]
-0.15853712 -0.06857074 -0.12946577 0.013203378 -0.06291116 -0.018503483 -0.11841555 -0.042433638
0.007131888 -0.11760329 -0.112116195 -0.10851894 -0.030136598 -0.018717295 -0.03520781 0.0045238505
-0.111282 -0.054891713 -0.10672446 -0.07312517 -0.046631757 -0.12279457 -0.007954848 -0.095515795
-0.017887438 0.046442572 -0.058443278 -0.023501534 -0.06999921 -0.0007312811 0.24196042 0.04454286
-0.068135634 -0.15922388 -0.18765005 -0.05361574 -0.033125866 -0.12868832 -0.01893558 -0.15187994
-0.060678974 0.112242356 -0.14518918 -0.028975856 -0.09506399 0.11556684 0.01459312 -0.08773135
0.051817067 -0.07446855 -0.05031399 -0.09560521 -0.12655494 -0.17888327 0.09127005 -0.06487146
-0.10859713 0.11063275 -0.05950777 -0.15311636 -0.0794761 0.10127995 -0.16559431 -0.05378872
-0.026562138 -0.033532184 -0.15124321 -0.024236979 -0.044144887 0.02526783 -0.13854262 -0.094065845
-0.051338207 0.018247945 -0.11087397 -0.04877671 -0.065536566 -0.051610712 -0.0004550086 -0.0219408
-0.20177446 -0.08668462 -0.120108314 -0.060183458 -0.011009847 -0.060460072 0.02520029 -0.047425494
0.0043420545 -0.09452592 0.036566764 -0.010954916 -0.09892507 0.019423144 -0.14555931 0.1683743
-0.10970335 0.14211124 -0.07622916 -0.021089375 -0.031112509 0.030753734 -0.068724334 0.0028056004
0.06636391 -0.101926595 -0.08448114 -0.05309171 -0.073804565 -0.040169336 -0.053188417 -0.14196134
-0.0022811056 -0.15124798 -0.090962075 -0.122833185 -0.022088787 0.039592016 0.098012775 0.07962566
-0.04197876 -0.10973228 0.038583107 -0.13340692 0.014726542 0.016746765 -0.03858018 -0.17302665
-0.092036076 0.0621725 -0.106876776 -0.13750988 -0.13325648 -0.122901574 -0.06836505 -0.06121655
0.025394442 -0.09223428 -0.12855132 -0.114740916 -0.013215761 -0.13979515 0.04834364 -0.11111907
-0.07134383 -0.08902921 0.014764738 -0.026035378 -0.058543276 -0.08983425 -0.09444147 -0.13120028
-0.1323296 -0.042407736 -0.084771216 -0.04650721 -0.092354074 -0.11618334 -0.11133076 -0.16883183
0.09581436 -0.034136713 -0.10049819 0.002131534 -0.06951484 -0.0814378 0.07804799 -0.121905155
-0.07928266 -0.15010533 -0.05494841 -0.11613841 -0.031573165 0.053347193 -0.015958006 -0.014583113
-0.113928236 -0.11921966 -0.116057396 -0.05593153 -0.08637023 -0.12045822 0.0032963185 -0.059101712
-0.062885255 -0.047424085 -0.16932872 0.020109963 -0.05733444 -0.09489022 -0.026335478 -0.13884607
-0.048516866 0.10218618 -0.06494641 -0.09235588 -0.042617388 -0.03881053 -0.073015735 -0.10015916
-0.02704025 -0.12675264 0.10284809 -0.11007284 -0.11816598 -0.05485805 0.027896184 0.00010402657
0.16698937 0.034539543 -0.0739568 -0.020926192 0.093085766 -0.15766273 -0.017704986 -0.042068403
-0.002478561 0.072691835 -0.09123187 0.022659885 0.044175286 -0.08148111 -0.023270264 -0.030894868
0.054326214 0.12812 0.04235872 0.007670109 -0.0522995 -0.12085293 -0.13426225 -0.03464508
-0.038462818 -0.046138134 0.0010973054 -0.05697772 -0.05597252 -0.046182606 -0.07755697 -0.17208362
-0.014023362 -0.089245595 0.027269507 0.08289435 -0.030923642 -0.17355259 -0.016611712 0.020363035
0.09572842 0.18891525 -0.09475139 -0.0422173 0.079826616 -0.18090978 0.027885156 -0.045297187
00000000: 8e57 22be d16e 8cbd ad92 04be fb52 583c
00000010: 91d7 80bd 9e94 97bc da83 f2bd e5ce 2dbd
00000020: 9db2 e93b fed9 f0bd 2d9d e5bd 2e3f debd
00000030: 07e1 f6bc 0355 99bc 1136 10bd cf3c 943b
00000040: d1e7 e3bd 22d6 60bd 5b92 dabd a6c2 95bd
00000050: f100 3fbd b87b fbbd 0d55 02bc c99d c3bd
00000060: ad88 92bc 913a 3e3d 3862 6fbd 4a86 c0bc
00000070: bf5b 8fbd 72b3 3fba 79c4 773e 9372 363d
00000080: b28a 8bbd 960b 23be 5627 40be 2e9c 5bbd
00000090: fdae 07bd dfc6 03be ca1e 9bbc 6a86 1bbe
000000a0: 848a 78bd 52df e53d 79ac 14be c65e edbc
000000b0: e9b0 c2bd 4fae ec3d fb17 6f3c 7eac b3bd
000000c0: 223e 543d f882 98bd 0b16 4ebd aacc c3bd
000000d0: 9e97 01be 2d2d 37be cbeb ba3d 54db 84bd
000000e0: 2c68 debd 6c93 e23d 6bbe 73bd 89ca 1cbe
000000f0: 5ec4 a2bd dd6b cf3d 8e91 29be 9051 5cbd
00000100: d798 d9bc 0b59 09bd 80df 1abe a18c c6bc
00000110: 45d1 34bd 7bfe ce3c 1ede 0dbe 98a5 c0bd
00000120: 0348 52bd b77c 953c e411 e3bd 16ca 47bd
00000130: 0938 86bd c165 53bd 388e eeb9 31bd b3bc
00000140: f79d 4ebe b587 b1bd 59fb f5bd ee82 76bd
00000150: a562 34bc fba4 77bd d770 ce3c 3c41 42bd
00000160: cb47 8e3b ce96 c1bd 08c7 153d 3f7c 33bc
00000170: 3a99 cabd 491d 9f3c 800d 15be 506a 2c3e
00000180: 26ac e0bd 9c85 113e 091e 9cbd a0c3 acbc
00000190: a9df febc 41ef fb3c 58bf 8cbd 2ade 373b
000001a0: cde9 873d e4be d0bd 7304 adbd b176 59bd
000001b0: d926 97bd 9a88 24bd 19dc 59bd 505e 11be
000001c0: 9a7e 15bb c0e0 1abe 534a babd f78f fbbd
000001d0: 8bf3 b4bc 3d2b 223d ecba c83d c712 a33d
000001e0: ecf1 2bbd 51bb e0bd 5209 1e3d d39b 08be
000001f0: 9847 713c 8330 893c 4006 1ebd e62d 31be
00000200: 697d bcbd 97a8 7e3d 36e2 dabd 64cf 0cbe
00000210: 6374 08be d2b3 fbbd fa02 8cbd 35be 7abd
00000220: 0108 d03c 54e5 bcbd f5a2 03be 49fd eabd
00000230: eb86 58bc 7626 0fbe fb03 463d 6592 e3bd
00000240: b71c 92bd f254 b6bd cde7 713c 2548 d5bc
00000250: 13cb 6fbd 05fb b7bd 886a c1bd 5e59 06be
00000260: 6981 07be bcb3 2dbd 889c adbd 587e 3ebd
00000270: 2224 bdbd 88f1 edbd 6201 e4bd 40e2 2cbe
00000280: 523a c43d f0d2 0bbd ffd1 cdbd 35b1 0b3b
00000290: cc5d 8ebd dcc8 a6bd a0d7 9f3d 69a9 f9bd
000002a0: f25e a2bd 36b5 19be 9511 61bd fad9 edbd
000002b0: dd52 01bd 9682 5a3d 5dba 82bc 02ee 6ebc
000002c0: 3553 e9bd 7029 f4bd 80af edbd 7618 65bd
000002d0: e0e2 b0bd cdb2 f6bd 0c07 583b a314 72bd
000002e0: fcc9 80bd c23f 42bd 8264 2dbe a6bd a43c
000002f0: 85d7 6abd ce55 c2bd 80bd d7bc aa2d 0ebe
00000300: 9fb9 46bd fd46 d13d a002 85bd 1425 bdbd
00000310: 928f 2ebd caf7 1ebd 4689 95bd 3f20 cdbd
00000320: 8483 ddbc 72cb 01be 05a2 d23d de6d e1bd
00000330: 0101 f2bd d6b2 60bd 8a86 e43c d728 da38
00000340: 43ff 2a3e 5679 0d3d aa76 97bd 686d abbc
00000350: c0a3 be3d 5772 21be 0c0a 91bc eb4f 2cbd
00000360: 5a6f 22bb 75df 943d c6d7 babd 39a1 b93c
00000370: 25f1 343d 91df a6bd 48a1 bebc 3c17 fdbc
00000380: 2a85 5e3d e431 033e 5680 2d3d 8a55 fb3b
00000390: 0038 56bd be81 f7bd 0b7c 09be 00e8 0dbd
000003a0: 308b 1dbd 57fb 3cbd 76d3 8f3a 7861 69bd
000003b0: 7143 65bd f929 3dbd 30d6 9ebd b036 30be
000003c0: 3ec2 65bc 65c6 b6bd 4d64 df3c 83c4 a93d
000003d0: 9453 fdbc c5b7 31be 4915 88bc 61d0 a63c
000003e0: 430d c43d 0073 413e 040d c2bd 0cec 2cbd
000003f0: 237c a33d 6a40 39be 696f e43c 8b89 39bd
